model_cat_rnn_entire.pt (torch, 247203 bytes, 10 tensors)

weight_ih_l0 f4 [256, 40]
0	0x38a8c73c	8.0479746e-05
1	0xba57372b	-0.000820982
2	0xbacafa78	-0.0015486022
3	0xbaec2299	-0.0018015682
4	0xbab9879f	-0.0014154798
5	0xbafc74d1	-0.0019260888
6	0xbb269121	-0.0025416093
7	0xbb45d342	-0.0030185734
8	0xbb740ea6	-0.0037240176
9	0xbb62faca	-0.0034634345
10	0xbb701414	-0.0036633061
11	0xbb75c0fa	-0.0037499056
12	0xbb4203ef	-0.0029604395
13	0xbb51eee1	-0.0032033252
14	0xbb68d08b	-0.0035524692
15	0xbb5ec14e	-0.003398973
16	0xbb65eef8	-0.0035085063
17	0xbb6da7d8	-0.0036263373
18	0xbb826de9	-0.0039803875
19	0xbb78c457	-0.0037958825
20	0xbb8574b6	-0.004072751
21	0xbb8b08df	-0.004243001
22	0xbb8f201c	-0.0043678414
23	0xbb8dcac8	-0.004327152
24	0xbb87507e	-0.0041294685
25	0xbb8dd4cf	-0.0043283473
26	0xbb8847c0	-0.004158944
27	0xbb9b9d94	-0.0047490094
28	0xbb95d997	-0.004573058
29	0xbb898b0e	-0.004197485
30	0xbb815247	-0.003946576
31	0xbb702c92	-0.003664766
32	0xbb6a931f	-0.0035793257
33	0xbb7c2c05	-0.0038478386
34	0xbb81cb14	-0.0039609764
35	0xbb79073c	-0.0037998697
36	0xbb72af30	-0.003703069
37	0xbb81d6ed	-0.0039623887
38	0xbb921e82	-0.004459203
39	0xbbb3be82	-0.005485357
40	0xba8dd568	-0.0010821046
41	0xbad1e592	-0.0016013852
42	0xbb2b24af	-0.0026114394
43	0xbb7181ae	-0.0036850977
44	0xbb5aa7ba	-0.0033364133
45	0xbba5f781	-0.005064905
46	0xbbcb89c0	-0.0062114894
47	0xbc003676	-0.0078254845
48	0xbc133f70	-0.008987293
49	0xbc0d7f33	-0.008636284
50	0xbc086fed	-0.008327466
51	0xbc06c76f	-0.00822626
52	0xbbf1b489	-0.007376258
53	0xbbf45240	-0.007456094
54	0xbc010641	-0.007875026
55	0xbc055861	-0.008138747
56	0xbc09d5c4	-0.008412782
57	0xbc0db138	-0.008648209
58	0xbc1574c4	-0.009122077
59	0xbc133af3	-0.008986223
60	0xbc1a638a	-0.009423146
61	0xbc243d2c	-0.01002435
62	0xbc262331	-0.010140226
63	0xbc20bd31	-0.009810732
64	0xbc271882	-0.010198714
65	0xbc2f9309	-0.010716208
66	0xbc2db848	-0.010603018
67	0xbc2e8b26	-0.010653293
68	0xbc29d4fd	-0.010365722
69	0xbc2dced7	-0.0106083965
70	0xbc22a8b9	-0.009927922
71	0xbc161d92	-0.009162324
72	0xbc1ceffd	-0.009578702
73	0xbc295a8f	-0.010336532
74	0xbc29193a	-0.010320956
75	0xbc21e65e	-0.009881584
76	0xbc2276c9	-0.009916016
77	0xbc2492ff	-0.010044812
78	0xbc2826a2	-0.010263117
79	0xbc25e6ac	-0.010125797
80	0xb63692cc	-2.720556e-06
81	0xb9c5f1f1	-0.00037755028
82	0xba052819	-0.00050795224
83	0xba722560	-0.00092371367
84	0xbac29e24	-0.0014848155
85	0xbb1f52a6	-0.0024310737
86	0xbb827fee	-0.0039825356
87	0xbbacced8	-0.005273681
88	0xbbb3a79d	-0.0054826275
89	0xbba91850	-0.005160369
90	0xbba9675f	-0.0051697935
91	0xbbb1654d	-0.0054136873
92	0xbbaefb28	-0.0053399988
93	0xbbb69852	-0.005572357
94	0xbbb1d720	-0.005427256
95	0xbbbf08ed	-0.0058299215
96	0xbbc5e91c	-0.0060397517
97	0xbbc55c67	-0.006022978
98	0xbbcd6247	-0.006267819
99	0xbbd072db	-0.006361348
100	0xbbd7de44	-0.0065877754
101	0xbbeea449	-0.007282768
102	0xbbfdaa62	-0.0077412585
103	0xbbf97db4	-0.007613862
104	0xbc00edf7	-0.007869235
105	0xbc0beee2	-0.008540841
106	0xbc0817e2	-0.008306475
107	0xbc04ed6c	-0.008113246
108	0xbc047c6c	-0.008086305
109	0xbc056bb5	-0.008143355
110	0xbc026668	-0.007958986
111	0xbbf7f541	-0.0075670783
112	0xbc01c642	-0.0079208035
113	0xbc0e4acc	-0.008684825
114	0xbc19de37	-0.009391359
115	0xbc1aca82	-0.009447696
116	0xbc183b37	-0.009291462
117	0xbc1159a8	-0.008871473
118	0xbc14d9cb	-0.009085129
119	0xbc1c5fbf	-0.009544312
120	0xb845899a	-4.709661e-05
121	0x387aa10b	5.9754628e-05
122	0x3964a533	0.00021805316
123	0x38d62534	0.00010211245
124	0xb880c40b	-6.1400315e-05
125	0xb9c89085	-0.00038254648
126	0xb9b795bb	-0.00035016038
127	0xb9a94802	-0.00032287842
128	0xb9e4aae7	-0.0004361488
129	0xba2318c5	-0.00062216475
130	0xba578c62	-0.0008222518
131	0xbab411fe	-0.0013738272
132	0xbaa29d5f	-0.0012406519
133	0xba4c26d6	-0.00077877694
134	0xba406ac5	-0.00073401286
135	0xba2ec5c0	-0.000666704
136	0xba96a309	-0.001149268
137	0xba9e6980	-0.0012085885
138	0xba2083a0	-0.0006123129
139	0xba18c941	-0.0005828329
140	0xba7407f0	-0.0009309044
141	0xba68dd68	-0.000888309
142	0xba120956	-0.0005570849
143	0xba3ed2b6	-0.0007279323
144	0xba3e20d4	-0.00072528166
145	0xba24d9ae	-0.00062885403
146	0xba16efa8	-0.00057577575
147	0xba1583b0	-0.0005703522
148	0xba2ee27b	-0.00066713215
149	0xba7e33dc	-0.00096970587
150	0xbaba9263	-0.00142343
151	0xbac99994	-0.0015380853
152	0xbace6cfc	-0.0015749033
153	0xbad09a46	-0.0015915118
154	0xbad71f69	-0.0016412559
155	0xbad52aba	-0.0016263344
156	0xbad6de9a	-0.0016393245
157	0xbac6cab5	-0.0015166613
158	0xbac055cb	-0.0014674006
159	0xbac1dff5	-0.0014791476
160	0xbb2df8d4	-0.0026546018
161	0xbb2d5104	-0.0026445994
162	0xbb348c24	-0.002754935
163	0xbb21bde2	-0.002467983
164	0xbb024fb9	-0.0019883944
165	0xbab348d2	-0.0013678318
166	0xba99f11b	-0.0011744829
167	0xbad8e9d6	-0.0016549181
168	0xbaabd0ae	-0.0013108456
169	0xba885ae7	-0.0010403068
170	0xba8a0b1d	-0.0010531876
171	0xba6b4ecc	-0.000897628
172	0xba3b32c2	-0.00071410474
173	0xba826326	-0.0009947761
174	0xba81f258	-0.0009914143
175	0xba96663f	-0.0011474564
176	0xba4409ff	-0.0007478296
177	0xb9cca050	-0.00039029354
178	0xba182534	-0.00058038835
179	0xba5687ea	-0.0008183705
180	0xba49e83d	-0.00077021477
181	0xb9f0c48c	-0.00045922806
182	0xba1b10be	-0.00059152755
183	0xba4de8b1	-0.0007854803
184	0xba415188	-0.0007374515
185	0xba5a053d	-0.00083168206
186	0xba5b7e5f	-0.0008373018
187	0xba726712	-0.0009246926
188	0xba6b4b9a	-0.0008975804
189	0xbaaab8d6	-0.0013025056
190	0xbb148143	-0.0022660054
191	0xbb3b221c	-0.0028554266
192	0xbb41fb4f	-0.0029599254
193	0xbb4499bd	-0.0029998862
194	0xbb434aa9	-0.002979914
195	0xbb401bcf	-0.002931345
196	0xbb3d7a4b	-0.0028912004
197	0xbb3889b9	-0.002815826
198	0xbb31f74c	-0.0027155457
199	0xbb2a24c1	-0.0025961848
200	0xbb04900c	-0.002022746
201	0xbb010518	-0.0019686874
202	0xbb13792d	-0.0022502646
203	0xbb0a298e	-0.0021081897
204	0xbaebe3f6	-0.0017997015
205	0xbabb4bee	-0.0014289597
206	0xbaadf721	-0.0013272503
207	0xbaca7d89	-0.0015448789
208	0xbac2e7c9	-0.0014870103
209	0xbaa4baa6	-0.0012567833
210	0xbaa3795b	-0.001247208
211	0xbab4031c	-0.0013733837
212	0xba98116b	-0.0011601871
213	0xba8f61f5	-0.0010939228
214	0xba847e4f	-0.0010108444
215	0xba9b34b1	-0.0011841265
216	0xbaaf53cd	-0.0013376415
217	0xba9998f2	-0.0011718555
218	0xba8243e9	-0.0009938452
219	0xbaa4cc4c	-0.0012573092
220	0xbac359b9	-0.0014904059
221	0xbab10971	-0.0013506842
222	0xbab0c6b0	-0.0013486948
223	0xbab3dbd6	-0.0013722132
224	0xba9ff1c8	-0.0012202794
225	0xbabe8ea0	-0.0014538355
226	0xbad3a992	-0.0016148558
227	0xbad3ecb4	-0.0016168565
228	0xbac8dd2e	-0.0015324706
229	0xbac4df57	-0.0015020174
230	0xbaa5d26b	-0.001265121
231	0xbaabd759	-0.0013110443
232	0xbac1784b	-0.0014760582
233	0xbaeabf03	-0.0017909709
234	0xbaf5712e	-0.0018725747
235	0xbae08c71	-0.0017131699
236	0xbadbdb89	-0.0016773801
237	0xbae36a0d	-0.0017350331
238	0xbaf292d0	-0.0018506888
239	0xbb00035d	-0.0019533255
240	0xbb24e2b5	-0.0025159542
241	0xbb2e2566	-0.0026572584
242	0xbb59ef72	-0.0033254293
243	0xbb72278f	-0.0036949848
244	0xbb73fdb8	-0.0037230086
245	0xbb985807	-0.0046491656
246	0xbb96f5f1	-0.004606955
247	0xbbc5a07c	-0.006031094
248	0xbbcede54	-0.0063131247
249	0xbbebcf33	-0.007196331
250	0xbbd79a95	-0.006579707
251	0xbbde594f	-0.0067855488
252	0xbbddb4f3	-0.0067659556
253	0xbbc936ab	-0.00614055
254	0xbbd86718	-0.0066040866
255	0xbbe6c551	-0.007042565

weight_hh_l0 f4 [256, 64]
0	0x3a1cca9a	0.0005981118
1	0x3b1f8c36	0.0024345047
2	0x3ab67680	0.0013920814
3	0x39a21979	0.00030918026
4	0xbab11a33	-0.0013511836
5	0x3aa1f17f	0.0012355297
6	0x3a0fd75a	0.0005487107
7	0x3aeeb351	0.00182114
8	0x3a44925f	0.00074986176
9	0x3b355b63	0.002767288
10	0xbab6d479	-0.001394882
11	0x3abfe590	0.0014640559
12	0xb96962cc	-0.00022257416
13	0x39b314c0	0.00034157
14	0xba2ad484	-0.00065166526
15	0xbae262c2	-0.0017271864
16	0x3ab8230e	0.0014048533
17	0xba61657e	-0.00085981924
18	0x3af5574d	0.0018718034
19	0x3ab9edbf	0.0014185234
20	0xb8541a6e	-5.0569353e-05
21	0xbaa53339	-0.0012603767
22	0xba450ad8	-0.00075165695
23	0x390dcb3a	0.00013522516
24	0xb96a932c	-0.00022370805
25	0x36029499	1.9458005e-06
26	0x3afc8907	0.0019266912
27	0xb8b12b9e	-8.448142e-05
28	0xbb1727f7	-0.0023064592
29	0xb99a139c	-0.0002938778
30	0x3ab97777	0.0014149983
31	0x39488ab9	0.00019125165
32	0x3972ba02	0.00023148212
33	0xba1ce4fc	-0.0005985049
34	0xba910dde	-0.0011066755
35	0x3a9ddfcb	0.0012044845
36	0x3ae46ded	0.001742778
37	0x3ac77b6b	0.0015219277
38	0xbaa790f7	-0.0012784292
39	0x3aba5d54	0.0014218488
40	0x38150732	3.553107e-05
41	0x3a9fd190	0.0012193192
42	0xbac941ea	-0.0015354727
43	0xb9c38485	-0.00037292033
44	0xb698aa94	-4.549811e-06
45	0x3a67b610	0.000883908
46	0x3a71e271	0.0009227163
47	0xba889518	-0.001042041
48	0x3ac85b74	0.0015286044
49	0x38a4f4be	7.865716e-05
50	0xba2bffd5	-0.0006561254
51	0x38df867b	0.000106585176
52	0xbb073bad	-0.0020634935
53	0xba4ff9fe	-0.0007933675
54	0x3abdd46e	0.0014482865
55	0xbab82411	-0.0014048835
56	0x396c31a3	0.00022525205
57	0x38fc7ed7	0.00012039922
58	0x38e37dda	0.00010847645
59	0x38072707	3.2222855e-05
60	0xb836d870	-4.3593755e-05
61	0xbadf9b99	-0.0017059922
62	0x3a1e3112	0.0006034534
63	0x3abb0bad	0.0014270447
64	0x3887c679	6.47427e-05
65	0xb92570bd	-0.00015777625
66	0xb99a9230	-0.00029482087
67	0x39b5e4fc	0.00034693617
68	0x39d7a69e	0.00041132135
69	0xb9ec1463	-0.00045028617
70	0xba7ad7d5	-0.00095689046
71	0xb996e35b	-0.00028779623
72	0xb9493518	-0.00019188633
73	0x3906a4d8	0.00012840645
74	0x3adf2f98	0.0017027734
75	0xba8cc343	-0.0010739345
76	0xb9084fb0	-0.00012999657
77	0x389152d4	6.929567e-05
78	0xb9e343e2	-0.0004334739
79	0x3994f3f4	0.0002841052
80	0xba829746	-0.0009963296
81	0x39ab05b9	0.00032619925
82	0xba26fb47	-0.00063698407
83	0xba4296ed	-0.00074230024
84	0x38df5335	0.00010648967
85	0x3aa51b91	0.0012596716
86	0x3ae4c02e	0.0017452294
87	0x3951ca22	0.00020007094
88	0xb8a3f5fa	-7.8182624e-05
89	0x38833e2e	6.258149e-05
90	0xbaa7e912	-0.0012810549
91	0xb8ee7b85	-0.00011371732
92	0x39a983a0	0.0003233226
93	0xb9641c45	-0.00021754306
94	0xb98432a2	-0.00025214726
95	0x3a2ad2e9	0.00065164134
96	0xb9100d3d	-0.00013737842
97	0x3a744ebb	0.0009319593
98	0x3a4c5542	0.0007794687
99	0xb9960e43	-0.00028620855
100	0xb981db0d	-0.00024768003
101	0xb9d932f5	-0.0004142743
102	0x3adb7308	0.0016742656
103	0xba3c7c8c	-0.000719019
104	0x3705edc3	7.982776e-06
105	0xb989869b	-0.00026230965
106	0x3a9fba1c	0.0012186202
107	0xb996aa86	-0.0002873728
108	0x39ac2354	0.00032832718
109	0x3949a658	0.00019230822
110	0x3771045a	1.4365733e-05
111	0x3a247213	0.0006273102
112	0xba2b5143	-0.0006535241
113	0xb97481bd	-0.00023317985
114	0xb9f1f311	-0.000461482
115	0x380f5e94	3.418194e-05
116	0x3ab926c3	0.0014125932
117	0xb859943e	-5.1874893e-05
118	0xb99a0995	-0.00029380308
119	0x399c69e3	0.0002983353
120	0xb956a126	-0.00020468663
121	0xb9ee6ca5	-0.00045475844
122	0x38998808	7.320946e-05
123	0xb8ad3c9d	-8.260573e-05
124	0x37fb8e2a	2.9987732e-05
125	0x3a443639	0.00074848864
126	0x39f5879b	0.00046831075
127	0xba365ae9	-0.00069562957
128	0x34ec8ae4	4.4059482e-07
129	0xb6320bef	-2.6531013e-06
130	0x35408fe6	7.1734974e-07
131	0xb7c35e32	-2.3289675e-05
132	0xb677a32a	-3.6900842e-06
133	0xb72c750c	-1.0279251e-05
134	0xb6b9b44e	-5.53442e-06
135	0xb6edd400	-7.0878305e-06
136	0x37ccfde4	2.4436922e-05
137	0xb677858e	-3.6883607e-06
138	0xb80bfe7c	-3.337719e-05
139	0x378c467c	1.6722122e-05
140	0xb5b5fd00	-1.3559184e-06
141	0x34d3e37f	3.9467338e-07
142	0xb85527b5	-5.0820137e-05
143	0x368bfe55	4.172131e-06
144	0x38058da0	3.184157e-05
145	0xb806c319	-3.212979e-05
146	0xb70e4672	-8.480261e-06
147	0x37d51352	2.5400575e-05
148	0xb6597eac	-3.2409253e-06
149	0xb8d2a86c	-0.00010044951
150	0xb85e74cd	-5.3037704e-05
151	0x359eb9d1	1.1825997e-06
152	0xb3a3528a	-7.605293e-08
153	0x37057856	7.955436e-06
154	0xb7169d5e	-8.977337e-06
155	0x36d8b8d5	6.458819e-06
156	0x37002b33	7.639453e-06
157	0x359c7611	1.1657268e-06
158	0xb6b95b0b	-5.5240284e-06
159	0xb7c58be5	-2.3549374e-05
160	0x378266a4	1.5545003e-05
161	0xb787a1c1	-1.6168577e-05
162	0xb88958f0	-6.549235e-05
163	0xb63d3bb8	-2.8197956e-06
164	0xb6148feb	-2.213749e-06
165	0xb5d63f99	-1.5962752e-06
166	0xb85b9e4c	-5.2361094e-05
167	0x384e6875	4.921151e-05
168	0xb5e2980e	-1.6882566e-06
169	0xb64f11d8	-3.085579e-06
170	0xb5f1b075	-1.8007255e-06
171	0x37ad8c0b	2.068842e-05
172	0xb81cc665	-3.7378068e-05
173	0x38113024	3.461553e-05
174	0x37402d86	1.1454691e-05
175	0xb7ec51a0	-2.8171402e-05
176	0x35b0888f	1.3152766e-06
177	0x37b703fc	2.1817155e-05
178	0x380283c3	3.1117128e-05
179	0xb783a533	-1.5693344e-05
180	0xb78bd651	-1.666989e-05
181	0x36f06977	7.164835e-06
182	0xb6a5970c	-4.9349674e-06
183	0x36c0b78f	5.743415e-06
184	0xb5f093f7	-1.7924457e-06
185	0x373b40b8	1.1161137e-05
186	0x345f5f18	2.0803088e-07
187	0x368503d4	3.9641545e-06
188	0x350b897b	5.1981596e-07
189	0xb7f0f605	-2.8724791e-05
190	0xb812bf35	-3.4987188e-05
191	0x37eb3361	2.8038108e-05
192	0x3998bcb8	0.00029132306
193	0xb93e862d	-0.00018169796
194	0xb8c28437	-9.275268e-05
195	0xb7209bd7	-9.5730275e-06
196	0xb8a04f26	-7.644137e-05
197	0x38032df4	3.127563e-05
198	0xba177925	-0.0005778245
199	0xb96d3b15	-0.00022624091
200	0x3a2d710f	0.00066162733
201	0xb9135387	-0.00014050129
202	0x388259e9	6.21563e-05
203	0x390b7fc9	0.00013303677
204	0x36c55a42	5.881565e-06
205	0xb86acb4e	-5.597929e-05
206	0x3a5dfdf4	0.0008468323
207	0x396184ae	0.00021507099
208	0x39234cdb	0.00015573522
209	0xb9da2029	-0.0004160416
210	0xb985b4ec	-0.00025502534
211	0x391586e4	0.00014259998
212	0xb7bd249f	-2.2547609e-05
213	0xb91823b7	-0.00014509154
214	0x38cd04a2	9.776025e-05
215	0x39186374	0.00014532899
216	0xb9745577	-0.00023301491
217	0x38c8f1ef	9.581807e-05
218	0xb989a859	-0.00026256105
219	0x38715463	5.753747e-05
220	0x398544bd	0.0002541895
221	0xb92d2d2f	-0.00016515398
222	0x38d389e2	0.00010086947
223	0xb952e7cf	-0.00020113516
224	0x3878a6a2	5.9282997e-05
225	0x37767b3a	1.46914335e-05
226	0xb8c7e577	-9.5318006e-05
227	0x39083044	0.00012987951
228	0xb968e0c8	-0.00022208982
229	0xb8ea9a40	-0.00011186721
230	0xb7ca6d70	-2.4131237e-05
231	0x39337b00	0.00017116591
232	0x353d28ed	7.046754e-07
233	0x357edc85	9.494327e-07
234	0x3815cc9b	3.5714922e-05
235	0xb6fe1b24	-7.5729495e-06
236	0xb938c701	-0.00017621742
237	0xb9c66122	-0.00037837873
238	0x39c29648	0.00037114532
239	0xb8d0426e	-9.9305864e-05
240	0x38fcf4b6	0.00012061877
241	0x39372753	0.0001746689
242	0xb908cc28	-0.00013046025
243	0xb7a4860c	-1.9612744e-05
244	0x39133481	0.00014038572
245	0x379a488e	1.8392017e-05
246	0xb911e229	-0.00013912529
247	0x3903c23d	0.00012565493
248	0xb8b969bb	-8.841181e-05
249	0x38c6b248	9.474583e-05
250	0xb7d65479	-2.5550124e-05
251	0x37e0aa08	2.6782058e-05
252	0xb835c2b4	-4.3335094e-05
253	0xb90e84b3	-0.0001359161
254	0xb8748083	-5.829382e-05
255	0x391fa3b9	0.00015224413

bias_ih_l0 f4 [256]
0	0x3bbd0c3b	0.0057692803
1	0xba564d21	-0.0008174945
2	0xb6e79dc2	-6.902702e-06
3	0x39a51b33	0.00031491517
4	0xba6dda10	-0.00090733264
5	0x39db0937	0.000417778
6	0x3b62b789	0.0034594259
7	0xb98cf3e6	-0.000268846
8	0x3b599843	0.0033202327
9	0xba92e73f	-0.0011207833
10	0xba459e72	-0.0007538564
11	0x3b652744	0.003496603
12	0x39705389	0.00022919303
13	0x3bae39af	0.005316935
14	0xba94f725	-0.0011365159
15	0xb92ceef9	-0.00016492222
16	0x3b802b93	0.0039114445
17	0x3ca47df8	0.020079598
18	0xba2a4db5	-0.00064965646
19	0x3b63bdd8	0.0034750607
20	0x3a00aed8	0.0004908866
21	0x3b51aea6	0.0031994968
22	0xb92dc8a2	-0.00016573307
23	0xb9f88cd3	-0.00047407168
24	0x3ae1242c	0.0017176918
25	0x398be27f	0.000266809
26	0xb98d6025	-0.0002696525
27	0x3988f288	0.0002612064
28	0x3aa538b4	0.00126054
29	0x380d9792	3.375818e-05
30	0x3b393641	0.0028261098
31	0x3c1c05c7	0.009522862
32	0x3b9a64b6	0.0047117127
33	0x39ce1f91	0.000393149
34	0x3a434eb0	0.0007450385
35	0x3ad718ed	0.0016410627
36	0xbaa607a9	-0.0012667078
37	0xb94888da	-0.00019124468
38	0xba9cbf9c	-0.001195896
39	0x3b436f7a	0.0029821084
40	0xb75a6f9b	-1.3019798e-05
41	0x38298d71	4.0424467e-05
42	0xb9238958	-0.00015596056
43	0x39ee6139	0.00045467334
44	0x3bbc5328	0.0057472177
45	0xba139ecc	-0.00056312676
46	0x398e3be7	0.0002712898
47	0x3b562b88	0.0032679755
48	0xb99ee61b	-0.0003030755
49	0x3b97f7f5	0.004637713
50	0x38b7acf5	8.758336e-05
51	0x3a67e2d4	0.00088457507
52	0x3ad912a5	0.0016561343
53	0xb8036b0a	-3.133252e-05
54	0x398a8d8a	0.00026426866
55	0x3b1ded87	0.0024097876
56	0x3b867be5	0.004104125
57	0x3b56b8ce	0.003276396
58	0x37c6eafb	2.371286e-05
59	0xb8e0a1ef	-0.00010711315
60	0x3a6ed5dc	0.0009110847
61	0x3c0dc317	0.00865247
62	0x3addeaf2	0.0016930981
63	0x3b3b712c	0.0028601391
64	0xbb819e83	-0.0039556636
65	0xbabc590e	-0.0014369802
66	0xbaf23345	-0.0018478414
67	0x3b01017c	0.0019684723
68	0x3b26eaf8	0.0025469642
69	0xbb01dac4	-0.0019814232
70	0xbc1d9632	-0.009618329
71	0x3b8ecd9d	0.004358007
72	0xb85b1843	-5.2236264e-05
73	0xbb86df19	-0.004115951
74	0xbb089df1	-0.0020846094
75	0x3c14668f	0.009057655
76	0x3a5cad7f	0.0008418187
77	0x3b85809a	0.0040741684
78	0xbb7e1199	-0.0038767813
79	0x3a14cc9c	0.0005676241
80	0x3c38b158	0.011272751
81	0xbaf1a3aa	-0.0018435617
82	0x38739a70	5.8079546e-05
83	0x3be05de5	0.0068471306
84	0x391f6f06	0.00015204781
85	0x3c5b6f18	0.013393186
86	0x3b5db676	0.003383068
87	0xba165b8f	-0.0005735689
88	0xbafbd52f	-0.0019213314
89	0xbb02ccb5	-0.001995844
90	0x3afd2c4b	0.0019315568
91	0x3994f4bd	0.00028411104
92	0x3c0eb0f5	0.008709182
93	0xba955963	-0.0011394437
94	0x3c447ae8	0.011992194
95	0x3bd7613e	0.0065728715
96	0x3aa0f229	0.0012279201
97	0x3b2ee1aa	0.00266848
98	0x3bd8306c	0.006597569
99	0x3ba4b635	0.0050266036
100	0xba77192a	-0.0009426052
101	0xbc0c7176	-0.008571973
102	0x3ae51ddc	0.0017480212
103	0x3c21cd66	0.009875631
104	0xb6e66539	-6.866318e-06
105	0x3ae25df5	0.0017270433
106	0x3b5a75cf	0.003333438
107	0x3acbb6b7	0.0015542124
108	0x3b548748	0.0032429267
109	0x3a1f37fd	0.00060737116
110	0xba060297	-0.000511208
111	0x3c1f4900	0.009721994
112	0x3b687304	0.0035468945
113	0x3b2052fa	0.002446352
114	0xba8ae8da	-0.001059796
115	0x3a1754d0	0.0005772831
116	0x3c004295	0.007828374
117	0xb95b7d94	-0.00020932249
118	0xbb66fb00	-0.0035244823
119	0xbb35a916	-0.0027719191
120	0x3b9cd252	0.0047858143
121	0x3b26a4a6	0.0025427728
122	0x381a0431	3.6720365e-05
123	0xb7afed5e	-2.0972158e-05
124	0x398125d7	0.0002463299
125	0x3caa1deb	0.02076622
126	0x3aa80141	0.0012817757
127	0x3c072ebf	0.008250891
128	0x3d2fcb45	0.042918462
129	0xbbd210de	-0.006410702
130	0x3b2c02a6	0.0026246696
131	0xbcb7f53c	-0.022455804
132	0x3b0f7117	0.0021887475
133	0xbcb0f2e5	-0.021600196
134	0xbd0b3695	-0.0339876
135	0xbbbba029	-0.0057258797
136	0x3d34ffc1	0.04418922
137	0x3b379d43	0.002801732
138	0x3b2818fc	0.0025649657
139	0x3d17e65e	0.03708493
140	0x3c8327df	0.016010223
141	0xbd20a519	-0.03921995
142	0x3c346aab	0.01101176
143	0x3c6e90a5	0.014560853
144	0x3d1c4954	0.03815587
145	0xbdc4af82	-0.09603788
146	0xbbbe650a	-0.0058103846
147	0x3d2e87ae	0.042609863
148	0xbc0770cf	-0.008266642
149	0xbd06ed5f	-0.03294122
150	0xbbe7decd	-0.0070761205
151	0x3c0cfcfb	0.008605237
152	0xbd08a0ed	-0.033356596
153	0x3c5138e7	0.012769914
154	0x3c80a659	0.01570432
155	0x3c8ca070	0.017166346
156	0xbd2d180a	-0.042259254
157	0x3b3bf6c8	0.0028681029
158	0x3cfdd7e1	0.030986728
159	0xbd8a9865	-0.06767348
160	0x3ce02d5f	0.027365385
161	0xbc93711c	-0.01799827
162	0xbcc11dce	-0.023573782
163	0x3d1127ff	0.035438534
164	0xbbd04140	-0.0063554347
165	0xbc997944	-0.018734582
166	0x3b51bd93	0.0032003864
167	0x3d3aac95	0.045574743
168	0xbb4c6918	-0.003119057
169	0x3c541300	0.012943983
170	0xbb806f90	-0.0039195493
171	0x3c67396a	0.01411281
172	0xbd671db0	-0.056424797
173	0xbbaf9a0b	-0.0053589395
174	0x3cbeeb0f	0.023305444
175	0xbceb5eb0	-0.028731674
176	0xbc862a8f	-0.016377715
177	0x3d622418	0.055210203
178	0x3d191791	0.03737599
179	0xbc73e90d	-0.014887107
180	0xbcd22615	-0.025652925
181	0xbb24089f	-0.0025029553
182	0xbc3ddff5	-0.01158904
183	0x3d24b2c7	0.040209558
184	0x3d262b70	0.04056877
185	0x3d1390ef	0.03602689
186	0xbbac66d7	-0.005261283
187	0x3c2c78c6	0.0105268415
188	0xbc9127e0	-0.01771921
189	0xbd89b311	-0.06723607
190	0xbce719c5	-0.02821053
191	0x3d1817e5	0.037132163
192	0xba366b59	-0.0006958745
193	0xbc2cd736	-0.010549357
194	0xbb0aed88	-0.0021198709
195	0x3af182f2	0.0018425866
196	0xbac35c70	-0.0014904868
197	0xba837c8e	-0.0010031627
198	0xbc0fece6	-0.008784508
199	0xbbfc572f	-0.007700823
200	0x3a38b869	0.0007046522
201	0xbc5de98d	-0.013544452
202	0x3b84508c	0.0040379222
203	0x3c5fa726	0.013650691
204	0x3a1eb748	0.0006054533
205	0x3b890478	0.004181441
206	0xbad9f96d	-0.0016630121
207	0xbc2debcf	-0.010615303
208	0x3c7b7eec	0.015350085
209	0x3c45c2ab	0.012070338
210	0xbb11ab81	-0.0022227468
211	0x3c506c7b	0.012721176
212	0x39210f91	0.00015359955
213	0x3c389de5	0.011268114
214	0x3bad471c	0.005288018
215	0xba95bcc5	-0.0011424056
216	0xba6c2488	-0.0009008129
217	0xbb0cf4ca	-0.002150821
218	0xb8dea672	-0.00010616788
219	0x39c51d6c	0.0003759669
220	0x3c7da13a	0.015480334
221	0xba9ffcd1	-0.0012206082
222	0x3c2ccc24	0.010546718
223	0x3c18256e	0.009286268
224	0x3b5353c0	0.0032245964
225	0x3bc87be8	0.0061182864
226	0x3c099a53	0.00839861
227	0x3c31f66c	0.010861974
228	0xbc71d93e	-0.014761267
229	0xbba7c07c	-0.0051193815
230	0x3b86f0b1	0.004118048
231	0x3ca48865	0.02008457
232	0x38377df7	4.3747914e-05
233	0x3b2c4004	0.0026283273
234	0x3becdbf4	0.007228369
235	0x3aae2a45	0.0013287744
236	0x3b7aa8c9	0.0038247576
237	0x398576f5	0.00025456367
238	0xb803df4b	-3.144079e-05
239	0x3c134890	0.008989468
240	0xbbbfd1fe	-0.0058538904
241	0x3b54921a	0.0032435716
242	0xba50d0e0	-0.0007965695
243	0x3a21a877	0.0006166766
244	0x3c4e8e75	0.012607207
245	0xba507f1d	-0.00079535117
246	0xbc12a62d	-0.008950752
247	0xbb836448	-0.004009757
248	0x3b913f69	0.004432608
249	0x3b2cc1be	0.0026360597
250	0x388e14ca	6.77496e-05
251	0xb7996992	-1.8288181e-05
252	0x3a5a2a22	0.00083223183
253	0x3cd3041b	0.025758794
254	0x3ad81ef1	0.0016488713
255	0x3c52e76c	0.012872558

bias_hh_l0 f4 [256]
0	0x3bbd0c3b	0.0057692803
1	0xba564d21	-0.0008174945
2	0xb6e79dc2	-6.902702e-06
3	0x39a51b33	0.00031491517
4	0xba6dda10	-0.00090733264
5	0x39db0937	0.000417778
6	0x3b62b789	0.0034594259
7	0xb98cf3e6	-0.000268846
8	0x3b599843	0.0033202327
9	0xba92e73f	-0.0011207833
10	0xba459e72	-0.0007538564
11	0x3b652744	0.003496603
12	0x39705389	0.00022919303
13	0x3bae39af	0.005316935
14	0xba94f725	-0.0011365159
15	0xb92ceef9	-0.00016492222
16	0x3b802b93	0.0039114445
17	0x3ca47df8	0.020079598
18	0xba2a4db5	-0.00064965646
19	0x3b63bdd8	0.0034750607
20	0x3a00aed8	0.0004908866
21	0x3b51aea6	0.0031994968
22	0xb92dc8a2	-0.00016573307
23	0xb9f88cd3	-0.00047407168
24	0x3ae1242c	0.0017176918
25	0x398be27f	0.000266809
26	0xb98d6025	-0.0002696525
27	0x3988f288	0.0002612064
28	0x3aa538b4	0.00126054
29	0x380d9792	3.375818e-05
30	0x3b393641	0.0028261098
31	0x3c1c05c7	0.009522862
32	0x3b9a64b6	0.0047117127
33	0x39ce1f91	0.000393149
34	0x3a434eb0	0.0007450385
35	0x3ad718ed	0.0016410627
36	0xbaa607a9	-0.0012667078
37	0xb94888da	-0.00019124468
38	0xba9cbf9c	-0.001195896
39	0x3b436f7a	0.0029821084
40	0xb75a6f9b	-1.3019798e-05
41	0x38298d71	4.0424467e-05
42	0xb9238958	-0.00015596056
43	0x39ee6139	0.00045467334
44	0x3bbc5328	0.0057472177
45	0xba139ecc	-0.00056312676
46	0x398e3be7	0.0002712898
47	0x3b562b88	0.0032679755
48	0xb99ee61b	-0.0003030755
49	0x3b97f7f5	0.004637713
50	0x38b7acf5	8.758336e-05
51	0x3a67e2d4	0.00088457507
52	0x3ad912a5	0.0016561343
53	0xb8036b0a	-3.133252e-05
54	0x398a8d8a	0.00026426866
55	0x3b1ded87	0.0024097876
56	0x3b867be5	0.004104125
57	0x3b56b8ce	0.003276396
58	0x37c6eafb	2.371286e-05
59	0xb8e0a1ef	-0.00010711315
60	0x3a6ed5dc	0.0009110847
61	0x3c0dc317	0.00865247
62	0x3addeaf2	0.0016930981
63	0x3b3b712c	0.0028601391
64	0xbb819e83	-0.0039556636
65	0xbabc590e	-0.0014369802
66	0xbaf23345	-0.0018478414
67	0x3b01017c	0.0019684723
68	0x3b26eaf8	0.0025469642
69	0xbb01dac4	-0.0019814232
70	0xbc1d9632	-0.009618329
71	0x3b8ecd9d	0.004358007
72	0xb85b1843	-5.2236264e-05
73	0xbb86df19	-0.004115951
74	0xbb089df1	-0.0020846094
75	0x3c14668f	0.009057655
76	0x3a5cad7f	0.0008418187
77	0x3b85809a	0.0040741684
78	0xbb7e1199	-0.0038767813
79	0x3a14cc9c	0.0005676241
80	0x3c38b158	0.011272751
81	0xbaf1a3aa	-0.0018435617
82	0x38739a70	5.8079546e-05
83	0x3be05de5	0.0068471306
84	0x391f6f06	0.00015204781
85	0x3c5b6f18	0.013393186
86	0x3b5db676	0.003383068
87	0xba165b8f	-0.0005735689
88	0xbafbd52f	-0.0019213314
89	0xbb02ccb5	-0.001995844
90	0x3afd2c4b	0.0019315568
91	0x3994f4bd	0.00028411104
92	0x3c0eb0f5	0.008709182
93	0xba955963	-0.0011394437
94	0x3c447ae8	0.011992194
95	0x3bd7613e	0.0065728715
96	0x3aa0f229	0.0012279201
97	0x3b2ee1aa	0.00266848
98	0x3bd8306c	0.006597569
99	0x3ba4b635	0.0050266036
100	0xba77192a	-0.0009426052
101	0xbc0c7176	-0.008571973
102	0x3ae51ddc	0.0017480212
103	0x3c21cd66	0.009875631
104	0xb6e66539	-6.866318e-06
105	0x3ae25df5	0.0017270433
106	0x3b5a75cf	0.003333438
107	0x3acbb6b7	0.0015542124
108	0x3b548748	0.0032429267
109	0x3a1f37fd	0.00060737116
110	0xba060297	-0.000511208
111	0x3c1f4900	0.009721994
112	0x3b687304	0.0035468945
113	0x3b2052fa	0.002446352
114	0xba8ae8da	-0.001059796
115	0x3a1754d0	0.0005772831
116	0x3c004295	0.007828374
117	0xb95b7d94	-0.00020932249
118	0xbb66fb00	-0.0035244823
119	0xbb35a916	-0.0027719191
120	0x3b9cd252	0.0047858143
121	0x3b26a4a6	0.0025427728
122	0x381a0431	3.6720365e-05
123	0xb7afed5e	-2.0972158e-05
124	0x398125d7	0.0002463299
125	0x3caa1deb	0.02076622
126	0x3aa80141	0.0012817757
127	0x3c072ebf	0.008250891
128	0x3d2fcb45	0.042918462
129	0xbbd210de	-0.006410702
130	0x3b2c02a6	0.0026246696
131	0xbcb7f53c	-0.022455804
132	0x3b0f7117	0.0021887475
133	0xbcb0f2e5	-0.021600196
134	0xbd0b3695	-0.0339876
135	0xbbbba029	-0.0057258797
136	0x3d34ffc1	0.04418922
137	0x3b379d43	0.002801732
138	0x3b2818fc	0.0025649657
139	0x3d17e65e	0.03708493
140	0x3c8327df	0.016010223
141	0xbd20a519	-0.03921995
142	0x3c346aab	0.01101176
143	0x3c6e90a5	0.014560853
144	0x3d1c4954	0.03815587
145	0xbdc4af82	-0.09603788
146	0xbbbe650a	-0.0058103846
147	0x3d2e87ae	0.042609863
148	0xbc0770cf	-0.008266642
149	0xbd06ed5f	-0.03294122
150	0xbbe7decd	-0.0070761205
151	0x3c0cfcfb	0.008605237
152	0xbd08a0ed	-0.033356596
153	0x3c5138e7	0.012769914
154	0x3c80a659	0.01570432
155	0x3c8ca070	0.017166346
156	0xbd2d180a	-0.042259254
157	0x3b3bf6c8	0.0028681029
158	0x3cfdd7e1	0.030986728
159	0xbd8a9865	-0.06767348
160	0x3ce02d5f	0.027365385
161	0xbc93711c	-0.01799827
162	0xbcc11dce	-0.023573782
163	0x3d1127ff	0.035438534
164	0xbbd04140	-0.0063554347
165	0xbc997944	-0.018734582
166	0x3b51bd93	0.0032003864
167	0x3d3aac95	0.045574743
168	0xbb4c6918	-0.003119057
169	0x3c541300	0.012943983
170	0xbb806f90	-0.0039195493
171	0x3c67396a	0.01411281
172	0xbd671db0	-0.056424797
173	0xbbaf9a0b	-0.0053589395
174	0x3cbeeb0f	0.023305444
175	0xbceb5eb0	-0.028731674
176	0xbc862a8f	-0.016377715
177	0x3d622418	0.055210203
178	0x3d191791	0.03737599
179	0xbc73e90d	-0.014887107
180	0xbcd22615	-0.025652925
181	0xbb24089f	-0.0025029553
182	0xbc3ddff5	-0.01158904
183	0x3d24b2c7	0.040209558
184	0x3d262b70	0.04056877
185	0x3d1390ef	0.03602689
186	0xbbac66d7	-0.005261283
187	0x3c2c78c6	0.0105268415
188	0xbc9127e0	-0.01771921
189	0xbd89b311	-0.06723607
190	0xbce719c5	-0.02821053
191	0x3d1817e5	0.037132163
192	0xba366b59	-0.0006958745
193	0xbc2cd736	-0.010549357
194	0xbb0aed88	-0.0021198709
195	0x3af182f2	0.0018425866
196	0xbac35c70	-0.0014904868
197	0xba837c8e	-0.0010031627
198	0xbc0fece6	-0.008784508
199	0xbbfc572f	-0.007700823
200	0x3a38b869	0.0007046522
201	0xbc5de98d	-0.013544452
202	0x3b84508c	0.0040379222
203	0x3c5fa726	0.013650691
204	0x3a1eb748	0.0006054533
205	0x3b890478	0.004181441
206	0xbad9f96d	-0.0016630121
207	0xbc2debcf	-0.010615303
208	0x3c7b7eec	0.015350085
209	0x3c45c2ab	0.012070338
210	0xbb11ab81	-0.0022227468
211	0x3c506c7b	0.012721176
212	0x39210f91	0.00015359955
213	0x3c389de5	0.011268114
214	0x3bad471c	0.005288018
215	0xba95bcc5	-0.0011424056
216	0xba6c2488	-0.0009008129
217	0xbb0cf4ca	-0.002150821
218	0xb8dea672	-0.00010616788
219	0x39c51d6c	0.0003759669
220	0x3c7da13a	0.015480334
221	0xba9ffcd1	-0.0012206082
222	0x3c2ccc24	0.010546718
223	0x3c18256e	0.009286268
224	0x3b5353c0	0.0032245964
225	0x3bc87be8	0.0061182864
226	0x3c099a53	0.00839861
227	0x3c31f66c	0.010861974
228	0xbc71d93e	-0.014761267
229	0xbba7c07c	-0.0051193815
230	0x3b86f0b1	0.004118048
231	0x3ca48865	0.02008457
232	0x38377df7	4.3747914e-05
233	0x3b2c4004	0.0026283273
234	0x3becdbf4	0.007228369
235	0x3aae2a45	0.0013287744
236	0x3b7aa8c9	0.0038247576
237	0x398576f5	0.00025456367
238	0xb803df4b	-3.144079e-05
239	0x3c134890	0.008989468
240	0xbbbfd1fe	-0.0058538904
241	0x3b54921a	0.0032435716
242	0xba50d0e0	-0.0007965695
243	0x3a21a877	0.0006166766
244	0x3c4e8e75	0.012607207
245	0xba507f1d	-0.00079535117
246	0xbc12a62d	-0.008950752
247	0xbb836448	-0.004009757
248	0x3b913f69	0.004432608
249	0x3b2cc1be	0.0026360597
250	0x388e14ca	6.77496e-05
251	0xb7996992	-1.8288181e-05
252	0x3a5a2a22	0.00083223183
253	0x3cd3041b	0.025758794
254	0x3ad81ef1	0.0016488713
255	0x3c52e76c	0.012872558

weight_ih_l1 f4 [256, 64]
0	0xbc107997	-0.008818052
1	0x3c890e94	0.016730584
2	0x3c817e37	0.015807254
3	0xbad06ff2	-0.0015902503
4	0xbba112c4	-0.004915567
5	0x3ba33b7c	0.0049814563
6	0x3c529067	0.012851811
7	0x3c816e01	0.015799524
8	0xbc878365	-0.016542146
9	0x3c7194e6	0.014744973
10	0xbbf12c99	-0.007360053
11	0x3be8414b	0.0070878617
12	0x3a4428d7	0.0007482892
13	0xbb0ca9ce	-0.0021463516
14	0xbc165be4	-0.009177182
15	0xbc72ac79	-0.0148116285
16	0x3c01c712	0.007920997
17	0x3be8bbfb	0.007102487
18	0x3c6bf7d3	0.014402348
19	0x3ba68a8d	0.0050824345
20	0xba12cdb0	-0.0005600108
21	0xbbbda619	-0.0057876226
22	0xbbbc9f2b	-0.005756279
23	0xbbf90848	-0.007599864
24	0x3bda2875	0.006657655
25	0xbac14ef7	-0.0014748265
26	0x3c89da5d	0.016827757
27	0x3a711afe	0.00091974426
28	0xbc958968	-0.018253997
29	0x3c3d4a62	0.011553379
30	0xbb15fa4a	-0.002288478
31	0xbb950796	-0.0045480235
32	0x3aa22537	0.001237071
33	0xbba50cd1	-0.005036928
34	0xbb994e0f	-0.0046784948
35	0x3bb301d8	0.0054628663
36	0x3c77b94c	0.015119862
37	0x3c0f9b01	0.008764983
38	0xbc08b4b7	-0.008343867
39	0x3bddf5d9	0.006773692
40	0xb8dc1bf4	-0.00010495624
41	0x3bd16b50	0.0063909665
42	0xbc7459a5	-0.014913951
43	0x3adf9fbb	0.0017061153
44	0xbb34d43e	-0.0027592327
45	0x3c7727b4	0.01508515
46	0xbc3d7c64	-0.011565302
47	0xbbbddbf5	-0.005794043
48	0x3c023a03	0.007948401
49	0x3b160176	0.0022889054
50	0x3b93810e	0.0045014685
51	0xba26a86f	-0.0006357496
52	0xbc65595f	-0.0139983585
53	0x3958495d	0.00020626695
54	0x3c3ca308	0.011513479
55	0xbc5d6e17	-0.013515017
56	0x3c12024e	0.008911682
57	0x3b1f240e	0.0024282965
58	0xb8118125	-3.469097e-05
59	0x3a2cf0c6	0.00065971573
60	0xba49b2c6	-0.0007694181
61	0xbc11c897	-0.008897922
62	0xbb804bb0	-0.0039152727
63	0x3bdeee64	0.0068033207
64	0x3b831aa8	0.0040009804
65	0xbb420b8f	-0.002960894
66	0xbb2108aa	-0.0024571815
67	0x38c1d593	9.2427385e-05
68	0x34293213	1.5757568e-07
69	0xb837d07b	-4.3824763e-05
70	0xbb7999a1	-0.0038085955
71	0xbb560b09	-0.0032660386
72	0x3b23cb5c	0.0024993038
73	0xbb3fc75b	-0.0029263112
74	0x390f67a1	0.00013676148
75	0xb8d8669a	-0.00010318794
76	0x38078e35	3.231895e-05
77	0x37811e83	1.5392206e-05
78	0x3bbfcc15	0.005853186
79	0x3b819b4a	0.0039552795
80	0xb8da89eb	-0.00010420739
81	0xbb22df4c	-0.0024852334
82	0xbb347146	-0.0027533337
83	0xb937ce09	-0.00017528994
84	0x37d1145c	2.4924222e-05
85	0x386bca2d	5.6216657e-05
86	0x393d6d01	0.00018065052
87	0x3ae47e21	0.0017432609
88	0xbb0000e2	-0.0019531776
89	0xb812a517	-3.4962864e-05
90	0xbb53717c	-0.0032263687
91	0xb7241e0b	-9.782157e-06
92	0x3b479b94	0.0030457722
93	0xbaa0c190	-0.0012264717
94	0x39b9b097	0.0003541752
95	0x379c65c8	1.8644045e-05
96	0xb75463f1	-1.2659454e-05
97	0x38ae761c	8.318966e-05
98	0x38f859db	0.000118422984
99	0x3898a7d1	7.279183e-05
100	0xbb2da72f	-0.0026497354
101	0xbb8743e4	-0.0041279662
102	0xb8691e97	-5.5580018e-05
103	0xb97eaee4	-0.0002428848
104	0x36076fc4	2.0181624e-06
105	0xb7ff81af	-3.0458757e-05
106	0x3aba9d8c	0.0014237626
107	0x37930d6c	1.7530016e-05
108	0x379adfd9	1.8462468e-05
109	0xbb85e8e8	-0.0040866025
110	0x3b99cb2d	0.00469341
111	0x38a08332	7.6538316e-05
112	0x37a00775	1.9076959e-05
113	0xb77f7a63	-1.522768e-05
114	0xbbb448e5	-0.005501854
115	0x358f6a28	1.0685226e-06
116	0x3b1ba88d	0.0023751587
117	0x36b76f83	5.4668067e-06
118	0xbb34084f	-0.0027470773
119	0x3b7ab19f	0.0038252843
120	0xbb146678	-0.0022644084
121	0xb70b8195	-8.315216e-06
122	0xb6ce7c23	-6.15373e-06
123	0x36559384	3.1825339e-06
124	0x35975f05	1.1278031e-06
125	0xb7b72fca	-2.1837554e-05
126	0xb863f4a7	-5.4348868e-05
127	0xb94784c9	-0.00019027585
128	0x3bd66de4	0.0065438617
129	0xbbed842b	-0.0072484217
130	0xbbcf6cfc	-0.0063301306
131	0xb9aa3ef7	-0.0003247184
132	0xb9992378	-0.0002920886
133	0x3a30177a	0.00067173655
134	0xbbd70fe9	-0.006563176
135	0xbc0790e5	-0.008274292
136	0xbad8df53	-0.0016546048
137	0xbbb18d57	-0.0054184604
138	0xba5c0ed9	-0.00083945465
139	0x3ac69eea	0.0015153561
140	0x3810dc00	3.4537166e-05
141	0xb9ebf3bb	-0.00045004286
142	0x3bb376d4	0.005476812
143	0x3c1416af	0.009038611
144	0x3abef771	0.0014569593
145	0xbb932ade	-0.004491194
146	0xbbc8c57f	-0.006127059
147	0x3a8df63a	0.0010830828
148	0xb8564f04	-5.1095165e-05
149	0xba8b7bf8	-0.0010641804
150	0xbac6d2a0	-0.0015168972
151	0x3bbfb41a	0.005850327
152	0xbbb5b981	-0.0055457954
153	0xb813864e	-3.5172612e-05
154	0xbbc19d4f	-0.005908645
155	0x38bef8ae	9.106226e-05
156	0x3bc7f501	0.006102205
157	0xbb4b8f08	-0.0031060595
158	0x3b16b766	0.0022997498
159	0xb9eca6f7	-0.00045137826
160	0x395b6535	0.0002092317
161	0xba7890e6	-0.0009482041
162	0xbaa13742	-0.0012299793
163	0x39eec123	0.00045538796
164	0xbb918a02	-0.0044415006
165	0xbbd96ae8	-0.0066350587
166	0xba4999b7	-0.0007690447
167	0x3ad5c500	0.0016309321
168	0x3557b8b8	8.036254e-07
169	0x398aa323	0.00026442957
170	0x3b966e4a	0.004590784
171	0x39160a1a	0.00014308878
172	0xba077967	-0.00051679317
173	0xbc15d93c	-0.009146031
174	0x3bcbc7f3	0.006218904
175	0xb9bbee15	-0.00035844804
176	0xb9313b1d	-0.00016902057
177	0x39d614ae	0.00040832668
178	0xbb94b7d7	-0.004538517
179	0x37b91b59	2.2066453e-05
180	0x3bb3b2a2	0.005483941
181	0xba399105	-0.00070787995
182	0xbba8ab6a	-0.0051473873
183	0x3be26eef	0.006910197
184	0xbbb2487e	-0.0054407706
185	0x39a188e3	0.00030810302
186	0xb800c5d5	-3.0701824e-05
187	0x38cb10b2	9.682904e-05
188	0xb86e75ee	-5.6853452e-05
189	0xba001d83	-0.000488721
190	0xb9b2a84b	-0.00034076194
191	0x3acbdfe3	0.0015554394
192	0xbc16e3bd	-0.0092095705
193	0x3c8b0fe1	0.016975345
194	0x3c84ea45	0.01622499
195	0xbac08e7b	-0.00146909
196	0xbb9fdba0	-0.0048784763
197	0x3ba0cde0	0.0049073547
198	0x3c5b4947	0.01338417
199	0x3c83cca4	0.016088791
200	0xbc8a06b4	-0.0168489
201	0x3c705efb	0.014671083
202	0xbbe974cd	-0.0071245194
203	0x3bd9743e	0.0066361716
204	0x3a243c01	0.0006265045
205	0xbaff147a	-0.0019461059
206	0xbc2503f0	-0.01007174
207	0xbc735b70	-0.014853343
208	0x3bf544b6	0.0074849976
209	0x3c016f0b	0.00790001
210	0x3c6e011b	0.014526631
211	0x3b9e0afb	0.0048230863
212	0xba0a4392	-0.0005274351
213	0xbbbb38d3	-0.005713561
214	0xbbb48e68	-0.00551014
215	0xbc00b2b2	-0.007855104
216	0x3beff78f	0.0073232125
217	0xbac664f3	-0.0015136286
218	0x3c8b19a1	0.016979994
219	0x3a54d58c	0.0008118979
220	0xbc9455c4	-0.018107302
221	0x3c43bad5	0.0119464
222	0xba6dd56c	-0.0009072635
223	0xbb889f64	-0.0041693915
224	0x3aab57cf	0.0013072434
225	0xbb9ddc3e	-0.0048175147
226	0xbb9a6407	-0.004711631
227	0x3baccb8f	0.0052732895
228	0x3c808781	0.015689613
229	0x3c22ce86	0.009936934
230	0xbc0c6267	-0.008568383
231	0x3bd2c441	0.0064320867
232	0xb8e45b0c	-0.00010888846
233	0x3bca6f3d	0.0061778114
234	0xbc77446e	-0.0150919985
235	0x3ae4b59c	0.0017449143
236	0xbb191e9a	-0.0023364187
237	0x3c83f1e0	0.016106546
238	0xbc434bbd	-0.011919913
239	0xbbb77819	-0.0055990336
240	0x3c0464bd	0.0080806585
241	0x3b02c465	0.0019953486
242	0x3bafeb2a	0.00536861
243	0xba24483b	-0.00062668667
244	0xbc6d8b4a	-0.014498541
245	0x39153f22	0.00014233266
246	0x3c476d4d	0.012172055
247	0xbc664f13	-0.014056939
248	0x3c10e6f7	0.008844129
249	0x3b107a13	0.0022045418
250	0xb7c47e72	-2.3423901e-05
251	0x3a20417a	0.00061132724
252	0xba43fdb5	-0.0007476465
253	0xbc0b36bb	-0.0084969355
254	0xbb754317	-0.0037424022
255	0x3bd54069	0.0065079224

weight_hh_l1 f4 [256, 64]
0	0x3ce06b2e	0.027394857
1	0xbba11cbd	-0.004916756
2	0x3c357255	0.011074622
3	0x3cd61972	0.02613518
4	0x3bc1ad4c	0.005910551
5	0x3c9cb744	0.019130357
6	0x3b9c7ee6	0.0047758697
7	0x3c658e1f	0.014010935
8	0xbb86f5c5	-0.0041186535
9	0x3b7c0f97	0.003846144
10	0x3c736895	0.014856477
11	0xbce1709c	-0.027519517
12	0xbc70cf61	-0.0146978805
13	0xbafbb7d5	-0.0019204566
14	0xbbe0f128	-0.0068646856
15	0xbccf0c72	-0.02527449
16	0xbc6e61e2	-0.014549704
17	0x3c9c9d8c	0.019118093
18	0xbcdd01ad	-0.026978338
19	0x3b9ee069	0.004848529
20	0xba76e0b5	-0.0009417639
21	0xbbeaae26	-0.0071618734
22	0xbb8b6e7d	-0.0042551146
23	0xbc4f2ae3	-0.012644502
24	0xbc457faa	-0.012054363
25	0x3c6f3acf	0.014601423
26	0xbc70a1f7	-0.014687053
27	0x3c9c55b8	0.019083843
28	0x3cd2a121	0.025711598
29	0xba835909	-0.0010021041
30	0x3b48261d	0.0030540295
31	0xbb20c424	-0.0024530971
32	0xbbeae1d8	-0.007168036
33	0xbce6ac5a	-0.028158356
34	0x3c9a24f3	0.018816447
35	0x3b70dc9c	0.0036752587
36	0xbaeb3509	-0.0017944883
37	0x3bc7a098	0.0060921423
38	0xbcdb8338	-0.026795968
39	0x3c624233	0.013809728
40	0xbcd31859	-0.025768446
41	0x3c568e5a	0.013095463
42	0xbc27a526	-0.010232246
43	0xb98aae19	-0.00026451124
44	0xbc2994dd	-0.010350433
45	0xbb005b5f	-0.0019585711
46	0x3c27693a	0.010217959
47	0xbce7ae4d	-0.028281355
48	0xbcc68a75	-0.024235943
49	0xbc19e370	-0.009392604
50	0x3ca49264	0.020089336
51	0x3ba9f7a8	0.0051869936
52	0x3cdc7bf7	0.02691458
53	0x3c83dce7	0.016096545
54	0xbcebc8c3	-0.028782254
55	0x3c1d44dc	0.009598937
56	0xbbf807df	-0.0075692977
57	0xbcdfb938	-0.027309999
58	0x3c5f7aba	0.0136401
59	0x3be9e46e	0.0071378266
60	0x3bc14d68	0.00589912
61	0xbce151bb	-0.027504792
62	0xbc9ae2d4	-0.018906988
63	0x3ced0a4a	0.02893557
64	0xbaee6bbc	-0.0018190066
65	0x39cd2fd7	0.0003913629
66	0xb91cb244	-0.00014943728
67	0xbaed97c6	-0.0018126897
68	0xb93a25f8	-0.00017752487
69	0xbae09e4e	-0.0017137022
70	0xb9c395e2	-0.0003730497
71	0xb9fc4748	-0.00048118294
72	0x39b0c986	0.00033719483
73	0xb9a92f4b	-0.00032269428
74	0xba98160b	-0.0011603249
75	0x3aedc104	0.0018139188
76	0x3a5cbc98	0.00084204366
77	0x36e5d83d	6.8499053e-06
78	0x39ff663e	0.00048713567
79	0x3ae96e32	0.001780933
80	0x3a261985	0.00063362
81	0xbae35bcc	-0.0017346083
82	0x3aef7d72	0.0018271639
83	0x3b1e5641	0.0024160298
84	0xb9161493	-0.00014312779
85	0x39ffc876	0.00048786745
86	0x38da4532	0.00010407939
87	0x3a19df0e	0.00058697246
88	0x396b28b8	0.00022426515
89	0xba5acbe0	-0.000834642
90	0x3a59088b	0.0008279166
91	0xbadfbf93	-0.0017070643
92	0xbae95805	-0.0017802721
93	0x39286cbd	0.00016062237
94	0xb990ef94	-0.0002764432
95	0xbae546e7	-0.0017492444
96	0x3a0cf4aa	0.0005377034
97	0x3af3f256	0.001861165
98	0xbaea635d	-0.0017882396
99	0xb9a3d271	-0.00031246574
100	0x3955f3ad	0.00020404039
101	0x3941ff74	0.00018501078
102	0x3aec8191	0.0018043985
103	0xba292b58	-0.0006453297
104	0x3aeb1336	0.0017934802
105	0xba58ac5e	-0.0008265431
106	0x39b7d0d9	0.00035060084
107	0x38e32e0a	0.00010832779
108	0x396228fc	0.00021568307
109	0x39618f99	0.00021511166
110	0xba16805e	-0.0005741174
111	0x3af5a71c	0.0018741819
112	0x3ae15990	0.0017192829
113	0x3a2934e8	0.0006454722
114	0xbaf14c08	-0.00184095
115	0xb918bb42	-0.00014565609
116	0xbaedcd7f	-0.0018142908
117	0xbaa20f8d	-0.0012364254
118	0x3af65728	0.0018794285
119	0xb9af06fd	-0.00033383808
120	0x397fdb66	0.00024400427
121	0x3aef0972	0.0018237068
122	0xb9ff9cce	-0.0004875422
123	0xba0c4f6c	-0.0005352411
124	0x3b1ce886	0.0023942306
125	0x3af1c910	0.0018446762
126	0x3adefd6d	0.0017012783
127	0xbaf9293c	-0.0019009481
128	0xbb59f22c	-0.0033255918
129	0x3881c285	6.1874314e-05
130	0x3b237ad9	0.002494505
131	0xbb57f9f4	-0.003295538
132	0x3a16ab37	0.0005747559
133	0x3b239565	0.0024960872
134	0xb888b7ca	-6.519219e-05
135	0x3b2d03ba	0.0026399926
136	0x37e4eb4c	2.7289287e-05
137	0xb75bdb28	-1.31044435e-05
138	0xb90b2cbc	-0.00013272738
139	0x3b58dd24	0.0033090794
140	0xba9f7cb3	-0.00121679
141	0xb81dcdea	-3.762349e-05
142	0x3945877a	0.00018837853
143	0x3b511592	0.0031903726
144	0xbaf3c632	-0.0018598496
145	0x3b22140c	0.0024731187
146	0x3b5cd0ac	0.0033693714
147	0x3bc452d2	0.0059913183
148	0xb9dccd88	-0.00042114803
149	0x398263a7	0.0002486978
150	0xb9712fff	-0.00023001431
151	0xba42deeb	-0.000743373
152	0xbb30202c	-0.0026874645
153	0x3a99ec2d	0.001174336
154	0xbaa41386	-0.0012518025
155	0x3b23b401	0.0024979117
156	0xbb517a0e	-0.003196362
157	0xb8afd2b3	-8.383896e-05
158	0x37b9335c	2.2077635e-05
159	0xbaf1ba3c	-0.0018442343
160	0x3942699b	0.00018540623
161	0x3b63d763	0.0034765832
162	0x39f8afc8	0.00047433213
163	0xb6afe7dd	-5.242399e-06
164	0xb8840d75	-6.296757e-05
165	0xb9d91dcb	-0.00041411663
166	0x3b572e95	0.0032834162
167	0x3ad60762	0.0016329105
168	0x3b5593f4	0.0032589408
169	0x37bbb332	2.2375581e-05
170	0xbae4359a	-0.0017410994
171	0xb83bfdc7	-4.4820623e-05
172	0xbb0d4d7b	-0.0021561075
173	0xb890c991	-6.904e-05
174	0x3a9dfb07	0.0012052961
175	0x3b666369	0.0035154468
176	0x3b44c8b5	0.0030026857
177	0x39897ce3	0.00026223724
178	0x3b195817	0.0023398453
179	0x39e4b75b	0.0004362416
180	0xbb59d401	-0.0033237936
181	0x3a8c4e4d	0.0010704488
182	0x3b678b59	0.003533086
183	0x3af51099	0.0018696963
184	0xba91bccb	-0.0011118887
185	0x3b5c4117	0.0033608133
186	0x3b21ad54	0.0024669962
187	0xb94282d4	-0.00018550019
188	0x3bc5d614	0.006037483
189	0x3b609d6c	0.0034273518
190	0xbb1abb5b	-0.0023610208
191	0xbb6b6e71	-0.0035923983
192	0x3cd2293f	0.025654433
193	0xbba021d8	-0.004886847
194	0x3c2ce6ea	0.010553101
195	0x3cc87c70	0.024473399
196	0x3bb07a77	0.0053856927
197	0x3c9c9eab	0.019118628
198	0x3b9bfa42	0.0047600577
199	0x3c5e2e70	0.013560876
200	0xbb87665c	-0.0041320752
201	0x3b7dc73a	0.0038723485
202	0x3c671734	0.014104653
203	0xbcd31fc3	-0.025771981
204	0xbc67d690	-0.014150277
205	0xbb09709c	-0.0020971661
206	0xbbdd2f93	-0.006750056
207	0xbcc1d3c1	-0.023660542
208	0xbc66b629	-0.014081516
209	0x3c9c63a0	0.019090474
210	0xbccf0007	-0.025268568
211	0x3b52b220	0.0032149628
212	0xba80c351	-0.0009823834
213	0xbbe5ced0	-0.0070131794
214	0xbb7a4dce	-0.0038193348
215	0xbc44ca70	-0.0120111555
216	0xbc3ca761	-0.011514516
217	0x3c661baf	0.014044686
218	0xbc67b632	-0.01414256
219	0x3c9c1a53	0.019055521
220	0x3cc5350e	0.02407315
221	0xba995e7d	-0.0011701133
222	0x3b4c6df0	0.0031193458
223	0xbac99ca2	-0.0015381763
224	0xbbe64b2f	-0.0070280056
225	0xbcd8159e	-0.026377495
226	0x3c94c95e	0.018162426
227	0x3b7322c0	0.003709957
228	0xbafc21b6	-0.0019236121
229	0x3bbd4d7d	0.0057770596
230	0xbccd8f23	-0.025092667
231	0x3c59d86d	0.013296229
232	0xbcc5aac8	-0.024129286
233	0x3c50113d	0.012699422
234	0xbc1f85df	-0.009736507
235	0xb9fefcce	-0.0004863501
236	0xbc228280	-0.009918809
237	0xbb07fe92	-0.00207511
238	0x3c1bf93e	0.009519873
239	0xbcd90b03	-0.026494509
240	0xbcb9c28a	-0.022675771
241	0xbc160e20	-0.009158641
242	0x3ca4df5f	0.020126043
243	0x3b99ed93	0.0046975105
244	0x3cce7bab	0.025205454
245	0x3c80d44b	0.01572623
246	0xbcdce0b8	-0.026962623
247	0x3c1381ad	0.009003085
248	0xbbe56789	-0.0070008677
249	0xbcd187a6	-0.025577378
250	0x3c566a12	0.013086813
251	0x3be55950	0.0069991723
252	0x3b894852	0.0041895295
253	0xbcd30dd1	-0.025763424
254	0xbc99f5c4	-0.018793948
255	0x3cde11d2	0.027108107

bias_ih_l1 f4 [256]
0	0x3d68f8b1	0.056877796
1	0xbb312c71	-0.0027034546
2	0xbbdc607b	-0.0067253686
3	0x3d5a3bc4	0.053279653
4	0xbb0b4369	-0.0021249896
5	0xbc069f78	-0.008216731
6	0xbb2fb93c	-0.002681329
7	0xbbee163c	-0.007265834
8	0xbb1c1655	-0.0023817022
9	0xbb14a3dd	-0.0022680678
10	0xbb8f17cf	-0.004366852
11	0x3d6bbf87	0.0575557
12	0xbb768bcb	-0.0037619944
13	0xbac7b9b8	-0.0015237844
14	0xbb77dd82	-0.0037821238
15	0x3d52b75f	0.051444408
16	0xbba0a051	-0.0049019237
17	0xbc04da16	-0.008108636
18	0x3d61d2a3	0.05513252
19	0x3dc0a8f2	0.09407224
20	0xbb1ab2e4	-0.0023605162
21	0xbb83dff0	-0.004024498
22	0xbad11c16	-0.0015953805
23	0xbb2dde37	-0.0026530155
24	0xbbe6c93f	-0.0070430334
25	0xbb715170	-0.0036822222
26	0xbb78da07	-0.0037971751
27	0xbc05ed4b	-0.008174251
28	0x3d591ad0	0.053004086
29	0xbab235d8	-0.0013596369
30	0xbb00bcbc	-0.0019643744
31	0x3d0c1621	0.03420079
32	0xbb72063e	-0.003692999
33	0x3d6c3714	0.057669714
34	0xbb8d7161	-0.0043164943
35	0xbb102b02	-0.002199829
36	0xbacb9125	-0.0015530927
37	0xbb08d9d8	-0.0020881798
38	0x3d63adcf	0.05558568
39	0xbb893431	-0.00418713
40	0x3d567912	0.052361555
41	0xbbd1c2ad	-0.006401381
42	0xbbc9dd94	-0.0061604474
43	0xba90d9d1	-0.0011051242
44	0xbbee49a3	-0.007271962
45	0xbad32341	-0.0016108529
46	0xbaf3cac1	-0.0018599854
47	0x3d6bb290	0.057543337
48	0x3d4db71e	0.050223462
49	0xbba81b65	-0.005130219
50	0xbbeb664d	-0.007183826
51	0xbaf4070a	-0.001861782
52	0x3d62306d	0.055221964
53	0xbbe74bde	-0.0070586046
54	0x3d70c3c3	0.058780443
55	0xbb9f5bef	-0.0048632543
56	0xbb59c808	-0.00332308
57	0x3d668919	0.05628309
58	0xbbc69530	-0.006060265
59	0xbb71a892	-0.0036874157
60	0x3dd008ef	0.10157954
61	0x3d64c9e9	0.05585662
62	0xbbff2b54	-0.0077871475
63	0x3d70a279	0.058748696
64	0x3dc4c0de	0.09607099
65	0xbb23ebf7	-0.0025012472
66	0xbc11061e	-0.008851556
67	0x3db40b30	0.08791196
68	0xbb35ceaa	-0.002774159
69	0xbc1d4566	-0.009599065
70	0xbb2237a3	-0.00247524
71	0xbc210eb9	-0.00983017
72	0xbb1112e3	-0.0022136502
73	0xbb0aab03	-0.002115906
74	0xbb996d9a	-0.004682255
75	0x3dc6d28c	0.097081274
76	0xbb9c4636	-0.004769112
77	0xbabb50c0	-0.0014291033
78	0xbb64ee4c	-0.0034932075
79	0x3daadae2	0.0834253
80	0xbbd0d9a2	-0.0063736
81	0xbc1ad960	-0.00945124
82	0x3dbd2168	0.09234887
83	0x3da251e6	0.07925777
84	0xbb11f27c	-0.0022269776
85	0xbb75781f	-0.003745563
86	0xbb03d0a2	-0.0020113369
87	0xbb5a06eb	-0.0033268284
88	0xbc1db928	-0.009626664
89	0xbb987fe8	-0.0046539195
90	0xbb9e2bd2	-0.004827001
91	0xbc1c9ccf	-0.00955887
92	0x3db10ab8	0.086446226
93	0xbab595a1	-0.0013853797
94	0xbaf3a597	-0.0018588778
95	0x3cd83da5	0.026396582
96	0xbb60ab76	-0.0034281886
97	0x3dc9eb0b	0.09859284
98	0xbbbdcb24	-0.0057920385
99	0xbb06d441	-0.002057329
100	0xbac83654	-0.001527498
101	0xbb0c2360	-0.002138339
102	0x3dbdc06e	0.09265219
103	0xbbb0e077	-0.005397852
104	0x3daf38b2	0.08555736
105	0xbbdd58bc	-0.0067549627
106	0xbbcfa60b	-0.0063369325
107	0xba9c5138	-0.001192606
108	0xbc018fbc	-0.007907804
109	0xbace3ebe	-0.0015735251
110	0xbb10af36	-0.002207709
111	0x3dca2023	0.09869411
112	0x3da2f788	0.07957369
113	0xbb9f1620	-0.0048549324
114	0xbc100517	-0.008790276
115	0xbb1d86b3	-0.0024036586
116	0x3dbd3be2	0.09239937
117	0xbbfa8e6f	-0.007646374
118	0x3dd03b0e	0.10167514
119	0xbbcd4832	-0.00626471
120	0xbb8a1456	-0.00421385
121	0x3dc2497e	0.09486674
122	0xbc0c4f36	-0.008563807
123	0xbb605f38	-0.0034236442
124	0x3da42d66	0.080164716
125	0x3dc1a121	0.09454561
126	0xbc132b9a	-0.008982563
127	0x3dd10c32	0.10207404
128	0x3e00d770	0.12582183
129	0x3ba89029	0.0051441384
130	0x3bd70fc1	0.0065631573
131	0x3df88271	0.12134255
132	0x3bf036e7	0.0073307636
133	0xbaada75d	-0.0013248731
134	0xbbb4eb38	-0.0055212043
135	0x3c203613	0.009778517
136	0x3bb669bf	0.005566805
137	0xbbb79605	-0.0056026005
138	0x3c53a5c2	0.012917938
139	0xbe01c658	-0.12673318
140	0xbc4a412c	-0.01234464
141	0x3bf54087	0.007484499
142	0x3baa68dd	0.005200489
143	0xbdf3dfa7	-0.11907893
144	0xbc3ef186	-0.011654263
145	0xbacee107	-0.0015783616
146	0xbdfe031c	-0.12402937
147	0x3dc155c3	0.09440186
148	0x3ad35ce0	0.0016125701
149	0x3ba13429	0.004919548
150	0xbbde1409	-0.0067772907
151	0xbc6212c3	-0.013798418
152	0xbbef8139	-0.0073091057
153	0x3c4c26f9	0.012460464
154	0xbc499e04	-0.01230574
155	0xbaac8693	-0.0013162665
156	0x3df7e017	0.121032886
157	0x3bcbacc7	0.006215665
158	0xbbbe1439	-0.0058007506
159	0xbd9186e7	-0.07105809
160	0x3b8f3db2	0.0043713683
161	0xbe023158	-0.12714136
162	0x3c16560b	0.009175788
163	0xbbb92d3b	-0.005651144
164	0x3bc88682	0.00611955
165	0x3bcd4d10	0.00626529
166	0xbdfe373e	-0.1241288
167	0x3c52334f	0.012829616
168	0xbdf686e9	-0.12037451
169	0xb9513415	-0.00019951195
170	0xbbacde32	-0.005275511
171	0x3be93193	0.0071165054
172	0xbb37a9d0	-0.00280248
173	0x3bc0f587	0.005888644
174	0x3c5b4806	0.013383871
175	0xbe02647b	-0.12733643
176	0xbdf05a5e	-0.11735986
177	0x3b9517dc	0.0045499634
178	0x3a1b2623	0.00059184636
179	0x3bebc6c2	0.0071953246
180	0x3dfdc8f0	0.123918414
181	0xbaf1822c	-0.0018425635
182	0xbe03c574	-0.12868291
183	0x3bdfd93f	0.0068313177
184	0xbbdfccd4	-0.0068298373
185	0xbe004f09	-0.1253015
186	0x3c395ac3	0.011313143
187	0xbb8fd0d1	-0.0043889065
188	0x3dce5d3d	0.100763775
189	0xbe000aed	-0.12504168
190	0x3afae58e	0.0019141899
191	0x3e03f97b	0.12888138
192	0x3dd381d6	0.103274986
193	0xbb33fbe1	-0.0027463364
194	0xbc00c6c8	-0.007859893
195	0x3dbf3aa9	0.093373604
196	0xbb264ec2	-0.0025376533
197	0xbc1e6906	-0.009668594
198	0xbb32ba41	-0.002727166
199	0xbc10fd87	-0.008849508
200	0xbb1fc2a2	-0.0024377485
201	0xbb18a2ea	-0.0023290464
202	0xbbbc3de5	-0.005744683
203	0x3dd55de9	0.104183026
204	0xbb99405f	-0.004676863
205	0xbad1fca8	-0.0016020732
206	0xbb7a3cb3	-0.0038183152
207	0x3db35236	0.08755915
208	0xbbbf2293	-0.005832979
209	0xbc1c9a91	-0.009558336
210	0x3dcb401d	0.09924338
211	0x3e02b0c3	0.12762742
212	0xbb28b932	-0.002574515
213	0xbb849fb7	-0.00404736
214	0xbb002fda	-0.0019559772
215	0xbb559e7c	-0.0032595685
216	0xbc083e70	-0.0083156675
217	0xbb961167	-0.0045797112
218	0xbb9a3e5e	-0.004707142
219	0xbc1dc41f	-0.009629278
220	0x3db9ed8e	0.09078513
221	0xbac61f5e	-0.0015115549
222	0xbb05fc6e	-0.002044465
223	0x3d14256d	0.036168505
224	0xbb747dcf	-0.0037306433
225	0x3ddd17ae	0.10795532
226	0xbbd695aa	-0.006548603
227	0xbb146983	-0.0022645898
228	0xbadb4c54	-0.0016731122
229	0xbb0861cf	-0.0020810252
230	0x3dca21f2	0.09869756
231	0xbba2b6c2	-0.004965634
232	0x3db96404	0.090522796
233	0xbbdf8907	-0.006821755
234	0xbbd844a5	-0.00659998
235	0xbaa9cb15	-0.00129542
236	0xbc021285	-0.007938986
237	0xbae2d4d9	-0.0017305865
238	0xbb2b636c	-0.002615179
239	0x3dde5137	0.10855334
240	0x3da76d26	0.08175115
241	0xbbaaf6d1	-0.005217411
242	0xbc14152f	-0.009038254
243	0xbb137f03	-0.0022506125
244	0x3dcb0048	0.09912163
245	0xbc000c2c	-0.007815402
246	0x3de6cb51	0.11269248
247	0xbbb66930	-0.0055667385
248	0xbb7ac312	-0.0038263244
249	0x3dd1396b	0.1021603
250	0xbbf3aef6	-0.0074366285
251	0xbb741031	-0.0037241096
252	0x3e0efc83	0.13963513
253	0x3dd2995f	0.102831595
254	0xbc1657dc	-0.009176221
255	0x3de8a2f5	0.113592066
