code/model_cat_rnn_entire.pt (torch, 247075 bytes, 10 tensors)

weight_ih_l0 f4 [256, 40]
0.08778179 0.044785358 0.06672359 -0.06853674 -0.0473232 -0.0797673 0.117537595 -0.082961835
0.10019405 -0.03811011 -0.08067152 -0.009133587 -0.033001635 0.09744367 -0.090063885 -0.0003521905
0.0558238 0.0012471348 -0.075938754 0.0009438656 0.08322299 -0.044156767 0.00039271847 -0.045924146
0.018104104 -0.089655034 -0.08089247 0.11679105 0.045166023 -0.071805716 0.04388152 0.10180312
0.11018512 -0.06711998 -0.04253228 0.09162947 -0.025651556 0.004436837 -0.0042471164 -0.0056538805
0.010526194 -0.085836835 -0.007865039 -0.06893583 0.093526535 0.0035865328 -0.06832133 0.10122128
0.09880967 -0.10003761 0.034713384 -0.07500178 -0.013962598 0.014392382 0.03366588 -0.07200825
-0.07217127 -0.06297096 0.058788102 0.07565556 -0.10151376 0.07877975 -0.0060497345 0.06333712
-0.013364994 -0.07388142 0.09245348 0.07839049 0.10074244 0.033953607 -0.040806 -0.013306115
-0.004452164 0.06767097 -0.010185749 0.05486081 0.019704591 0.073512904 0.003984192 -0.020935806
-0.046604574 0.096350804 0.056341156 0.12556095 -0.06267291 0.00875557 0.012231004 -0.019404624
0.028553013 -0.0373987 0.053847585 -0.089462526 -0.09065373 -0.037883654 0.048609696 -0.050902806
-0.075301416 -0.08563777 0.0775268 0.03432546 0.09746067 0.09753241 0.044592537 -0.0011851864
-0.016621878 -0.006829408 0.053299893 -0.03338131 -0.08096576 0.047094878 0.10110348 0.039700005
-0.03678153 -0.06921328 0.060892615 0.0008678572 -0.009782241 0.027695382 -0.101571955 0.04688253
-0.0036719746 -0.001913893 -0.0018813029 -0.0005561011 -0.000913176 -0.0020836208 -0.0022216619 -0.0029944733
-0.0029380384 -0.0026260698 -0.0030213944 -0.0026931555 -0.0020767597 -0.0025000616 -0.0026368594 -0.0024530385
-0.0028546646 -0.0029928568 -0.0033589876 -0.0026734045 -0.002721533 -0.0033926095 -0.003861088 -0.003940612
-0.0033822285 -0.004112311 -0.0042460533 -0.0038458265 -0.0033893269 -0.0031715045 -0.0030299763 -0.0036795698
-0.0034155995 -0.0038811462 -0.00347855 -0.004485662 -0.0040210937 -0.004358451 -0.004903753 -0.006118142
-0.0029258032 -0.002385718 -0.00096581125 -0.002241715 -0.0028638474 -0.0030313455 -0.003610315 -0.0038009183
-0.004249406 -0.0037831836 -0.0034668152 -0.0037706678 -0.0038519136 -0.0036170823 -0.0040014707 -0.0042142756
-0.0039576376 -0.0042513525 -0.0039002057 -0.004304033 -0.0043959236 -0.00421524 -0.0040515377 -0.0041923947
-0.0050100842 -0.0044915807 -0.005237109 -0.0045519965 -0.0047185416 -0.0051079914 -0.0051380214 -0.0045417296
-0.004731415 -0.0053232503 -0.004050685 -0.0053567067 -0.005145637 -0.0061263656 -0.005721207 -0.006028343
0.0014265126 -0.0047737043 -0.0028389727 -0.0040059485 -0.0023945246 -0.0020696006 -0.002905021 -0.002821775
0.0004640973 0.0015101127 -0.0027646574 -0.0051991185 -0.004400143 -0.006028052 -0.002845278 -0.0025862046
-0.0056143403 -0.0038193266 -0.0031357855 0.0006754345 -0.0016155035 -0.0010443531 -0.0066966303 -0.0035927144
0.00083244755 -0.008175567 -0.00938111 -0.0023357992 -0.0016993281 -0.0028550434 -0.007559471 -0.0029435265
-0.0025191105 0.007739862 -0.002783343 -0.009775057 -0.00081772316 -0.0059617693 0.00032932364 0.003250296
-0.0023849772 -0.0020270706 -0.0015969111 -0.0020270364 -0.0019384596 -0.0015557447 -0.0013351992 -0.0012788172
-0.0016690169 -0.00185612 -0.002047344 -0.0024253002 -0.002150234 -0.0016980078 -0.001833023 -0.0021859526
00000000: f0c6 b33d da70 373d 61a6 883d fe5c 8cbd
00000010: f9d5 41bd 0a5d a3bd 8db7 f03d e5e7 a9bd
00000020: 8a32 cd3d 5919 1cbd 1c37 a5bd 0aa5 15bc
00000030: b92c 07bd 8c90 c73d 6a73 b8bd 35a6 b8b9
00000040: 7fa7 643d e676 a33a c785 9bbd c06d 773a
00000050: d170 aa3d badd 34bd c8e5 cd39 f51a 3cbd
00000060: 0f4f 943c 0f9d b7bd f4aa a5bd 2530 ef3d
00000070: 0200 393d e00e 93bd 1cbd 333d 277e d03d
00000080: bca8 e13d 3376 89bd 5436 2ebd 3ba8 bb3d
00000090: 3623 d2bc e362 913b 652b 8bbb 3044 b9bb
000000a0: 0f76 2c3c 39cb afbd 5ddc 00bc 3a2e 8dbd
000000b0: d78a bf3d 090c 6b3b 0eec 8bbd 1a4d cf3d
000000c0: b95c ca3d 85e0 ccbd 9f2f 0e3d 899a 99bd
000000d0: 61c3 64bc 07ce 6b3c 3ce5 093d 1079 93bd
000000e0: 88ce 93bd ebf6 80bd cbcb 703d 4df1 9a3d
000000f0: 72e6 cfbd 4757 a13d da3c c6bb e4b6 813d
00000100: d9f8 5abc 244f 97bd 4058 bd3d 318b a03d
00000110: 0d52 ce3d f012 0b3d 3124 27bd e401 5abc
00000120: 75e3 91bb 1497 8a3d 21e2 26bc bbb5 603d
00000130: 866b a13c ef8d 963d d38d 823b 9181 abbc
00000140: 70e4 3ebd 9253 c53d fcc5 663d 0d93 003e
00000150: a85a 80bd 8673 0f3c 8d64 483c 72f6 9ebc
00000160: 02e8 e93c 612f 19bd 498f 5c3d 2138 b7bd
00000170: aaa8 b9bd e42b 1bbd f61a 473d 767f 50bd
00000180: a137 9abd db62 afbd 5fc6 9e3d db98 0c3d
00000190: 7699 c73d 12bf c73d aaa6 363d 4258 9bba
000001a0: 9b2a 88bc 3ac9 dfbb fd50 5a3d d7ba 08bd
000001b0: 60d1 a5bd 8fe6 403d 570f cf3d 799c 223d
000001c0: 3ba8 16bd b1bf 8dbd 896a 793d e980 633a
000001d0: b145 20bc 6de1 e23c f504 d0bd e507 403d
000001e0: 83a5 70bb 98db faba 0d96 f6ba 50c7 11ba
000001f0: 3462 6fba 5b8d 08bb 4d99 11bb ed3e 44bb
00000200: 1b8c 40bb 241a 2cbb 9602 46bb a77f 30bb
00000210: 3f1a 08bb 13d8 23bb 29cf 2cbb 28c3 20bb
00000220: 5315 3bbb ce23 44bb 7622 5cbb 4934 2fbb
00000230: bf5b 32bb 8b56 5ebb 4f0a 7dbb 4020 81bb
00000240: 61a8 5dbb 91c0 86bb 7a22 8bbb 430a 7cbb
00000250: 781f 5ebb 04d9 4fbb 9192 46bb f024 71bb
00000260: 40d8 5fbb d45a 7ebb 62f8 63bb 76fc 92bb
00000270: 61c3 83bb 56d1 8ebb a9af a0bb b27a c8bb
00000280: d5be 3fbb b559 1cbb 7f2e 7dba bde9 12bb
00000290: 63af 3bbb 8aa9 46bb 099b 6cbb d418 79bb
000002a0: 9a3e 8bbb 4aef 77bb 8233 63bb 4f1d 77bb
000002b0: 6370 7cbb 920c 6dbb c51e 83bb e817 8abb
000002c0: 12af 81bb ee4e 8bbb 989a 7fbb d808 8dbb
000002d0: ae0b 90bb ff1f 8abb c3c2 84bb 5b60 89bb
000002e0: a22b a4bb 1c2e 93bb 0e9c abbb ea28 95bb
000002f0: ff9d 9abb f060 a7bb d95c a8bb cad2 94bb
00000300: fc09 9bbb a96e aebb 9cbb 84bb 5087 afbb
00000310: bb9c a8bb aebf c8bb f678 bbbb 6889 c5bb
00000320: d2f9 ba3a bc6c 9cbb 0f0e 3abb 5544 83bb
00000330: 75ed 1cbb 23a2 07bb 2a62 3ebb 87ed 38bb
00000340: 1652 f339 f9ee c53a 412f 35bb 5e5d aabb
00000350: 132f 90bb f786 c5bb d877 3abb 507d 29bb
00000360: 80f8 b7bb ab4d 7abb c081 4dbb a40f 313a
00000370: 4dbf d3ba ade2 88ba 686f dbbb bf73 6bbb
00000380: 9c38 5a3a d0f2 05bc 3ab3 19bc 3514 19bb
00000390: fdbb deba ae1b 3bbb 70b5 f7bb 2ee8 40bb
000003a0: a917 25bb ab9e fd3b bf68 36bb 9027 20bc
000003b0: 795c 56ba f25a c3bb 12a9 ac39 eb02 553b
000003c0: 474d 1cbb 9ad8 04bb 724f d1ba 07d8 04bb
000003d0: e913 feba 21ea cbba da01 afba fc9d a7ba
000003e0: eac2 daba 0d49 f3ba bc2c 06bb c9f1 1ebb
000003f0: f1ea 0cbb b08f deba 0c42 f0ba 3342 0fbb

weight_hh_l0 f4 [256, 64]
-0.006243801 0.0038696828 0.010073663 -0.00184261 -7.548429e-05 0.011971851 -0.0033880144 0.00055514794
-0.028292656 0.008317762 -0.011489178 0.0017478681 -0.0029977146 -0.012344611 -0.008937845 0.00021855587
0.0005064255 0.001867183 0.0004330208 -0.014483736 -0.00031052344 -0.0050962474 0.0041662995 0.0014242604
-0.0018869524 -0.00034870347 0.018213253 -0.012871283 -0.0038103964 -0.020776937 -0.00020567772 0.00047764077
0.0040393407 -0.0042752996 0.008677965 -0.013837259 -0.042112175 0.0003333646 0.00028841774 -0.003242287
-0.013136621 -0.022470176 0.034308814 -0.007954277 0.00036141477 -0.0019589264 0.0011143544 -0.0023376732
-0.000121331825 -0.0023579102 0.0024085392 -0.020511415 0.0006683097 -0.00042774642 -0.00041726622 -0.014529615
-0.0001018306 -0.0002475837 -0.0002463381 0.0031558506 -0.010577008 0.03237984 0.009949764 0.021084206
-0.0019232213 -0.0017708837 0.004649659 -0.006271974 0.0072350297 0.00059829775 -0.0063972133 -0.00035619445
0.0024396258 -0.0038680148 0.005727157 -0.0056484644 0.0036639497 -0.00016459642 -0.0037091158 -0.0062999097
-0.0007467989 0.00093158754 -0.0063615255 -0.0030019523 0.0066884216 -0.0041501834 -0.010229113 0.0018309687
-0.0013915001 0.0060804626 0.011772671 -0.002347318 -0.0032823833 0.0188224 -0.0056657456 0.005460821
-0.0009875137 -0.026258895 0.012942479 -0.00055506127 -0.0087198615 0.0074745663 -0.0014905155 0.00025584002
0.024709286 -0.017849699 -0.005705302 0.020187594 -0.0052968645 0.005133219 0.0036646423 0.0012084775
0.0065763337 -0.0012749465 0.0075617004 0.023058973 -0.0065035787 0.0018897325 -0.0127796065 -0.0118903015
0.006882379 -0.00016585413 0.00040224037 -0.0087142 0.014328606 -0.010850815 -0.01025261 -0.0047038537
-0.010112253 -0.002039433 -0.0016461012 0.016741395 0.0048088226 0.0021219426 -0.005606391 -0.0050130677
-0.0014693299 0.0008230919 0.0017089699 -0.0031280261 0.0045958366 -0.0039682654 0.000851527 -0.0027817185
-0.004797734 -0.0017942637 -0.0027901484 0.028115062 0.0045847944 -0.0053915544 0.011283702 -0.014536116
-0.00011525446 0.0032386824 0.009828529 -0.024777291 -0.0029015394 0.0037834349 -0.0049418923 0.0022904954
0.0010260429 -0.0003100242 0.0044496562 -0.004248486 -0.011351205 0.00268825 -0.0038382737 -0.0013885108
-0.0072421706 6.537638e-05 -0.0033549021 0.010968005 -0.00493743 -0.0006604386 0.004402856 0.005263873
0.0026525354 -0.0020029321 0.0035792096 0.021185733 -0.00445726 0.004292688 -0.0037216858 0.027956238
0.0054731932 0.0046247 0.0032704687 -0.023997616 -0.023441304 -0.0025113744 -0.0146972295 0.00928463
0.00044161457 -0.005501498 0.0049619204 0.004886317 0.0058387215 0.004944194 -0.00631764 -0.0057019615
0.0003599996 -0.0036859338 0.0015414403 -0.007348394 0.0062162164 -0.006455511 -0.0070580267 -0.005371669
-0.0057689594 0.0063569103 -0.0054350756 0.007371311 0.0056405943 0.00524376 0.0024559824 -0.005293293
-0.0040582675 0.005660697 -0.0014795152 -0.0070939516 -0.00585419 0.0031226387 -0.004454671 0.005034911
0.005766424 -0.004395979 0.0054919845 0.004465934 0.0069771954 0.00520844 -0.006514694 -0.0036983208
-0.008101921 0.008001007 -0.0064227656 -0.0025517668 -0.005289668 -0.003335607 0.004350722 -0.0018599955
0.0055507775 -0.0024872907 0.0054618213 0.0066420306 -0.00500552 0.0047818027 -0.0059046284 0.0074091493
0.0043127104 0.0051651704 0.0054528047 -0.0068929326 0.0028060668 -0.005134766 0.0080044605 0.003379024
00000000: cd98 ccbb 819a 7d3b 010c 253c bb83 f1ba
00000010: 524d 9eb8 9525 443c 7309 5ebb 5987 113a
00000020: 00c6 e7bc 3947 083c 1b3d 3cbc b918 e53a
00000030: 4e75 44bb 0d41 4abc 0a70 12bc 252c 6539
00000040: a4c1 043a 44bc f43a 1107 e339 314d 6dbc
00000050: c0cd a2b9 6cfe a6bb 7485 883b 40ae ba3a
00000060: 9e53 f7ba 30d2 b6b9 f633 953c 13e2 52bc
00000070: d8b7 79bb 6534 aabc 31ab 57b9 dc6b fa39
00000080: 725c 843b d017 8cbb 062e 0e3c acb5 62bc
00000090: d17d 2cbd 70c7 ae39 c636 9739 8d7c 54bb
000000a0: fb3a 57bc 6013 b8bc 6687 0c3d a852 02bc
000000b0: 457c bd39 5561 00bb 870f 923a a633 19bb
000000c0: 8773 feb8 2b87 1abb 95d8 1d3b 8e07 a8bc
000000d0: 8131 2f3a 2743 e0b9 86c4 dab9 9f0d 6ebc
000000e0: e38d d5b8 1fce 81b9 f126 81b9 63d2 4e3b
000000f0: 304b 2dbc b9a0 043d 5604 233c c9b8 ac3c
00000100: 9914 fcba ff1c e8ba 2b5c 983b 2285 cdbb
00000110: d413 ed3b 15d7 1c3a b79f d1bb 9cbf bab9
00000120: 21e2 1f3b 857e 7dbb e0aa bb3b c116 b9bb
00000130: e01e 703b 8497 2cb9 a314 73bb 796f cebb
00000140: d3c4 43ba c835 743a 5874 d0bb 67bc 44bb
00000150: 8c2a db3b 43fe 87bb 0298 27bc 1dfd ef3a
00000160: ff62 b6ba 9e3e c73b 29e2 403c 76d5 19bb
00000170: 411d 57bb 6f31 9a3c b8a7 b9bb b0f0 b23b
00000180: 766f 81ba e51c d7bc b10c 543c 8881 11ba
00000190: c0dd 0ebc 35ed f43b 675d c3ba 4422 8639
000001a0: 216b ca3c 8839 92bc 8bf3 babb 7460 a53c
000001b0: 5291 adbb 9034 a83b 7f2a 703b c765 9e3a
000001c0: 497e d73b 1b1c a7ba 24c8 f73b 2ce6 bc3c
000001d0: f91b d5bb e7b0 f73a 8e61 51bc 8acf 42bc
000001e0: 9485 e13b 21e9 2db9 cae3 d239 01c6 0ebc
000001f0: 88c2 6a3c 9ec7 31bc 90fa 27bc c922 9abb
00000200: ddad 25bc 02a8 05bb fec1 d7ba 4025 893c
00000210: 5493 9d3b 4a10 0b3b d1b5 b7bb a944 a4bb
00000220: 8896 c0ba c3c4 573a 84ff df3a 92ff 4cbb
00000230: ac98 963b 3908 82bb 0239 5f3a 7e4d 36bb
00000240: 4f36 9dbb 802d ebba ecda 36bb 8f51 e63c
00000250: 0b3c 963b a3ab b0bb 47df 383c e428 6ebc
00000260: c4b4 f1b8 1340 543b d707 213c bff9 cabc
00000270: c127 3ebb 81f3 773b 99ef a1bb 231c 163b
00000280: 497c 863a be8a a2b9 6cce 913b e236 8bbb
00000290: 68fa 39bc 5a2d 303b 8c8b 7bbb b1fe b5ba
000002a0: bb4f edbb ad1a 8938 ebdd 5bbb 26b3 333c
000002b0: 2aca a1bb 4921 2dba d545 903b 917c ac3b
000002c0: 29d6 2d3b a043 03bb 2c91 6a3b b48d ad3c
000002d0: 350e 92bb ada9 8c3b 87e7 73bb 7b04 e53c
000002e0: 7958 b33b cc8a 973b 5c55 563b a696 c4bc
000002f0: fa07 c0bc df95 24bb a6cc 70bc 901e 183c
00000300: 8188 e739 e945 b4bb 9b97 a23b 661d a03b
00000310: bf52 bf3b e802 a23b 3504 cfbb 85d7 babb
00000320: 54be bc39 b58f 71bb 270a ca3a ccca f0bb
00000330: 67b1 cb3b c088 d3bb 0547 e7bb d304 b0bb
00000340: 8a09 bdbb a14d d03b b818 b2bb 0a8b f13b
00000350: bcd4 b83b d9d3 ab3b 8cf4 203b 5c73 adbb
00000360: 37fb 84bb 5e7d b93b 4bec c1ba 6174 e8bb
00000370: 81d4 bfbb 2fa5 4c3b 7df8 91bb e5fb a43b
00000380: 45f4 bc3b 250c 90bb 1bf6 b33b f856 923b
00000390: f5a0 e43b 90ab aa3b 3779 d5bb 875f 72bb
000003a0: ebbd 04bc a816 033c 1076 d2bb 8b3b 27bb
000003b0: f454 adbb 339a 5abb 8090 8e3b 18cb f3ba
000003c0: 4ce3 b53b d001 23bb 14f9 b23b 64a5 d93b
000003d0: 5805 a4bb abb0 9c3b 9d7b c1bb 73c8 f23b
000003e0: a351 8d3b 9740 a93b 71ad b23b 1cde e1bb
000003f0: fde5 373b 8a41 a8bb 2425 033c 9e72 5d3b

bias_ih_l0 f4 [256]
-0.023528198 0.009369793 -0.03340303 0.019190652 0.019565757 0.004749079 0.032568425 0.024927035
0.051588796 0.007039354 0.04741615 0.012699855 0.014862012 0.015026053 0.02190082 0.013132173
0.021090116 0.015230226 0.016778799 0.018073246 0.018635195 0.025766222 0.011602486 0.026278814
0.0017781977 0.01683086 -0.001944126 0.007024841 0.0107192015 -0.042080488 0.011509621 0.011450999
0.021094956 0.012030538 0.02205656 0.013434372 0.023499252 0.0073434142 0.022658084 0.0074008703
0.0395226 0.03384016 0.018300204 0.008267737 0.018741649 -0.007956469 0.008609661 0.0054261964
0.0121848155 0.0074973726 0.019381003 0.038979083 0.017851729 0.011518346 0.03216081 0.02880243
0.036093242 0.007971226 0.009042261 0.03423472 0.08173208 -0.02577913 0.0452724 0.0062712682
-0.006494158 -0.0018939252 0.0153111415 -0.00053566444 0.033817027 0.0031739986 0.010910372 0.03324516
-0.026219489 0.0014527659 0.012647876 0.012091331 0.025990846 0.03507343 0.026089996 0.013316397
0.03139334 0.011742639 0.020121958 0.029537028 0.029472051 0.0015651273 -0.0022596242 0.02900419
0.0066526853 0.01713804 0.0059450795 0.04403187 0.013695774 0.018422566 0.012329156 0.012607166
0.014918662 0.008200061 0.025900748 0.03487982 0.035529003 0.011578705 0.03227462 0.005988553
0.05237462 0.06523327 0.031703673 -0.015993387 0.02395813 0.0015726018 0.015620592 -0.009976088
0.01233399 -0.0002715927 0.026318312 0.053982608 0.02716108 0.00628457 0.0075030355 0.04351606
0.024932211 0.02068876 0.018180562 0.042115927 -0.00021464816 0.012093269 0.03850782 0.02392336
0.04717159 -0.06662284 -0.026581418 0.12343193 -0.009286663 0.0673743 -0.13296597 0.006685439
0.07008034 -0.019281723 0.11451144 -0.11444036 0.02936348 -0.08796959 -0.09359535 -0.040416457
-0.07567478 0.11999256 -0.12807746 0.09141764 0.020246077 0.103271015 0.0073024984 -0.13319203
0.057408113 0.071251445 0.02739515 -0.014428066 -0.014787914 0.04000554 -0.09135131 0.058815263
0.06317855 -0.052367333 0.035973918 -0.007952986 0.008868634 0.04288679 -0.07057082 -0.0067528756
-0.11977004 0.11233596 -0.07495378 -0.06061592 -0.066607036 -0.027883174 0.10548101 0.023362333
0.083084546 -0.07857388 -0.021551432 0.11842497 -0.048067234 0.077168345 -0.09031076 0.021854598
0.12767497 0.039478093 0.06847945 -0.0761273 0.017916948 -0.08590397 0.12018214 -0.04408933
-0.004527796 0.012864199 0.007819278 0.012900144 0.022865802 0.0041274885 0.027002944 0.014471924
-0.020686783 0.004330606 0.00029680444 0.026367646 0.018574294 0.023862617 0.023402153 0.013626609
0.024624884 0.032634508 0.026074192 0.038929503 0.032660805 0.024145877 -0.0032988572 0.02611024
0.006525986 0.017183326 -0.036127925 0.020968117 0.015870392 0.01781488 0.019440496 0.011813252
0.028963355 0.0065905405 0.014794197 -0.0056604557 0.03964304 0.016193574 0.020390676 0.00024224783
0.03661006 0.023504129 0.03224196 -0.018924655 0.025884924 0.0024447034 0.023384664 -0.00055845955
0.011862486 -0.006154115 0.014297076 0.036914047 0.018663898 0.01737967 0.021408217 0.038914055
0.024079848 0.021410916 0.024621375 0.0017851783 -0.02579596 -0.0034733114 0.03927449 0.00015418943
00000000: 35be c0bc c383 193c 9ed1 08bd b735 9d3c
00000010: 5e48 a03c 299e 9b3b 7866 053d c833 cc3c
00000020: c64e 533d 62aa e63b 7037 423d 0d13 503c
00000030: cc7f 733c d62f 763c 5969 b33c 5328 573c
00000040: 2ec5 ac3c 3388 793c b173 893c 580e 943c
00000050: d6a8 983c af13 d33c 5a18 3e3c ab46 d73c
00000060: 6a12 e93a dfe0 893c 0bd2 feba a330 e63b
00000070: 979f 2f3c 975c 2cbd d992 3c3c f99c 3b3c
00000080: 54cf ac3c bc1b 453c f5af b43c d71b 5c3c
00000090: 8181 c03c 06a1 f03b 729d b93c 0083 f23b
000000a0: 73e2 213d fb9b 0a3d 4fea 953c 6775 073c
000000b0: 1688 993c da5b 02bc 890f 0d3c 3cce b13b
000000c0: d2a2 473c 85ac f53b e9c4 9e3c 88a8 1f3d
000000d0: ca3d 923c 72b7 3c3c 0ebb 033d 13f3 eb3c
000000e0: 82d6 133d bf99 023c fe25 143c b539 0c3d
000000f0: 2663 a73d c12e d3bc 8d6f 393d 367f cd3b
00000100: f2cc d4bb 963d f8ba 95db 7a3c d56b 0cba
00000110: b983 0a3d dc02 503b 6bc1 323c 142c 083d
00000120: 41ca d6bc bc6a be3a 0939 4f3c b81a 463c
00000130: c1ea d43c 28a9 0f3d b0ba d53c 042d 5a3c
00000140: 4e96 003d 3364 403c ced6 a43c a3f7 f13c
00000150: 5f6f f13c f524 cd3a 3416 14bb 329a ed3c
00000160: c5fe d93b 1365 8c3c f1ce c23b c35a 343d
00000170: 3d64 603c ecea 963c 3a00 4a3c 498e 4e3c
00000180: 676d 743c 8c59 063c ce2d d43c 24de 0e3d
00000190: dc86 113d 9cb4 3d3c 6432 043d a03b c43b
000001a0: c586 563d 0599 853d b6db 013d 9004 83bc
000001b0: d743 c43c c31f ce3a 83ed 7f3c bf72 23bc
000001c0: 8114 4a3c 8e64 8eb9 8099 d73c de1c 5d3d
000001d0: ea80 de3c cbee cd3b 06dc f53b e53d 323d
000001e0: a33e cc3c 797b a93c 67ef 943c c081 2c3d
000001f0: 2d13 61b9 d922 463c 60ba 1d3d ecfa c33c
00000200: ff36 413d 8e71 88bd 46c1 d9bc e1c9 fc3d
00000210: 1627 18bc 89fb 893d 3b28 08be 8711 db3b
00000220: 4886 8f3d b4f4 9dbc f984 ea3d b55f eabd
00000230: ae8b f03c 6729 b4bd ebae bfbd ba8b 25bd
00000240: 61fb 9abd a9be f53d bd26 03be 2c39 bb3d
00000250: 1adb a53c c17f d33d cc49 ef3b 7e63 08be
00000260: c524 6b3d 47ec 913d cb6b e03c b263 6cbc
00000270: 0249 72bc d9dc 233d 6516 bbbd 46e8 703d
00000280: c163 813d 217f 56bd 6359 133d 3e4d 02bc
00000290: bf4d 113c 0faa 2f3d 6f87 90bd 3a47 ddbb
000002a0: ff49 f5bd 6510 e63d 5e81 99bd 6648 78bd
000002b0: 4569 88bd 416b e4bc 6e06 d83d 5d62 bf3c
000002c0: 3b28 aa3d 58eb a0bd a18c b0bc ca88 f23d
000002d0: 26e2 44bd 700a 9e3d d9f4 b8bd 6a08 b33c
000002e0: 3abd 023e c8b3 213d f43e 8c3d a1e8 9bbd
000002f0: 90c6 923c 6cee afbd 0e22 f63d 0397 34bd
00000300: e85d 94bb 5cc4 523c 6e1c 003c 205b 533c
00000310: 1051 bb3c e23f 873b 4735 dd3c a61b 6d3c
00000320: 5477 a9bc c2e7 8d3b 6b9c 9b39 f600 d83c
00000330: 1e29 983c 897b c33c dfb5 bf3c 2442 5f3c
00000340: 20ba c93c c3ab 053d 8b99 d53c 8b74 1f3d
00000350: 56c7 053d 93cd c53c a431 58bb 24e5 d53c
00000360: f0d7 d53b 0cc4 8c3c e0fa 13bd 54c5 ab3c
00000370: a002 823c 83f0 913c ad41 9f3c 5f8c 413c
00000380: 8f44 ed3c 76f5 d73b 5c63 723c 587b b9bb
00000390: be60 223d 63a8 843c 590a a73c e803 7e39
000003a0: 6ef4 153d bb8b c03c 2510 043d e107 9bbc
000003b0: 9f0c d43c 5137 203b 3291 bf3c 9665 12ba
000003c0: df5a 423c 75a8 c9bb 483e 6a3c 2f33 173d
000003d0: 08e5 983c cf5f 8e3c 4960 af3c 5864 1f3d
000003e0: 1a43 c53c f265 af3c c4b2 c93c a5fc e93a
000003f0: 0d52 d3bc 7fa0 63bb 4ade 203d e9ad 2139

bias_hh_l0 f4 [256]
0.04539169 -0.0023286452 -0.023356669 0.019476617 0.019570269 0.0042752572 0.02529838 0.022550136
0.049362835 0.0072705606 0.06468598 0.03710639 0.015231414 0.0145073 0.022292955 0.013404483
0.021089686 0.01577464 0.015657097 0.010861374 0.020012349 0.018326113 -0.009287082 0.026318328
0.0022429095 0.01680699 -0.001284126 0.026454126 0.012513055 -0.00058019784 0.014098179 0.011514798
-0.008117683 0.029694509 0.010972509 0.013004462 -0.008650239 0.000528226 0.022953557 0.0075755697
0.046964943 0.034012895 0.029641708 0.005217826 0.018792015 0.0013171763 0.006144588 -0.00071818446
0.010880173 0.010106657 0.019290388 0.036003694 0.017718466 0.008737336 0.017277624 0.029921668
0.011132077 0.016724305 0.020073147 0.04829316 -0.08236102 0.0105581265 0.03378486 0.0034334068
0.03802048 -0.005130633 -0.0008003507 0.018209469 0.026535673 0.004538945 0.040780116 0.03345275
-0.013190188 0.0012872894 0.030298416 0.02764844 0.028520087 0.029056948 0.027993605 0.01315306
0.03196502 0.019152341 0.018665494 0.044009484 0.015867142 0.0073901988 -0.0022134648 0.035859164
0.0063644196 0.017118493 0.006285334 0.039645817 0.018371372 0.028780097 0.007887846 0.011820292
0.019235997 0.016908783 0.021623343 0.02587221 0.03217172 0.0136156725 0.027908029 0.006915043
0.07793418 0.04836732 0.026722081 0.0042955284 0.0277026 0.0018323648 0.013392549 -0.0071600056
0.011969887 0.0012379581 0.026447045 0.040470377 0.026678367 0.014486504 0.03940544 0.052070796
0.015825894 0.0104609495 0.009987246 0.051095482 0.029236851 0.038845595 0.049044855 0.011801365
0.048541505 0.0011467871 -0.006283806 -0.019595295 0.1378733 0.08165435 -0.08148125 -0.13288489
0.037496585 -0.05511365 -0.050841626 -0.08073816 0.05294848 -0.037500773 -0.059857704 -0.102886505
-0.04289363 0.11040746 -0.026477592 0.06304432 0.08626553 0.104274936 0.06268268 0.0024551114
-0.04541312 0.05867047 -0.03500945 -0.113242045 -0.108004786 -0.07534412 -0.09503518 0.048715424
0.08777352 -0.024422841 0.13200994 0.07107894 0.08973788 0.07922751 -0.025219925 0.054805458
-0.12014713 0.036592014 -0.09086994 -0.0837561 -0.030225236 0.01003989 0.04091013 0.011908234
0.033241935 -0.020934729 0.032698818 0.12864183 -0.048274297 0.07103265 -0.13013291 0.07174815
0.10700236 0.12022434 0.091482654 -0.12833409 0.005306396 -0.015547077 0.13898806 0.022294942
-0.0039374935 0.012811543 0.008794074 0.027623065 0.029944101 0.0043352074 0.03792773 0.020482201
-0.0077995765 0.003657922 -0.0002338978 0.014480951 0.019359486 0.025377797 0.0073823035 0.013794283
0.024599753 0.018778538 0.004910959 0.034947935 0.033560112 0.006554918 -0.002878801 0.0184916
0.0065417355 0.017283736 0.0056835543 0.039725713 0.015739769 0.01778039 0.020405792 0.011811229
-0.0069756447 0.0060997824 0.0010109477 0.024514498 0.040450636 0.013005075 0.020254528 -0.0008166708
0.0055745295 0.02289238 -0.022295922 0.007307661 0.02096736 0.0019629863 0.02221175 -0.012556489
0.012792611 -0.0017148001 0.015315678 0.06043326 0.019310078 0.017073782 0.03207272 0.038810782
0.032181486 0.020679224 0.02303297 0.0404101 -0.025740491 0.0107901115 0.05362389 0.015928831
00000000: a3ec 393d 2f9c 18bb 7c56 bfbc 6d8d 9f3c
00000010: d451 a03c 7517 8c3b 8c3e cf3c 10bb b83c
00000020: af30 4a3d e23d ee3b 157a 843d dffc 173d
00000030: 2e8d 793c 07b0 6d3c b79f b63c 7a9e 5b3c
00000040: 47c4 ac3c d139 813c 5043 803c e8f3 313c
00000050: f0f0 a33c a520 963c d828 18bc 8999 d73c
00000060: c7fd 123b d0ae 893c 1e50 a8ba 53b6 d83c
00000070: 8e03 4d3c 6b18 18ba 0cfc 663c 90a8 3c3c
00000080: 0800 05bc e641 f33c 0ac6 333c ab10 553c
00000090: bbb9 0dbc a678 0a3a 1909 bc3c 7c3c f83b
000000a0: 505e 403d 1b51 0b3d 2bd3 f23c 4cfa aa3b
000000b0: b6f1 993c 1aa5 ac3a 8a58 c93b 8b44 3cba
000000c0: c142 323c 6496 253c e006 9e3c 9c78 133d
000000d0: 5126 913c 0b27 0f3c ce89 8d3c 491e f53c
000000e0: 5163 363c 6901 893c 7170 a43c 0ccf 453d
000000f0: e5ac a8bd fefb 2c3c fe61 0a3d 0203 613b
00000100: 5dbb 1b3d de1e a8bb a0ce 51ba 062c 953c
00000110: 5761 d93c 6ebb 943b 0d09 273d c005 093d
00000120: a91b 58bc 44ba a83a 6234 f83c fb7e e23c
00000130: f5a2 e93c d608 ee3c d852 e53c ef7f 573c
00000140: c1ed 023d 5fe5 9c3c 61e8 983c 4a43 343d
00000150: cffb 813c 7b29 f23b c70f 11bb 0fe1 123d
00000160: 9f8c d03b 153c 8c3c 34f5 cd3b a763 223d
00000170: 8f7f 963c 3dc4 eb3c 063c 013c e6a9 413c
00000180: cf94 9d3c 4a84 8a3c 7023 b13c f5f1 d33c
00000190: 7ec6 033d 4514 5f3c 619f e43c 9697 e23b
000001a0: f59b 9f3d d01c 463d 44e8 da3c 81c1 8c3b
000001b0: 90f0 e23c f62b f03a 6c6c 5b3c 7b9e eabb
000001c0: 581d 443c fb42 a23a 79a7 d83c 44c4 253d
000001d0: 978c da3c cd58 6d3c 9967 213d 3048 553d
000001e0: 4ea5 813c 6764 2b3c 8ca1 233c 7f49 513d
000001f0: 1f82 ef3c 8f1c 1f3d 42e3 483d 835a 413c
00000200: 75d3 463d ca4f 963a 63e8 cdbb 5086 a0bc
00000210: a92e 0d3e 653a a73d a4df a6bd fa12 08be
00000220: 0596 193d dabe 61bd 4f3f 50bd 0c5a a5bd
00000230: 81e0 583d 699a 19bd 5a2d 75bd 29b6 d2bd
00000240: 3bb1 2fbd 4e1d e23d 89e7 d8bc 611d 813d
00000250: fbab b03d 198e d53d c75f 803d efe5 203b
00000260: 1c03 3abd 7250 703d 1266 0fbd 72eb e7bd
00000270: 9d31 ddbd 054e 9abd cea1 c2bd d389 473d
00000280: 9ac2 b33d 6912 c8bc 9d2d 073e d691 913d
00000290: 7ec8 b73d 0842 a23d 049a cebc b07b 603d
000002a0: b30f f6bd 82e1 153d 051a babd 5188 abbd
000002b0: ea9a f7bc 5a7e 243c 6191 273d c11a 433c
000002c0: b228 083d 4f7f abbc 32ef 053d afba 033e
000002d0: 45bb 45bd 9179 913d 9041 05be b2f0 923d
000002e0: 0e24 db3d 2e38 f63d 425b bb3d 036a 03be
000002f0: 47e1 ad3b 2bb9 7ebc e352 0e3e e2a3 b63c
00000300: 1706 81bb 82e7 513c 0515 103c c449 e23c
00000310: 554d f53c 5b0e 8e3b 1b5a 1b3d 4aca a73c
00000320: 9793 ffbb bfb9 6f3b 7642 75b9 8341 6d3c
00000330: c997 9e3c 19e5 cf3c 40e7 f13b 6b01 623c
00000340: 6c85 c93c 73d5 993c 1cec a03b 9125 0f3d
00000350: 5476 093d a3ca d63b 44aa 3cbb b27b 973c
00000360: 0e5c d63b 9f96 8d3c 1c3d ba3b 6eb7 223d
00000370: b0f0 803c 2ea8 913c 0c2a a73c e383 413c
00000380: f393 e4bb afe0 c73b c781 843a a1d2 c83c
00000390: 91af 253d 3d13 553c d3ec a53c da15 56ba
000003a0: 8baa b63b cd88 bb3c f0a5 b6bc 1b75 ef3b
000003b0: bec3 ab3c 72a5 003b 6af5 b53c bbb9 4dbc
000003c0: 1998 513c 25c3 e0ba 9cee 7a3c de88 773d
000003d0: 2b30 9e3c 51de 8b3c af5e 033d 0ef8 1e3d
000003e0: bcd0 033d 7a67 a93c a4af bc3c 1085 253d
000003f0: b9dd d2bc 02c9 303c b9a4 5b3d 2e7d 823c

weight_ih_l1 f4 [256, 64]
0.041147545 0.00093751884 0.022150142 0.031237228 -0.0029193733 0.0023027088 0.002670145 0.0007760644
0.0024497204 -0.0022548225 -0.02323595 -0.00455418 0.00572846 -0.033809412 -0.025219755 -0.0019349769
2.7729888e-05 -0.014261261 -0.0018847522 -0.023741314 -0.00232903 -0.00024544896 -0.04348301 -0.059970185
-0.0042500407 0.0015130471 -0.038959444 -0.025141021 0.0030676904 -0.03142036 0.0007364106 0.0017484461
0.0022751954 0.017075008 0.0034516947 -0.01598088 0.049343344 0.01380951 -0.00044765614 0.0014134144
-0.07114783 0.021631096 -0.036135737 -0.054763976 0.0020923857 0.0008688097 -0.0024435497 -0.012192136
0.0024646013 -0.0017689593 -0.0011157505 0.023359444 0.0014817453 -0.002644308 -0.005205679 -0.030766658
0.00021426364 -2.3284536e-05 0.000817496 0.03332626 0.024564309 -0.04575639 0.053068582 -0.0037985577
0.021982532 -0.0007005345 0.009510187 -0.008129463 0.014915292 -0.0077327015 -0.016461192 -0.013845684
-0.01967545 -0.015684886 0.013616654 -0.011022983 0.010156884 -0.0047356216 0.0056909784 -0.0106417015
-0.0104481345 0.032951944 -0.010083612 -0.005677873 0.013918557 0.012737178 -0.0018271988 0.033286452
-0.05381916 0.0114974035 0.024876146 -0.024492046 -0.0135076605 -0.00385552 -0.013282272 0.010229749
0.08177839 -0.0082150055 0.01320264 0.027189206 0.056847394 0.0049821953 -0.011905162 0.004902203
0.010418493 -0.004426705 -0.0045546526 0.018115234 -0.0134111475 0.002492996 0.011811236 -0.03246856
0.011169904 -0.008938944 0.011660593 0.06258797 -0.012389823 0.008280492 -0.006943542 0.009229799
0.012940437 0.012152595 0.009672458 0.019196935 -0.052344777 0.0075536175 0.046889752 0.026155485
-0.014580984 -0.006136909 -0.008229802 -0.03338717 0.0056431023 -0.003245252 -0.014442759 -0.0027344432
0.012287276 -0.0029242905 -0.003866445 -0.0055733146 0.0018689405 -0.021116016 -0.028261939 -0.002167525
-0.005313512 0.0073758517 -0.0028161355 0.06206072 0.0030439468 -0.0055341315 0.0006699675 -0.021245398
-0.07228272 0.0009324993 0.002924194 -0.0128749525 -0.0042055887 -0.033564594 -0.005009726 0.0013547791
-0.01004224 0.029485237 0.0044155116 0.051470075 -0.0022844113 0.0055508744 -0.0034322552 -0.004159743
-0.05922484 0.022477191 0.02932492 -0.050383817 -0.0043217535 0.011516655 0.0041914335 0.026580302
0.0007174316 -0.013490821 0.018580189 -0.00499529 -0.0040434073 0.0057782154 -0.012695385 0.009685859
0.0026593008 0.005767602 0.0063554593 -0.043893777 0.047840416 -0.05925433 0.06092973 -0.046035238
0.02169188 -0.014121507 -0.0026777778 -0.017574776 0.006054282 0.0030296391 -0.013364284 -0.0057661906
0.018453272 -0.011822665 0.030093687 -0.008136977 0.0030502295 -0.0073185074 -0.031257745 -0.005228355
0.00208841 -0.005760448 -0.0064710593 0.0030523606 0.006981588 -0.011350624 -0.014943391 0.06538029
0.01030241 0.004786664 -0.007611045 -0.04655998 -0.0081728455 0.06297517 -0.007851102 0.003804919
0.024612017 -0.026722169 0.011900827 0.01006762 0.00032022526 0.010640405 -0.0058517773 0.0010178374
-0.07177249 0.053131096 -0.07572561 0.031833712 -0.0072531714 -0.010336997 0.0065174783 0.016853336
0.004579992 -0.009239398 0.0042702877 -0.0076553924 -0.006106806 0.010267537 -0.01123842 -0.045275643
0.010295763 0.0072528073 0.005378946 -0.05471552 -0.038196072 0.036175683 0.07135474 0.018116836
00000000: 548a 283d d3c3 753a 3774 b53c 37e5 ff3c
00000010: f552 3fbb 0be9 163b 99fd 2e3b cd70 4b3a
00000020: 7d8b 203b a5c5 13bb 5259 bebc 3b3b 95bb
00000030: ceb5 bb3b bd7b 0abd a999 cebc 0d9f fdba
00000040: 7b9d e837 10a8 69bc ca09 f7ba 257d c2bc
00000050: a4a2 18bb 9aaf 80b9 3e1b 32bd 4ca3 75bd
00000060: ed43 8bbb 7051 c63a f093 1fbd 8bf4 cdbc
00000070: 4e0b 493b a3b2 00bd ae0b 413a 1e2c e53a
00000080: 721b 153b e3e0 8b3c d435 623b 56ea 82bc
00000090: 3f1c 4a3d 4841 623c 64b3 eab9 5142 b93a
000000a0: f4b5 91bd b233 b13c 1103 14bd 3150 60bd
000000b0: 6820 093b d5c0 633a f623 20bb 86c1 47bc
000000c0: 2685 213b 6ddc e7ba 603e 92ba 4e5c bf3c
000000d0: 1f37 c23a 204c 2dbb 6794 aabb 5c0a fcbc
000000e0: f5ab 6039 2953 c3b7 3a4d 563a 1e81 083d
000000f0: 173b c93c 0d6b 3bbd 715e 593d 39f1 78bb
00000100: b614 b43c 13a4 37ba 9ed0 1b3c 7031 05bc
00000110: 455f 743c 9a62 fdbb 9fd9 86bc 02d9 62bc
00000120: 692e a1bc 977d 80bc 6318 5f3c be99 34bc
00000130: 0f69 263c 462d 9bbb 637b ba3b 885a 2ebc
00000140: a72e 2bbc 9ef8 063d bc35 25bc 730d babb
00000150: a90a 643c 99af 503c 9e7e efba 6057 083d
00000160: 7b71 5cbd 9b5f 3c3c 0fc9 cb3c 8ba3 c8bc
00000170: 3c4f 5dbc e4ac 7cbb e39d 59bc ad9a 273c
00000180: 6e7b a73d 3b98 06bc e34f 583c e6bb de3c
00000190: d0d8 683d af41 a33b de0d 43bc a9a2 a03b
000001a0: 54b2 2a3c e50d 91bb 323f 95bb 6666 943c
000001b0: 6eba 5bbc 8861 233b ea83 413c c1fd 04bd
000001c0: f901 373c a674 12bc 120c 3f3c 1f2e 803d
000001d0: affe 4abc e7aa 073c a786 e3bb 9538 173c
000001e0: 2004 543c ae1b 473c 3b79 1e3c e442 9d3c
000001f0: 7a67 56bd 5684 f73b 780f 403d 0744 d63c
00000200: 14e5 6ebc 2018 c9bb 4bd6 06bc fcc0 08bd
00000210: c6e9 b83b 4bae 54bb 52a1 6cbc 5834 33bb
00000220: 9250 493c 74a5 3fbb 2f64 7dbb 5aa0 b6bb
00000230: 3df7 f43a 7ffb acbc 9585 e7bc 090d 0ebb
00000240: f81c aebb 21b1 f13b ea8e 38bb 6233 7e3d
00000250: f47c 473b a957 b5bb c2a0 2f3a d40a aebc
00000260: f608 94bd f872 743a d6a3 3f3b 77f1 52bc
00000270: 09cf 89bb 077b 09bd a128 a4bb d892 b13a
00000280: 3588 24bc 068b f13c ffaf 903b 49d2 523d
00000290: 10b6 15bb 1ce4 b53b b0ef 60bb 744e 88bb
000002a0: bf95 72bd 1622 b83c d13a f03c 435f 4ebd
000002b0: 7f9d 8dbb 5ab0 3c3c 4b58 893b efbe d93c
000002c0: 0512 3c3a 9b08 5dbc 7b35 983c 88af a3bb
000002d0: 8f7e 84bb 2f57 bd3b 4e00 50bc 70b1 1e3c
000002e0: aa47 2e3b 27fe bc3b 7541 d03b f6c9 33bd
000002f0: 50f4 433d abb4 72bd 7491 793d 728f 3cbd
00000300: 2bb3 b13c e55d 67bc a87d 2fbb faf8 8fbc
00000310: 0063 c63b e98c 463b dff5 5abc 50f2 bcbb
00000320: 512b 973c dab3 41bc 0987 f63c f550 05bc
00000330: 5ce6 473b 17d0 efbb 1f08 00bd 9f52 abbb
00000340: b5dd 083b 24c2 bcbb 2e0b d4bb 1d0a 483b
00000350: cec5 e43b f8f7 39bc 20d5 74bc 1ae6 853d
00000360: 71cb 283c 73d9 9c3b 1366 f9bb adb5 3ebd
00000370: 66e7 05bc 20f9 803d e9a1 00bc f35b 793b
00000380: 249f c93c 73e8 dabc b0fb 423c a9f2 243c
00000390: e8e3 a739 1855 2e3c 44c0 bfbb f568 853a
000003a0: 75fd 92bd fe9f 593d 0716 9bbd 1164 023d
000003b0: 03ac edbb 825c 29bc 9290 d53b 0210 8a3c
000003c0: c213 963b d860 17bc c5ed 8b3b 16da fabb
000003d0: 9a1b c8bb 2c39 283c 5a21 38bc f472 39bd
000003e0: 8faf 283c f5a8 ed3b df41 b03b 621d 60bd
000003f0: 7c73 1cbd f42c 143d 6f22 923d c269 943c

weight_hh_l1 f4 [256, 64]
0.025038132 0.030489296 -0.020823328 -0.007422762 -0.016826827 -0.023490015 -0.010950874 -0.038193252
-0.011501117 -0.02624118 0.01793924 0.04867778 0.0082731275 0.0014555024 -0.050937973 0.010712239
0.03749165 -0.0140887005 0.010512129 0.021033969 -0.02364864 -0.039855696 -0.0012297897 -0.021735135
0.027555287 -0.012102956 -0.06770387 -0.05064109 0.02840054 0.01895334 -0.012822873 0.000428015
-0.007327155 -0.033550154 -0.0028123425 0.009309507 -0.012686215 -0.022477658 -0.029637799 0.008636616
-0.043761954 0.014533341 -0.010060689 -0.024364699 -0.04366251 0.017451989 0.070162706 0.0038881588
0.02369773 0.050050817 -0.021513047 -0.011216565 -0.03238575 0.0737368 0.020507658 -0.010458223
0.033542857 -0.00802382 0.007199106 0.030127788 -0.035997078 0.036096085 -0.020329153 -0.025160434
0.01120262 0.008728466 -0.02147815 -0.004597429 0.0063950135 0.024944685 -0.039471235 -0.021127032
-0.030124797 0.030855838 0.034997568 0.016028771 0.012101602 0.0176744 0.0012183088 -0.035639785
-0.026155943 -0.024528846 0.009666375 0.022466183 0.016321618 -0.020522581 -0.015953293 -0.015567622
0.032285113 0.03880368 -0.016998867 -0.024459632 0.006515569 -0.015860103 0.0064481786 -4.34267e-05
-0.045469005 -0.00258734 -0.009404039 0.0072642975 -0.024451058 -0.035231795 -0.019602492 0.038518224
0.020522952 -0.038353927 -0.053939957 0.032591213 0.014185136 0.027212279 0.040798444 0.016513214
-0.0066423696 0.03371099 0.012901826 0.038732715 0.0005402219 -0.019223623 0.034411877 0.001020901
0.012244072 -0.009112152 0.0031935498 -0.0109981075 -0.009299805 0.0392862 -0.03116743 -0.023406815
0.04657689 0.029861918 -0.021756314 0.030461907 0.023718145 0.025347311 0.03288936 -0.005626801
-0.01988883 0.023515137 0.010536866 0.0072922916 0.025127824 -0.03700515 -0.04533848 0.007387582
-0.04504885 0.016871933 0.01807705 0.012193859 -0.03828684 -0.07204134 0.027990641 -0.015081044
-0.048476756 0.018428378 -0.031711437 -0.040229365 0.017721793 -0.0083035845 0.006669327 -0.014947405
-0.011956307 0.020141691 0.018475119 -0.02077602 -0.01476562 -0.026226511 -0.0035250208 0.06417573
0.002530051 -0.06246689 0.024618974 0.020538338 0.012268035 0.022385608 0.05065357 0.012240292
0.0051545477 0.026450442 0.024194563 -0.0015659723 -0.062420733 0.022123968 0.01408354 0.00049979734
0.00898197 0.0060650534 -0.028284704 -0.031771798 -0.029820438 0.021555966 -0.01771676 -0.0057627284
0.02584783 0.007806888 0.025918938 0.015718274 0.022646442 0.0110051725 -0.0041495212 -0.029739492
0.023301965 0.0518022 -0.023943735 -0.010954498 0.011920519 0.012455547 0.012598559 0.004038214
-0.026736505 -0.015839688 -0.013729966 -0.0031390793 -0.024106583 -0.04054971 -0.017457258 -0.045915097
0.012792744 -0.062030632 -0.0035370057 -0.0069807745 -0.025080903 -0.01793322 0.015823683 0.008025653
-0.017576924 0.017706584 -0.018003296 0.007332484 0.007033391 0.00089620723 -0.011176952 0.0300322
0.013341285 0.014357228 -0.044807028 0.0017785202 0.0013125854 0.021368327 0.00047707668 0.002366039
-0.004618429 0.01266885 0.014245433 -0.01047468 0.046479363 0.0024799344 0.018595487 -0.024897736
-0.007271338 0.0017403165 -0.010839105 -0.02189867 0.01605765 0.014061949 -0.046243098 -0.0143894935
00000000: c51c cd3c b0c4 f93c af95 aabc a43a f3bb
00000010: 6ad8 89bc 226e c0bc 4b6b 33bc 8770 1cbd
00000020: 2e6f 3cbc bef7 d6bc 50f5 923c 5a62 473d
00000030: 038c 073c 8ec6 be3a 56a4 50bd 6382 2f3c
00000040: d890 193d 4bd4 66bc 113b 2c3c 6e4f ac3c
00000050: cbba c1bc ba3f 23bd e530 a1ba e20d b2bc
00000060: a0bb e13c 7a4b 46bc 54a8 8abd 086d 4fbd
00000070: 40a8 e83c 0944 9b3c 0717 52bc 3367 e039
00000080: a218 f0bb e36b 09bd 474f 38bb e786 183c
00000090: d8d9 4fbc 1123 b8bc f8ca f2bc 9880 0d3c
000000a0: bc3f 33bd 401d 6e3c 97d5 24bc 7a98 c7bc
000000b0: 76d7 32bd 79f7 8e3c 77b1 8f3d 7bd0 7e3b
000000c0: be21 c23c 1602 4d3d 213c b0bc afc5 37bc
000000d0: eca6 04bd 5203 973d adff a73c f758 2bbc
000000e0: 3c64 093d 5776 03bc 7ae6 eb3b 8dce f63c
000000f0: ac71 13bd 7dd9 133d 5389 a6bc 411d cebc
00000100: 328b 373c d701 0f3c f2f2 afbc 08a6 96bb
00000110: 438d d13b cc58 cc3c 97ac 21bd 9912 adbc
00000120: 47c8 f6bc 62c5 fc3c 9c59 0f3d c54e 833c
00000130: cc45 463c e7c9 903c a9af 9f3a 06fb 11bd
00000140: fd44 d6bc b8f0 c8bc b75f 1e3c 000b b83c
00000150: eab4 853c f91e a8bc 7bb0 82bc 570f 7fbc
00000160: 653d 043d 9cf0 1e3d 3541 8bbc 915f c8bc
00000170: 8e80 d53b 0ced 81bc 3e4b d33b 1025 36b8
00000180: b53d 3abd 5d90 29bb 6613 1abc 5809 ee3b
00000190: 964d c8bc 374f 10bd 6895 a0bc 49c5 1d3d
000001a0: c01f a83c 0219 1dbd 25f0 5cbd 5d7e 053d
000001b0: c668 683c 49ec de3c 451c 273d b846 873c
000001c0: 3ca8 d9bb 8914 0a3d 2e62 533c 32a6 1e3d
000001d0: ae9d 0d3a dc7a 9dbc 78f3 0c3d c1cf 853a
000001e0: 5c9b 483c 234b 15bc e04a 513b 6831 34bc
000001f0: 365e 18bc 91ea 203d d752 ffbc a6bf bfbc
00000200: 69c7 3e3d fba0 f43c 4c3a b2bc 408b f93c
00000210: 8e4c c23c 2aa5 cf3c feb6 063d 0761 b8bb
00000220: e6ed a2bc d1a2 c03c d2a2 2c3c 2df4 ee3b
00000230: ded8 cd3c b692 17bd d8b4 39bd 8813 f23b
00000240: 2585 38bd 0237 8a3c 5216 943c c0c8 473c
00000250: a9d2 1cbd 698a 93bd a14c e53c 7c16 77bc
00000260: 908f 46bd 1cf7 963c dae3 01bd 8cc7 24bd
00000270: 4b2d 913c c20b 08bc 5f8a da3b f6e5 74bc
00000280: 63e4 43bc 3000 a53c 2259 973c 7932 aabc
00000290: 80eb 71bc fbd8 d6bc 0904 67bb 916e 833d
000002a0: 36cf 253b 48dd 7fbd bbad c93c 0440 a83c
000002b0: deff 483c 0662 b73c 1e7a 4f3d 818b 483c
000002c0: 7be7 a83b 99ae d83c ad33 c63c 5041 cdba
000002d0: e2ac 7fbd 533d b53c a6be 663c d504 033a
000002e0: 1d29 133c 5bbd c63b 53b5 e7bc 2523 02bd
000002f0: fe49 f4bc 2396 b03c bd22 91bc 45d5 bcbb
00000300: d4be d33c ecd0 ff3b f453 d43c 9cc3 803c
00000310: 0885 b93c 0a4f 343c b5f8 87bb 3ca0 f3bc
00000320: c3e3 be3c 8b2e 543d a725 c4bc 7f7a 33bc
00000330: 484e 433c 5a12 4c3c 306a 4e3c ff52 843b
00000340: 8406 dbbc 3cc2 81bc a7f3 60bc 03b9 4dbb
00000350: 2b7b c5bc 7417 26bd 8602 8fbc 7811 3cbd
00000360: a898 513c d513 7ebd 1ccd 67bb fbbe e4bb
00000370: 7776 cdbc b0e8 92bc aba0 813c 077e 033c
00000380: 7bfd 8fbc 660d 913c a67b 93bc 5545 f03b
00000390: 5c78 e63b 73ef 6a3a 891f 37bc 1706 f63c
000003a0: 6895 5a3c 943a 6b3c 9387 37bd 3c1d e93a
000003b0: 0f0b ac3a a10c af3c 2620 fa39 8c0f 1b3b
000003c0: 3156 97bb 0291 4f3c ad65 693c fe9d 2bbc
000003d0: 2561 3e3d 6586 223b 9055 983c 56f6 cbbc
000003e0: 6744 eebb 551b e43a 8096 31bc d764 b3bc
000003f0: 558b 833c 1764 663c 6769 3dbd e9c1 6bbc

bias_ih_l1 f4 [256]
-0.014578341 0.02770279 -0.048189264 -0.029870534 0.09238664 0.022614531 0.068050124 0.038749065
-0.011918161 0.03674936 0.05140412 0.089700095 -0.022202548 0.04112475 0.10948564 0.09831526
0.011483579 0.010090737 0.066718616 0.057797343 -0.0067159147 0.107423775 0.044275645 0.039953
0.009723841 0.02489244 -0.029031467 0.03224693 0.01153338 0.029475873 -0.007493149 0.10687045
-0.011135469 0.0965932 0.040083125 0.048776593 0.061222337 0.05360621 -0.031475447 0.0075872005
0.011323571 -0.023649674 0.018043457 0.035112675 0.09854536 0.011774086 0.11401409 0.004857141
-0.02273591 0.061433792 0.035504494 0.031637304 0.016967893 0.060774747 -0.0072922674 0.06334189
-0.024306633 -0.029574933 0.060886707 0.03143282 0.055194765 0.05029246 0.031266965 0.030188851
0.09115644 0.022853034 0.103645906 0.1055967 0.059570003 0.08667131 -0.04477855 0.086220235
0.08583775 0.026216775 0.08985791 0.08998233 -0.03320428 -0.020139925 0.0035486675 0.09826965
0.0043053315 0.012009881 0.06295624 0.050080236 0.041240085 0.024964156 0.10120639 0.07646897
0.10555936 0.07761515 0.07576432 0.06333419 0.034005973 0.03687228 0.0021483977 0.04563068
0.11861426 0.07255833 0.059232015 0.012735658 -0.038917005 0.08652808 0.025778968 0.02271387
0.08842756 0.016964426 0.08564103 0.0387939 0.12440903 0.07288703 0.00983301 0.051444717
0.0031771997 0.024728829 0.091272146 -0.055019252 -0.021446785 0.019358946 -0.047537755 0.0010909853
0.037499633 0.052682903 -0.029702464 -0.02956711 0.13660349 0.03923831 -0.012712782 0.047719527
-0.02820279 -0.08567047 -0.07134658 0.09845476 0.1039073 0.036128234 -0.052722067 0.12349146
-0.10584214 -0.017312542 0.03649874 0.05233653 0.023407184 0.013196023 -0.07958301 0.04640848
-0.14367235 -0.021816026 -0.006195314 -0.053234305 -0.12058245 -0.10581759 -0.021088686 -0.106568746
-0.042576566 0.10260708 -0.0569213 0.025429664 0.09720752 -0.010328895 -0.068788186 -0.11297333
-0.0123075135 -0.08053578 -0.04878592 0.055545088 -0.09138877 -0.067057826 -0.04786403 0.12781198
-0.14495456 0.113763966 0.004546336 0.08895309 -0.085281536 0.107980214 0.12409184 -0.023048516
0.111284435 0.11394672 0.061819375 0.051523097 0.0369522 -0.04446606 0.052889958 0.03961656
0.028063452 0.010776958 -0.08873892 -0.114362486 -0.089245476 0.04702225 0.02422775 -0.04511837
0.02786547 0.04171533 0.06363147 0.09923447 0.068699725 0.05708008 0.04831001 0.12285307
0.007297875 0.06842552 -0.021014094 0.015150818 -0.011467909 0.00088752736 0.030217135 0.030307854
-0.021356998 0.055144154 -0.003855261 0.023390988 0.06729329 -0.018623272 0.0186078 0.024929848
0.046101924 0.113957696 0.05816682 0.02391006 0.06821022 -0.0009507751 0.051614583 0.0884747
0.11605695 0.09280019 -0.020241784 0.06903114 -0.028687187 0.0419238 0.08014327 -0.014625533
0.12501109 -0.0019099885 -0.018400531 0.061083786 0.0671247 0.01734356 0.122153774 0.05667215
-0.008748549 -0.02798368 0.107686244 -0.02427366 0.079077415 0.13159695 0.058023714 0.073653184
0.10324136 -0.009254958 0.0814606 0.10220443 0.116632156 -0.016719563 -0.0124313235 -0.019069081
00000000: fed9 6ebc f6f0 e23c 1b62 45bd 0db3 f4bc
00000010: 3535 bd3d 1c42 b93c dd5d 8b3d 57b7 1e3d
00000020: 6444 43bc 7f86 163d 208d 523d afb4 b73d
00000030: 1ee2 b5bc 6d72 283d 023a e03d 8359 c93d
00000040: 9f25 3c3c 9e53 253c c5a3 883d e8bc 6c3d
00000050: 2d11 dcbb ff00 dc3d 615a 353d c2a5 233d
00000060: bf50 1f3c 3beb cb3c 66d3 edbc 5b15 043d
00000070: 80f6 3c3c 6377 f13c 1789 f5bb e5de da3d
00000080: 8b71 36bc a8d2 c53d 342e 243d f7c9 473d
00000090: 46c4 7a3d 2f92 5b3d 66ec 00bd 0d9e f83b
000000a0: 8086 393c f6bc c1bc dfcf 933c 4fd2 0f3d
000000b0: 26d2 c93d 19e8 403c 3880 e93d a728 9f3b
000000c0: a940 babc 00a2 7b3d 296d 113d 1e96 013d
000000d0: 4000 8b3c f1ee 783d f9f3 eebb 65b9 813d
000000e0: b41e c7bc 2147 f2bc 5764 793d b3bf 003d
000000f0: e813 623d 77ff 4d3d ca11 003d 9c4e f73c
00000100: 3ab0 ba3d 4936 bb3c 4e44 d43d 1543 d83d
00000110: adff 733d ba80 b13d b669 37bd 3c94 b03d
00000120: b4cb af3d 90c4 d63c 6d07 b83d a848 b83d
00000130: 3601 08bd 7cfc a4bc c390 683b 9941 c93d
00000140: bd13 8d3b 18c5 443c 33ef 803d ef20 4d3d
00000150: 5deb 283d a181 cc3c 4c45 cf3d c39b 9c3d
00000160: 812f d83d b1f4 9e3d 532a 9b3d 5bb5 813d
00000170: d949 0b3d 6307 173d 22cc 0c3b 3ce7 3a3d
00000180: 08ec f23d 7699 943d 459d 723d 39a9 503c
00000190: 7067 1fbd a235 b13d 6a2e d33c 7012 ba3c
000001a0: 8219 b53d fbf8 8a3c 9064 af3d 5ae6 1e3d
000001b0: 29ca fe3d cc45 953d a21a 213c b2b7 523d
000001c0: 9138 503b 1d94 ca3c e4ec ba3d de5b 61bd
000001d0: 2bb1 afbc a796 9e3c f3b6 42bd 64ff 8e3a
000001e0: 3799 193d 07ca 573d 9552 f3bc b936 f2bc
000001f0: c9e1 0b3e 5ab8 203d 4649 50bc 8d75 433d
00000200: 8a09 e7bc 0074 afbd 281e 92bd a6a2 c93d
00000210: 5acd d43d 33fb 133d 18f3 57bd 17e9 fc3d
00000220: c4c3 d8bd 08d3 8dbc b47f 153d d45e 563d
00000230: 6cc0 bf3c 2234 583c 6bfc a2bd d116 3e3d
00000240: d81e 13be 86b7 b2bc 1002 cbbb 370c 5abd
00000250: eef3 f6bd e5b6 d8bd 2ec2 acbc b740 dabd
00000260: c464 2ebd a923 d23d 4f26 69bd df51 d03c
00000270: bc14 c73d 873a 29bc d2e0 8cbd 905e e7bd
00000280: 74a5 49bc f1ef a4bd bfd3 47bd 3f83 633d
00000290: 092a bbbd 9d55 89bd 130d 44bd 25e1 023e
000002a0: f86e 14be 15fd e83d 6ef9 943b 0a2d b63d
000002b0: 16a8 aebd bb24 dd3d dd23 fe3d 3ed0 bcbc
000002c0: 18e9 e33d e65c e93d 5036 7d3d e209 533d
000002d0: 315b 173d 0b22 36bd 24a3 583d f944 223d
000002e0: 53e5 e53c d791 303c c0bc b5bd e136 eabd
000002f0: 55c6 b6bd 679a 403d 4679 c63c 0ace 38bd
00000300: 2046 e43c b2dd 2a3d 3751 823d 713b cb3d
00000310: 71b2 8c3d cdcc 693d b8e0 453d 649a fb3d
00000320: 0323 ef3b ae22 8c3d c025 acbc 233b 783c
00000330: e6e3 3bbc f4a8 683a ed89 f73c 2d48 f83c
00000340: dff4 aebc d6de 613d 8ca8 7cbb 759e bf3c
00000350: 10d1 893d d58f 98bc 636f 983c ae39 cc3c
00000360: 5fd5 3c3d a762 e93d 5540 6e3d 08df c33c
00000370: cdb1 8b3d 703d 79ba d069 533d 3932 b53d
00000380: 44af ed3d 070e be3d 19d2 a5bc 3360 8d3d
00000390: 6401 ebbc 4ab8 2b3d 2822 a43d ee9f 6fbc
000003a0: e802 003e 9458 faba b6bc 96bc fe32 7a3d
000003b0: ad78 893d 1514 8e3c c22b fa3d 0e21 683d
000003c0: 1356 0fbc 083e e5bc 9b8a dc3d 8ed9 c6bc
000003d0: 57f3 a13d 5ac1 063e 46aa 6d3d 7bd7 963d
000003e0: 3570 d33d 1ba2 17bc d1d4 a63d 8e50 d13d
000003f0: d7dc ee3d 77f7 88bc c0ac 4bbc c336 9cbc
