code/model_cat_rnn_entire.pt (torch, 248007 bytes, 10 tensors)

weight_ih_l0 f4 [256, 40]
000000 06 25 4c 3c 5c 01 48 3c 42 5b a4 3b 73 6f 85 3b
       0.012459999 0.012207355 0.0050157616 0.0040721237
000010 59 96 0b 3c 8c be a4 3b e1 83 95 3b c1 8e 6c 3b
       0.008519732 0.005027598 0.0045628403 0.003609583
000020 9a d2 1d bb c4 15 72 3b fe 32 a1 3b 81 81 d3 3c
       -0.0024081827 0.0036939243 0.004919409 0.025818588
000030 17 87 90 3c 48 4f 91 3b 7c 3f 4e 3c 82 55 6a 3c
       0.01764254 0.0044345 0.012588378 0.014302613
000040 7f 63 84 3c 35 11 7d 3b f0 47 5f 3b 7e 29 8a 3b
       0.016160725 0.0038614993 0.0034069978 0.004216372
000050 79 ab ad 3c 62 b4 95 3c d4 74 80 3c df b5 27 3b
       0.021199929 0.01827449 0.015680708 0.0025590581
000060 f8 d9 84 39 b6 61 84 3b 41 15 3c 3b 3d a3 49 3b
       0.000253394 0.0040399684 0.0028699192 0.0030767464
000070 9b 2b 3e 3b a6 c6 ea 3c 7f e0 8d 3b cc e4 c5 3c
       0.002901769 0.028659176 0.0043297405 0.02415695
000080 4a 26 2d 3c 13 95 a3 3b 7f 83 95 3b e6 64 9f 3b
       0.010568211 0.0049921363 0.0045627947 0.004864323
000090 8e bb 08 bc 6e 8a 96 3b 8c 93 a5 3b bb dc 9c 3c
       -0.008345498 0.004594139 0.0050529893 0.019148221
0000a0 94 23 20 b9 e2 93 4a ba 6c b7 cc b9 72 8c 59 ba
       -0.00015272043 -0.0007727725 -0.00039046572 -0.0008298821
0000b0 76 3b 0f ba a2 a5 4d ba dd 9c 80 3b 9e e7 80 bb
       -0.00054638775 -0.00078448106 0.0039249496 -0.003933861
0000c0 64 0b 03 bb 6d d3 e0 3a a3 cc 98 ba 08 70 f6 38
       -0.0019995803 0.0017152854 -0.0011657666 0.000117510615
0000d0 87 ea e4 bb 31 73 e5 ba ef 1b b6 3b cd 3d e2 ba
       -0.0069859657 -0.0017505643 0.005557529 -0.001726085
0000e0 23 6f 0e bb 18 71 db bb db 9c 08 bb 87 c6 88 bb
       -0.0021733723 -0.0066968314 -0.0020845446 -0.004174057
0000f0 90 e4 11 bb f7 65 7a 3b 7b fa 21 bb dc 0a 04 bc
       -0.0022261478 0.0038207748 -0.0024715948 -0.00805923
000100 18 58 10 bb e7 91 14 bb 35 5c 15 bb fc e6 30 bb
       -0.0022025164 -0.0022669972 -0.0022790555 -0.0026993146
000110 3b 2b a8 bb 70 79 3c bc b7 b2 24 bb a8 e2 a8 3b
       -0.0051321066 -0.011503562 -0.0025130936 0.0051539727
000120 f4 22 02 bc 02 da 5a bb 86 60 2e bb c7 61 42 bb
       -0.007942904 -0.0033394103 -0.0026607825 -0.002966033
000130 38 83 25 bb 3b 40 21 bc 3f f3 40 bb 04 ec f7 3a
       -0.0025255214 -0.009841974 -0.002944186 0.0018914943
000140 2d e0 1e 3b c3 f0 f8 3a d3 8b 10 3b f2 cb d1 3a
       0.0024242506 0.0018992651 0.0022055998 0.0016006215
000150 c0 41 bb 3a fe 84 0a 3b 6c 46 19 3a c4 46 48 39
       0.0014286563 0.0021136398 0.00058469805 0.00019099849
000160 90 0b 1a 3a 8c 0e 10 3a 8f c2 ed 3a 11 ac 0c 3b
       0.0005876357 0.0005495332 0.0018139648 0.0021464864
000170 ad db 51 3b 5a 74 4d 3b b4 07 15 3b f0 7a 37 3b
       0.0032021806 0.0031349869 0.0022740187 0.002799686
000180 dd 6e 0c 3b a4 3b d3 39 bb fd ae 3a 2a f5 fc 3a
       0.0021428384 0.00040289492 0.0013350764 0.0019299139
000190 5e 9e 62 3b 65 7f 6d 3b 00 e8 10 ba 3d 83 06 bb
       0.0034579257 0.0036239263 -0.0005527735 -0.0020525001
0001a0 2c 22 9e ba 31 e5 1d 3b ee c9 d8 3b ca cc f6 3a
       -0.0012064627 0.0024092908 0.006615869 0.0018829342
0001b0 79 2a 8d 3a 5d eb c8 3b fd b6 c0 ba 66 38 47 3b
       0.0010770104 0.006131573 -0.0014702972 0.0030398606
0001c0 5f 96 7c 3b 99 4f d7 3b eb d4 e2 3b aa 89 58 bb
       0.0038541777 0.006570768 0.0069223545 -0.0033041039
0001d0 b5 61 45 39 47 78 26 3c d6 1d 83 3c b9 84 47 3c
       0.00018823783 0.010160512 0.016005438 0.01217764
0001e0 d6 37 b0 3c 3d 5c 27 3c 21 ff 0a 3c f8 27 ca 3c
       0.021511 0.010214862 0.008483679 0.024677262
0001f0 dc 9f 8e 3c 86 87 93 3c 54 bd 41 3c 10 75 57 3c
       0.017410211 0.018008959 0.0118249245 0.0131504685
000200 ef 69 00 bb 22 79 2d 3c be 9f 4c 3c dc 77 8f 3c
       -0.0019594391 0.010587962 0.012489257 0.017513208
000210 83 da 3c 3c 07 57 5e 3c a5 a2 c6 3c a8 c8 dd 3b
       0.011526707 0.013570554 0.024247477 0.006768305
000220 6c f1 54 3c d6 f5 66 3c d5 f5 0c 3c c1 22 76 3c
       0.012997013 0.014096698 0.008603533 0.015022934
000230 43 9a 2f 39 ea 51 a3 3a 03 7a 4d 3c fb 59 33 3c
       0.00016746768 0.0012460325 0.012541297 0.010946746
000240 05 ec 86 3b fb 6d 48 3c 10 0b 3a 3c 3e c7 3c 3c
       0.004117491 0.012233253 0.011355177 0.011522112
000250 86 1e d1 3c 0d 8e 28 3c 6d c9 9c 3b a6 6d 98 3c
       0.02552725 0.010287774 0.004784754 0.018606972
000260 88 8f 20 3c e7 83 10 bb 50 d2 30 3c 8f 03 67 3c
       0.0097998455 -0.0022051276 0.01079233 0.0140999695
000270 6b 17 13 3c 45 d4 18 3d 84 da 97 3c 3a 2b 9d 3b
       0.008977751 0.03731181 0.018536814 0.004796413
000280 6e dc c0 bc 71 b8 c7 bb 0a b5 23 bd 39 9a a7 bd
       -0.023542609 -0.006094985 -0.039967574 -0.081837125
000290 1f 1e 39 bc df 5b a5 bc 10 dd 5d 3d 08 69 9f 3c
       -0.011298685 -0.02018541 0.0541659 0.019459262
0002a0 94 ab c3 3b 57 50 8a 3d 2f d7 12 3d 09 0d 13 3d
       0.0059713814 0.06753605 0.035849746 0.035901103
0002b0 95 e8 f3 ba 30 fe 2d 3c 63 d2 93 3c 53 2f fe bb
       -0.0018608744 0.010619685 0.018044656 -0.0077571063
0002c0 2d 2c 2d 3c 87 23 1b bd 70 06 12 bd 0e 52 76 bc
       0.010569614 -0.03787568 -0.03565067 -0.015034212
0002d0 ee b1 7b 3d c9 07 78 3d 63 17 4e 3c f3 e7 91 3d
       0.061448984 0.0605543 0.012578818 0.07124319
0002e0 9e 73 b8 3d 5d e1 b6 3d bd f8 cd bc 1e a6 9c 3c
       0.09006427 0.089297034 -0.025143022 0.01912218
0002f0 ce 57 e6 3c 33 8c 42 3d 53 5e fa 3c 03 f9 b5 bb
       0.02811804 0.047496986 0.030562555 -0.005553366
000300 23 15 b5 bd 72 43 b1 bc 56 b3 8b bd 4d 6c 2f bc
       -0.08841922 -0.021638606 -0.06821315 -0.010706973
000310 92 b8 ab bc e0 48 9b 3c b6 a3 80 bc e1 25 2e bc
       -0.020962033 0.018955648 -0.015703063 -0.010629148
000320 e7 32 aa 3c a4 a6 ab 3c 93 7a a1 3c 0f 19 9d 3c
       0.020776225 0.020953484 0.019711768 0.019176988
000330 18 22 9a 3c 3b 4b 9c 3c ef 9f 91 3c d0 e5 93 3c
       0.018815085 0.019078841 0.017776458 0.01805392
000340 28 8b 9e 3c 59 4e a0 3c 0e 79 a0 3c ca 50 ac 3c
       0.019353464 0.01956861 0.019588973 0.021034617
000350 37 af ad 3c 68 66 89 3c b4 3c 8f 3c 34 6b 9b 3c
       0.021201713 0.016772464 0.017485 0.018972017
000360 3d 44 a4 3c 61 72 a6 3c 95 0f a1 3c bc c7 af 3c
       0.02005207 0.020318212 0.01966075 0.021457545
000370 2d 85 9a 3c 90 d8 a1 3c aa b6 ad 3c 56 24 af 3c
       0.018862331 0.019756585 0.021205265 0.021379631
000380 d5 70 ab 3c 24 5f b6 3c 62 25 b4 3c 0e a4 ba 3c
       0.020927826 0.022262163 0.021990482 0.022783305
000390 d5 b8 b3 3c 38 79 bc 3c 77 ca b8 3c 05 91 a9 3c
       0.02193872 0.02300702 0.02255748 0.020699034
0003a0 ce 61 9d 3c a7 ee 9b 3c cc 80 97 3c ca 97 9b 3c
       0.019211676 0.019034697 0.018494032 0.018993277
0003b0 b4 d7 9e 3c f4 b4 9c 3c ea 3a 9d 3c 76 eb 9c 3c
       0.019389965 0.019129254 0.019193131 0.019155245
0003c0 95 18 ac bc 52 b9 c9 bc e7 9c d2 bc 24 9e d4 bc
       -0.021007815 -0.0246245 -0.025709582 -0.025954314
0003d0 e3 2c da bc b1 33 c3 bc 55 57 e3 bc 17 52 de bc
       -0.026632732 -0.02382836 -0.027751604 -0.027138753
0003e0 82 4c d2 bc 61 01 d5 bc 20 22 e1 bc 0e ba cd bc
       -0.025671247 -0.026001634 -0.027482092 -0.025113132
0003f0 3d 70 c3 bc 62 e9 e1 bc 0e 4e c7 bc 2d c8 e8 bc
       -0.02385723 -0.027577106 -0.024329212 -0.028415764

weight_hh_l0 f4 [256, 64]
000000 3b 13 d8 38 96 dc ac 38 97 f0 06 ba a6 8d b5 b7
       0.000103032646 8.2426865e-05 -0.0005147545 -2.1642842e-05
000010 45 68 a2 ba 37 3d 2b 38 d2 05 14 3a 28 fb f0 b9
       -0.0012390694 4.0826588e-05 0.0005646619 -0.00045963493
000020 31 b5 63 3a a2 e0 0d ba f4 4f 80 39 a1 de 3d b9
       0.00086863624 -0.0005412196 0.00024473632 -0.0001810738
000030 a5 3b ab b9 d8 b6 84 b9 02 05 24 38 be 19 e9 b8
       -0.000326601 -0.0002531323 3.910531e-05 -0.00011115101
000040 61 37 e5 39 f1 53 29 3a 31 2e 2c 38 f6 ce 9c 39
       0.00043719544 0.00064593466 4.1051015e-05 0.00029908837
000050 bf 1a 8f b9 ae 66 99 38 fe 8a 68 38 25 46 fc b9
       -0.00027295013 7.314734e-05 5.5442557e-05 -0.00048117447
000060 ad 2a 92 b9 dd a7 d9 b9 6d fb a2 38 04 8e 41 38
       -0.00027879086 -0.00041514533 7.771594e-05 4.6147048e-05
000070 f8 aa 14 b9 5f 6d dd 38 1c 00 7a 39 b3 c0 1b 3a
       -0.0001417807 0.00010558473 0.00023841899 0.0005941495
000080 03 9e fb b8 43 65 5f b9 21 9d 79 b7 70 9f 11 b9
       -0.00011998045 -0.0002130466 -1.4878141e-05 -0.00013887673
000090 0f 44 ae 39 b0 a1 7e 3a 20 34 19 3a 5b ca f2 39
       0.00033238574 0.00097134244 0.0005844254 0.00046308603
0000a0 a2 01 d2 39 b6 7c 06 ba 5d e5 61 39 9b 9a 5f 39
       0.00040055538 -0.0005130278 0.00021543117 0.00021324532
0000b0 2f 6b 7a b9 d1 31 0b 39 68 d1 24 3a 54 ee 89 b6
       -0.00023881787 0.00013274631 0.00062873075 -4.110663e-06
0000c0 c2 5c 25 38 f4 ed d4 b9 c1 58 ad b9 79 34 07 b9
       3.9425453e-05 -0.0004061308 -0.00033063258 -0.00012894151
0000d0 ea fc 69 b8 f3 bc 0a 39 f8 e3 45 b9 45 f9 f0 b9
       -5.5787074e-05 0.00013231095 -0.00018872309 -0.00045962087
0000e0 eb 8d 27 b9 ba 6e ee 37 ab 83 82 39 ce d9 00 ba
       -0.0001597923 2.8423372e-05 0.00024893633 -0.0004915268
0000f0 27 40 64 3a ee 34 1c b9 8f 37 c7 39 b5 24 de 39
       0.0008707069 -0.00014897037 0.00037997632 0.00042370489
000100 e2 8d 2e b7 67 27 fd b6 66 45 e7 37 10 53 28 36
       -1.0404243e-05 -7.5445746e-06 2.7569662e-05 2.50823e-06
000110 af 85 58 38 26 8c 9f 35 a9 f4 8c b7 f3 19 31 b8
       5.1622916e-05 1.1887212e-06 -1.680323e-05 -4.2224256e-05
000120 62 4b c7 b8 0f 6e a9 37 5c 1c b0 37 60 96 df 37
       -9.5031006e-05 2.019762e-05 2.099404e-05 2.6653695e-05
000130 f9 c4 13 37 39 f8 73 37 2d 58 03 b6 82 d0 36 37
       8.807744e-06 1.45417225e-05 -1.9571846e-06 1.0896592e-05
000140 fd 41 88 b8 07 02 3b b8 d1 6f 79 b6 83 8f 1d b8
       -6.4972766e-05 -4.4586162e-05 -3.7168977e-06 -3.7565373e-05
000150 fb c8 04 38 06 69 3f b7 9f 86 42 b6 c3 f1 67 38
       3.165843e-05 -1.140894e-05 -2.8986613e-06 5.529985e-05
000160 c0 ef 17 38 07 72 10 38 4f 43 1d b7 95 48 f4 b6
       3.622449e-05 3.443847e-05 -9.373601e-06 -7.2802163e-06
000170 d8 05 f4 37 b4 af 7b b6 b5 c8 54 b8 92 23 a6 b8
       2.9089788e-05 -3.7504187e-06 -5.073166e-05 -7.922122e-05
000180 04 0a 4c 37 51 e4 22 38 e1 97 57 35 21 63 fd 36
       1.21616795e-05 3.8836446e-05 8.0314754e-07 7.5515277e-06
000190 fe 8d 1b b8 2d 0b 88 b8 93 e9 5b b8 0a 55 5a b8
       -3.708712e-05 -6.487067e-05 -5.24312e-05 -5.205445e-05
0001a0 5b ff 69 b8 0e fa bb 37 dc 47 80 b7 52 e5 e1 b7
       -5.5789347e-05 2.2408578e-05 -1.5292251e-05 -2.6928876e-05
0001b0 77 4f c1 37 08 0b 46 b7 b5 23 60 b8 6a d5 82 34
       2.3044397e-05 -1.1804288e-05 -5.3439016e-05 2.4369666e-07
0001c0 49 b4 12 b8 3c a8 78 38 64 4f 2f 38 20 83 ff 36
       -3.4977016e-05 5.9284488e-05 4.179719e-05 7.614857e-06
0001d0 d0 40 3d 35 38 db 54 b7 7e 62 29 37 ef e8 95 37
       7.05023e-07 -1.26872255e-05 1.0096117e-05 1.7870652e-05
0001e0 e8 c7 40 37 3d 41 2e b6 2d d1 87 b7 b0 2f d1 37
       1.1490636e-05 -2.5965994e-06 -1.619066e-05 2.4936948e-05
0001f0 14 35 e2 b7 00 fc 49 37 dc 6d 3a b8 3a b0 d1 b7
       -2.6966016e-05 1.2039207e-05 -4.444817e-05 -2.4996803e-05
000200 29 0e 5e 3a dc 21 c9 39 43 f7 27 bb fe 01 90 b9
       0.0008470738 0.00038362935 -0.0025629557 -0.00027467305
000210 18 51 ad bb 5e 32 9e 38 c5 9d 15 3b e2 91 03 3b
       -0.005289208 7.543409e-05 0.0022829634 0.0020075967
000220 23 bb e4 3b 8c 72 fc ba 07 87 49 b9 ac 1b f5 ba
       0.0069803162 -0.0019260212 -0.00019219155 -0.0018700263
000230 bf 60 f9 ba 5d a9 ea ba df 33 25 39 e2 7d ac ba
       -0.0019026025 -0.0017903257 0.0001575495 -0.0013160075
000240 46 a4 ca 3b 42 8f 50 3b b1 bb e6 39 28 e2 21 3b
       0.0061841337 0.003182367 0.0004400886 0.002470145
000250 8e b7 2f bb 4c 55 ff 3a 43 3f 3f 3a 4e 3f 7c bb
       -0.0026812288 0.0019480377 0.00072954985 -0.003848988
000260 4d 9e 57 bb a7 6a 17 bb 5b 7c 9d 3a d1 bb b4 39
       -0.003290075 -0.0023104341 0.001201521 0.0003447221
000270 f6 f1 8e ba 30 6e d0 39 5f 65 07 3b 01 24 9a 3b
       -0.001090585 0.00039754948 0.0020659787 0.004703999
000280 4e 0a 57 ba ff fa e8 ba a3 ea f9 b8 cf 1d 67 ba
       -0.00082031346 -0.0017774998 -0.0001191695 -0.00088163925
000290 c0 55 37 3b 08 06 bb 3b 71 38 40 3b c2 a7 89 3b
       0.0027974695 0.005707506 0.0029330517 0.0042009065
0002a0 e5 f6 8d 3b 54 c9 ce ba 12 af e9 3a 1a 8c 21 3b
       0.0043324106 -0.0015776553 0.0017828664 0.0024650157
0002b0 46 ab 2f bb 5c f8 0e 3a 76 db a0 3b e6 40 a5 b8
       -0.0026804968 0.00054538785 0.0049089743 -7.8799014e-05
0002c0 64 f2 23 3a d2 3c 3e bb 82 17 4e bb 5c 85 3d ba
       0.00062540756 -0.002902795 -0.0031447117 -0.000722965
0002d0 48 87 bf b9 38 1d 4b 3b 78 c7 8a ba 71 d4 1e bb
       -0.0003653115 0.0030992758 -0.0010588011 -0.0024235512
0002e0 1a 64 53 ba 23 44 00 3a 87 13 0c 3b 16 5b 34 bb
       -0.00080639275 0.00048929657 0.0021373944 -0.0027520112
0002f0 6a 05 8a 3b 11 52 c5 ba 08 ae 7c 3b 6c e4 ba 3a
       0.004212071 -0.0015054365 0.003855588 0.0014258749
000300 bf fd 8b b7 25 66 e9 b6 f8 f2 48 38 da ec c9 36
       -1.6688251e-05 -6.9558323e-06 4.7909998e-05 6.01784e-06
000310 ad 8e 85 38 72 2d f5 37 25 d2 f1 37 2d f1 42 b6
       6.36851e-05 2.9227438e-05 2.8827295e-05 -2.9048635e-06
000320 da bf d8 b7 17 20 ed 37 90 8e 14 b7 7a c0 d6 37
       -2.5838544e-05 2.8267545e-05 -8.85468e-06 2.5600417e-05
000330 db 92 b1 37 d0 96 d4 37 13 19 5e b7 c2 e3 e2 37
       2.116843e-05 2.5342597e-05 -1.3238069e-05 2.7047357e-05
000340 e2 f1 80 b9 9d 96 2b b9 dc 29 51 b7 75 8f 0f b8
       -0.0002459428 -0.00016363939 -1.2467117e-05 -3.422746e-05
000350 cb e6 46 38 46 9a b2 b6 f2 c5 f7 b7 8a 85 88 38
       4.742182e-05 -5.322773e-06 -2.953687e-05 6.509859e-05
000360 75 04 60 38 cd 2e ed 37 c0 d0 87 b7 c7 b2 98 b6
       5.3409913e-05 2.8274395e-05 -1.619046e-05 -4.5507654e-06
000370 eb 53 f9 37 67 59 11 b7 24 01 6a b8 60 6c 0f b9
       2.972219e-05 -8.663489e-06 -5.579101e-05 -0.00013677916
000380 75 f2 10 38 a8 be 93 38 39 2f e9 35 3a d2 51 37
       3.455808e-05 7.045019e-05 1.7373596e-06 1.2506318e-05
000390 4d 57 36 b8 7c 3c e3 b8 ee c2 ab b8 9b a5 d0 b8
       -4.3473487e-05 -0.000108354696 -8.190224e-05 -9.949059e-05
0003a0 c2 bb bb b8 05 c8 02 38 4c 3b 59 b8 a4 6b d6 b7
       -8.9518275e-05 3.1180698e-05 -5.1792056e-05 -2.5560912e-05
0003b0 5b fc 80 38 52 eb 34 b7 f4 96 1f b9 a6 d6 b2 35
       6.1505205e-05 -1.0783626e-05 -0.00015219656 1.3324504e-06
0003c0 e5 89 89 37 74 27 bd 38 7d 02 1a 38 1c 16 3d b7
       1.6395885e-05 9.019571e-05 3.671878e-05 -1.1270426e-05
0003d0 ce 2e a8 37 9c 5a 91 b7 22 cc cf 37 22 77 13 38
       2.0048956e-05 -1.732754e-05 2.477138e-05 3.5158482e-05
0003e0 da 49 98 37 f4 01 76 36 76 d2 1b b8 47 c1 6e 39
       1.8154202e-05 3.6657993e-06 -3.7150887e-05 0.0002276945
0003f0 70 e7 96 b8 88 1c 6a 38 08 e8 d6 b8 13 7b d0 b7
       -7.195666e-05 5.581652e-05 -0.000102475344 -2.4852843e-05

bias_ih_l0 f4 [256]
000000 ba 85 ff 3a 51 13 5a b9 cc 25 25 3c 6b 6e e4 b9
       0.001949481 -0.00020797296 0.010079812 -0.00043569817
000010 8b 71 5c 3c 89 22 50 3a e0 03 a0 3b b8 bd 28 bb
       0.013454805 0.00079397165 0.0048832744 -0.0025747847
000020 0e 8f b3 3c 97 77 0e 3c e5 05 9e 3c ab 81 b6 3b
       0.0219188 0.008695505 0.01928992 0.005569657
000030 ff 55 55 3b 18 1f 8e 3b 47 02 41 39 0e bd c4 3a
       0.0032552478 0.0043372028 0.00018406763 0.0015009956
000040 a6 21 76 3c dd b0 b1 3b 76 90 92 38 e0 83 e8 3b
       0.015022671 0.005422695 6.9887305e-05 0.007095799
000050 f2 72 04 3c 16 99 a8 3c c8 0d ae 39 73 28 95 3b
       0.008084046 0.02058081 0.00033198134 0.004551941
000060 80 3c e4 3b dc 89 ac 3b 4c b4 51 3b c0 b4 9f 3a
       0.00696522 0.0052654576 0.0031998334 0.0012184605
000070 c9 c8 93 3b fe 8f 02 3a cb 6d 78 3c 62 10 9a 3c
       0.0045100194 0.0004980563 0.015162895 0.01880664
000080 a0 75 ed 3b 34 b6 9a 3c 55 e4 30 38 87 65 48 3b
       0.007246688 0.01888571 4.217432e-05 0.0030578093
000090 65 af ed 3b 03 60 80 3b bd 4b 98 3a aa 73 4e 3a
       0.0072535747 0.0039176955 0.0011619251 0.00078755117
0000a0 45 dd 11 3b b8 df 88 3b 22 d2 9e 3b 95 ac c3 3b
       0.002225713 0.00417706 0.004846827 0.005971501
0000b0 7d ff 04 3d 4f 87 57 39 d9 6e 01 3c 11 67 35 38
       0.032470215 0.00020554404 0.007899963 4.324975e-05
0000c0 73 71 57 3c be 5d 98 3b 24 bf 0c 3c 90 58 86 3b
       0.013149607 0.004649847 0.008590493 0.004099913
0000d0 b6 92 e2 39 ca 13 a7 3c f3 c2 2f 3b 2e b9 a7 3b
       0.00043215387 0.020395178 0.002681908 0.0051185107
0000e0 22 49 c5 3a b4 a4 32 39 0a bc c1 3b 32 2f 00 b9
       0.0015051703 0.0001703676 0.0059123086 -0.00012224613
0000f0 01 20 e5 3a b4 68 dc 38 c1 89 88 b9 97 86 2d 3b
       0.0017480851 0.0001050992 -0.00026042576 0.0026477927
000100 49 45 00 3b 9c 83 52 3a 95 2d 15 3c 21 b9 c7 b9
       0.0019572547 0.00080304756 0.009105106 -0.0003809417
000110 51 44 f0 3c 06 01 8c bb b8 8c 6a bc ed aa a1 bc
       0.02932945 -0.004272583 -0.0143157765 -0.019734824
000120 71 bf c2 3c 1f 5a 01 3c 17 21 17 3b a0 3c b0 3b
       0.023772927 0.007895022 0.0023060495 0.005378321
000130 08 41 52 3b 42 c3 b9 3b 92 74 68 39 c3 3f ab 3b
       0.0032082219 0.0056690285 0.0002216867 0.005226107
000140 29 29 40 3d ae 89 d5 bc 95 6e 92 38 76 d9 ff 3b
       0.046914253 -0.026066627 6.98242e-05 0.007807906
000150 86 d3 fd 3b 4e 35 ee 3b 19 91 f4 39 e5 2a af bc
       0.007746163 0.007269538 0.00046647413 -0.021382758
000160 ce 2b 92 3b fa 30 8e 3b bf 7e 6f 3b 2c 00 61 3a
       0.0044607883 0.0043393346 0.0036544052 0.00085830945
000170 03 fa 21 3b a3 2c 29 3a c0 3b ae 3c 52 61 5b 3d
       0.002471567 0.000645349 0.021268725 0.05355961
000180 72 49 b5 bb 8b 6d 37 bc 96 37 57 38 0a dc 81 3a
       -0.005532437 -0.011195551 5.1311763e-05 0.0009907496
000190 fc c2 f5 3b bf b9 0c 3d 32 d4 25 bc d2 24 a7 bc
       0.0075000506 0.03435683 -0.010121392 -0.0204033
0001a0 fa d3 86 3b 45 9a 3f ba 93 3d a3 3b af 28 8b 3b
       0.004114625 -0.000730906 0.0049817055 0.004246793
0001b0 8e ef 05 3d 2d 82 28 3b 68 4d e5 3c bc 3f 4d 37
       0.03269916 0.0025712356 0.027991012 1.22337915e-05
0001c0 52 96 10 bb 3e cc 85 3b 28 11 12 3c 65 ba 2a 3a
       -0.0022062254 0.0040831855 0.008915223 0.00065127603
0001d0 cb a9 e9 39 da 56 b3 ba ed 3d 21 3b d8 69 c3 3b
       0.0004456773 -0.00136825 0.002460356 0.0059635453
0001e0 de 63 9c 3a 72 a1 ab b7 09 e9 b5 3b 99 6c b2 ba
       0.0011931618 -2.0459967e-05 0.0055514616 -0.0013612687
0001f0 10 a1 85 3c 87 23 97 3a a2 63 d0 bc a5 c5 ef 3a
       0.016312152 0.0011530974 -0.025438134 0.0018293156
000200 7c fb 01 3d 79 38 39 bc 19 b4 ee bd a5 02 02 bc
       0.031733975 -0.011304968 -0.11655445 -0.007935201
000210 86 c0 bc bd 88 05 ea bb 01 42 92 bd 5b a3 26 ba
       -0.092164084 -0.0071417727 -0.071414955 -0.00063567393
000220 73 9b f4 3d 88 fe 48 bd ce 37 47 bd f3 bb 58 bd
       0.11943712 -0.049070865 -0.048637204 -0.052913617
000230 f2 ec 55 bd 6c 07 61 bd 67 aa 09 3c 6a 08 8f bd
       -0.05222792 -0.05493872 0.0084024435 -0.06984027
000240 a7 5c 11 3d cf e8 1e bd 1e 90 b1 3c 92 9e a2 3d
       0.03548875 -0.038796242 0.021675166 0.07940401
000250 5e 8f d3 bd 5d b4 a7 3d 3d 18 83 3c 04 4b 49 3d
       -0.103300795 0.081886984 0.016002769 0.049143806
000260 c5 13 a5 bd bf 7a 88 bd 1a c5 8b bb c0 b9 b5 b9
       -0.08060411 -0.06664037 -0.0042654397 -0.00034661405
000270 e0 d0 a5 bd ec fb 1c 3c cb 15 93 3d 25 4f a8 3d
       -0.0809648 0.009581547 0.07181891 0.082182206
000280 3a 1e a7 3c 88 4e cc 3d 01 db 8c bb d2 2a ca bc
       0.020400155 0.09975916 -0.0042985682 -0.024678621
000290 ea 7d b8 3d b7 f9 af 3c fc 3d d1 3c d9 33 92 3c
       0.09008391 0.021481378 0.025542252 0.017846989
0002a0 43 b9 24 3d 22 1d 3c bd fc 20 86 3c e1 4f 9b 3d
       0.04021574 -0.04592622 0.01637315 0.07583595
0002b0 54 ce 1c be 8c 4c df 3b ba dd 7e 3d 18 92 a7 38
       -0.15313083 0.006814545 0.062223174 7.9903926e-05
0002c0 4d 41 7d 3d 67 30 36 bd 32 11 f1 bd 41 50 83 bc
       0.061829854 -0.044479754 -0.11770858 -0.016029479
0002d0 10 fc 96 bc 5e 50 40 3d a1 d9 03 bd e9 e9 72 bd
       -0.01843074 0.046951644 -0.03218997 -0.059305105
0002e0 17 3d 1f bd 15 d1 85 3c c3 f1 9c 3d 87 fc 27 bd
       -0.03887662 0.01633505 0.076633 -0.041012313
0002f0 12 79 33 3c ea c0 25 3c ed b9 21 3b 8d 06 21 3d
       0.010954158 0.010116795 0.002467747 0.039312888
000300 ba ff 2f 3b 00 01 51 39 b8 bb 2b 3c 98 00 01 ba
       0.0026855306 0.00019932166 0.010481767 -0.0004921048
000310 6c c7 e1 3c bf 1c 59 3a a9 b2 33 bc 8f 5e 92 bc
       0.027560912 0.00082821766 -0.010967889 -0.017867355
000320 6e 0c 0c 3d ca 30 e7 3b 25 7c 26 3b 12 c6 c4 3b
       0.03419154 0.0070553767 0.0025403586 0.006005057
000330 2f 1f 5b 3b 49 19 c9 3b 9c 78 5d 39 b7 29 a9 3b
       0.0033435335 0.0061370474 0.00021121133 0.0051624435
000340 43 23 11 3d b6 c0 b1 bc 45 c6 a1 b8 5d 7c 07 3c
       0.03543402 -0.021698337 -7.714009e-05 0.008269397
000350 f1 47 0d 3c 76 38 7c 3c 8a 6e 9e 39 08 83 73 bc
       0.008623109 0.015394321 0.00030218466 -0.014862783
000360 29 22 bc 3b 1c ea a5 3b 1e d0 04 3b 77 4b 88 3a
       0.005741377 0.0050633084 0.002026565 0.0010398467
000370 b2 a6 50 3b fb 05 19 3a 92 70 e5 3c ee 26 4a 3d
       0.003183764 0.0005837378 0.02800778 0.049353532
000380 c0 86 80 ba 67 a7 35 bb e9 55 c3 38 7b 0a a6 3a
       -0.0009805784 -0.0027718188 9.3143266e-05 0.0012667918
000390 d4 c8 07 3c d8 b5 eb 3c b3 ca 60 bb a8 96 89 bc
       0.008287627 0.028773233 -0.0034300506 -0.016795471
0003a0 30 d0 39 3b 86 be 19 b9 2b 49 ac 3b d9 ea a1 3b
       0.002835285 -0.00014662193 0.0052577457 0.004941326
0003b0 70 32 cf 3c b1 67 2b 3a 04 1f dd 3c 2f 0d 3b 37
       0.025292605 0.00065385835 0.026992328 1.1149138e-05
0003c0 a9 cc 02 3c 38 d8 c9 3b 67 14 1e 3c ad 99 11 3b
       0.007983365 0.0061598085 0.009648419 0.0022216842
0003d0 3b db e3 39 94 71 d2 3b 44 cc 3f 3b 62 0f ca 3b
       0.00043460153 0.006422231 0.002926604 0.0061663846
0003e0 9d 5d b1 3a f2 d3 17 39 53 6a d9 3b 00 1b 03 3b
       0.0013531927 0.00014479438 0.0066349893 0.0020005107
0003f0 19 59 99 3c d5 a0 bb 39 2f 7d 67 bc af ca 18 3b
       0.018719243 0.0003578725 -0.014128967 0.0023314168

bias_hh_l0 f4 [256]
000000 42 44 00 3b 44 16 59 b9 0d 74 26 3c 08 06 fd b9
       0.0019571935 -0.00020703027 0.010159505 -0.00048260414
000010 ae cd 53 3c 18 a1 af b8 70 a1 8f 3b 63 aa 20 bb
       0.012927456 -8.374656e-05 0.0043832585 -0.002451562
000020 37 45 ad 3c 81 00 00 3c b2 73 91 3c dc 30 a7 3b
       0.021151168 0.00781262 0.017755363 0.00510226
000030 a6 54 66 3b c3 2c 91 3b 2e e5 58 39 50 83 60 3b
       0.003514567 0.004430385 0.00020684741 0.0034257956
000040 13 6f 3f 3c 79 a1 0f 3c 27 a4 8d 37 b0 81 e8 3b
       0.011684197 0.008766525 1.688495e-05 0.007095538
000050 a7 6b 04 3c 03 31 ab 3c 51 43 9b 39 39 cb 9d 3b
       0.008082307 0.020897394 0.00029614058 0.004815486
000060 dd 1f f2 3b 45 fb af 3b 7f 90 84 3a d3 14 c0 3a
       0.0073890523 0.00537053 0.0010113864 0.0014654644
000070 28 63 94 3b 04 be 07 3a ca fc 7a 3c 5f 10 b5 3c
       0.004528422 0.0005178156 0.015319059 0.022102533
000080 91 43 ef 3b 44 75 97 3c fe fe 2f 38 c3 4b 1b 3b
       0.0073017557 0.018488534 4.196073e-05 0.002369628
000090 13 bb f0 3b 99 3c 33 3b 1f 0e 71 3a 26 4e 16 3a
       0.0073465197 0.0027349351 0.00091955246 0.0005733691
0000a0 42 2c 13 3b d1 48 8d 3b cc c8 a1 3b 40 4f cf 3b
       0.00224568 0.004311659 0.004937267 0.006326586
0000b0 0f d8 03 3d 8a 38 2c 39 25 9b f1 3b 4f 42 4a 37
       0.03218847 0.0001642426 0.007373231 1.2055577e-05
0000c0 74 c9 91 3c c4 ef 9a 3b 80 4a 12 3c 73 30 86 3b
       0.017796256 0.0047282893 0.008928895 0.004095131
0000d0 cc fc d7 39 da 06 da 3c 9a f7 2f 3b a2 23 a9 3b
       0.00041196344 0.026614595 0.0026850463 0.0051617185
0000e0 25 b2 12 3b be eb 2f 39 12 04 c7 3b 9b f4 ff b8
       0.0022384014 0.00016777121 0.0060734833 -0.00012204909
0000f0 d1 4a 13 3b 98 b2 1a 39 ae 7c 87 b9 15 f8 5f 3b
       0.0022475014 0.00014753116 -0.000258421 0.0034174968
000100 3b 9b 07 3b 28 4f 5f 3a 04 a5 22 3c ed 60 ce b9
       0.002069189 0.000851857 0.009927038 -0.00039363597
000110 13 4e f0 3c ce b2 80 bb 9b 1b 45 bc 47 ce a1 bc
       0.029334104 -0.003927565 -0.012030507 -0.019751681
000120 ad 3e c3 3c 3f 1f 01 3c 02 a7 0f 3b d3 a5 ae 3b
       0.023833597 0.007880985 0.0021919613 0.0053298264
000130 c8 49 4a 3b 7c 6e b2 3b 95 5c 54 39 89 3e ab 3b
       0.003086673 0.0054452997 0.00020252385 0.0052259606
000140 5e a3 2b 3d cc b2 e2 bc c3 7f 42 36 29 a0 00 3c
       0.041903846 -0.027673148 2.898262e-06 0.007850685
000150 50 cb 05 3c e4 98 eb 3b 11 a6 f8 39 dc 33 ac bc
       0.008166149 0.007189857 0.00047425975 -0.021020822
000160 c4 1c 6b 3b 3e e2 88 3b 49 11 85 3b 72 7e 5e 3a
       0.00358753 0.004177361 0.0040608984 0.000848747
000170 c2 6c 22 3b 58 2c f3 39 d6 f8 a2 3c e3 82 50 3d
       0.0024784063 0.0004638161 0.019894045 0.050906073
000180 80 f9 a9 bb 74 4d 50 bc 82 76 91 38 ed 11 79 3a
       -0.0051872134 -0.012713779 6.9362126e-05 0.00095012673
000190 e0 de ee 3b d4 a2 16 3d 39 c9 25 bc 6d 4a 9d bc
       0.0072897524 0.03677638 -0.010118776 -0.019200528
0001a0 64 4b 8f 3b ba 39 24 ba 14 8e 9d 3b 06 f6 87 3b
       0.004373001 -0.00062647054 0.004808197 0.0041492013
0001b0 cd 8d 04 3d db db 04 3b 81 50 e4 3c cf 81 4f 37
       0.032361794 0.0020272646 0.027870419 1.2368385e-05
0001c0 7c 47 17 bb e5 c5 99 3b e0 f4 2a 3c 95 9b 77 3a
       -0.002308338 0.0046927803 0.010434359 0.0009445486
0001d0 bb 65 6d 39 82 53 8f ba a2 4a 17 3b da 73 c7 3b
       0.00022639979 -0.0010934921 0.0023085256 0.0060868086
0001e0 d7 6f 9d 3a 3e 47 8e b7 f4 71 b6 3b b2 62 b2 ba
       0.001201148 -1.6960894e-05 0.0055677835 -0.0013609736
0001f0 f9 63 72 3c c5 23 9f 3a 20 f3 d7 bc 7c 2e 18 3b
       0.014794343 0.0012141397 -0.026361048 0.0023221066
000200 1b 59 28 3d 2a ae 99 bc 1e 46 c8 bd af 8e 39 bc
       0.041100603 -0.018759806 -0.09778999 -0.011325522
000210 61 3b d1 bd f8 2b cf 3a 89 da 53 bc ec db 6c ba
       -0.10216404 0.001580595 -0.012930521 -0.00090354565
000220 b4 52 00 3e 1c 9e 50 bd d7 b8 5a bd c4 7c 7e bd
       0.12531549 -0.050932035 -0.053398933 -0.062130705
000230 82 2d 39 bd d2 3e 72 bd 37 90 0e 3c 4c b8 1a bd
       -0.045209415 -0.05914194 0.008701376 -0.037773415
000240 31 11 0e 3d 33 50 15 bd c3 dd c6 3c 5a 21 b0 3d
       0.034684364 -0.036453437 0.024275666 0.08600111
000250 53 05 ce bd 22 b6 d1 3d 06 0a 4a 3c b3 c3 2b bc
       -0.10059609 0.10239817 0.012331491 -0.01048367
000260 ff 12 8f bd 71 06 70 bd 8b 1f 94 3c f1 09 f0 3c
       -0.06986045 -0.058599893 0.018081447 0.029301615
000270 1b 7a 58 bd ec e5 fb 3c 67 e6 0a 3e 9d 2c 33 3d
       -0.052850824 0.030749284 0.13564454 0.04374372
000280 d8 a8 5f bc 92 08 96 3d c7 c1 73 bb 6f 6f dd bc
       -0.013651095 0.073258534 -0.0037194358 -0.027030675
000290 8e 72 cd 3d 9f 2a d2 3c 89 b5 b6 3c 45 2b 06 3d
       0.10031615 0.025655089 0.02230336 0.03275611
0002a0 1a 83 25 3d 53 2d 11 bd fb 2d d2 3c b9 6d 99 3d
       0.04040823 -0.035443615 0.02565669 0.07491631
0002b0 05 03 3a bd 4b 84 14 3c bd 93 86 3d 68 73 c3 bb
       -0.045413036 0.009064744 0.065711476 -0.005964685
0002c0 2c ff 14 3d 2c 3f 77 bd c2 e1 9f bd 5a aa e8 bc
       0.036376163 -0.06036298 -0.07806732 -0.028401542
0002d0 9d cc 3c bc 24 2c 3f 3d b1 41 95 bd da 61 9b bd
       -0.011523393 0.046672955 -0.0728792 -0.07587023
0002e0 66 11 1c bd 5f 44 5b 3c 77 03 98 3d 3a 90 8b bd
       -0.03810253 0.013383 0.07422536 -0.068146184
0002f0 39 89 c4 3c d2 82 92 bc eb 5e f6 3b 9f 74 66 3d
       0.023991214 -0.017884646 0.0075186393 0.056263562
000300 52 04 20 3b 04 7a a4 39 76 88 2a 3c 7c 4d de b9
       0.0024416638 0.00031371426 0.010408511 -0.0004240087
000310 77 d8 e1 3c 58 e3 56 3a 40 92 39 bc 31 ca 9d bc
       0.027569039 0.0008197329 -0.011326373 -0.019261451
000320 68 fa 08 3d 2f c4 e4 3b aa 36 24 3b 9c cf c4 3b
       0.03344193 0.0069813947 0.0025056996 0.0060061943
000330 25 60 36 3b 04 d6 ea 3b 53 81 ba 38 96 99 b8 3b
       0.0027828303 0.007166626 8.89326e-05 0.0056335432
000340 f9 22 1d 3d ac 21 b4 bc d4 d7 10 b9 84 16 0e 3c
       0.03836343 -0.021988712 -0.00013813312 0.00867236
000350 6b 9f 12 3c c2 bd 74 3c 94 99 d2 39 f3 7c 7c bc
       0.008949141 0.01493782 0.00040168746 -0.01541065
000360 21 ad d4 3b ac 8e a5 3b 49 ee e3 3a ff 5d 79 3a
       0.006490365 0.005052408 0.001738974 0.00095126027
000370 35 84 4f 3b 97 2e 33 3a cf b2 ca 3c 4b d8 4b 3d
       0.0031664495 0.00068352505 0.024743466 0.04976682
000380 34 28 6f ba e6 9c 33 bb e2 50 c5 38 b7 35 a7 3a
       -0.0009123117 -0.0027406751 9.4087576e-05 0.0012757097
000390 21 b2 ff 3b 10 86 e9 3c 7f 4b 6c bb cd 4d 87 bc
       0.007803217 0.028506309 -0.0036055741 -0.01651659
0003a0 62 e0 23 3b b0 a4 7d b9 9a 7a af 3b ba 7d ae 3b
       0.0025005569 -0.00024189311 0.0053551914 0.0053250464
0003b0 59 65 d0 3c fa ed 84 3a c1 32 df 3c b6 ff 39 37
       0.025438951 0.0010141723 0.027245881 1.1086397e-05
0003c0 57 2a 25 3c ca 22 d1 3b 04 62 22 3c ca 9b 0f 3b
       0.010080895 0.006382321 0.009911064 0.0021912926
0003d0 c5 97 e4 39 d2 97 44 3c 53 3f 49 3b 9b ee c7 3b
       0.00043600626 0.011999087 0.003070791 0.006101442
0003e0 3c bf bc 3a 85 de a3 37 1d cd d9 3b 1f 40 15 3b
       0.0014400254 1.9534733e-05 0.006646766 0.0022773815
0003f0 f1 3d af 3c 21 b2 bb 39 52 b7 64 bc ee 3e 11 3b
       0.02139184 0.00035800136 -0.013959723 0.0022162753

weight_ih_l1 f4 [256, 64]
000000 43 83 c0 3b 82 a8 92 ba be 82 55 bc 47 73 b7 bb
       0.0058750226 -0.0011189135 -0.01303166 -0.005598459
000010 b9 ba a1 bc bc 5d fc bc ec c5 4c bb 7e 39 8e 3a
       -0.019742357 -0.030806415 -0.00312459 0.0010850874
000020 76 14 b6 bc 25 5f 1b 3c a6 61 aa bc d2 d2 01 bc
       -0.022226553 0.009483133 -0.020798516 -0.007923799
000030 9e 94 f3 bb 69 f9 ca bb 41 6b ac 3a 49 7b 1c bb
       -0.007433488 -0.006194283 0.0013154523 -0.0023877195
000040 d1 98 e5 3c 53 eb 8e 3c 3c 4d 95 3c 9d 24 1b 3c
       0.02802697 0.017446196 0.018225305 0.0094691785
000050 07 fd 4c bc 08 2f ae ba f4 4a 36 3b 3f 23 aa bc
       -0.012511498 -0.0013289163 0.0027815672 -0.02076876
000060 8c 27 80 bc d9 17 18 bc ee 14 cf bb 2b 93 8e ba
       -0.015643857 -0.0092830295 -0.0063196337 -0.00108776
000070 27 35 cb bb fd 75 60 3b d4 83 00 3d cc fd e6 ba
       -0.0062014046 0.0034250014 0.03137572 -0.0017623245
000080 df 79 ad bc 00 fe 21 bc e0 ef 0c ba 9e 2f 94 bb
       -0.021176277 -0.0098872185 -0.00053763203 -0.004522278
000090 61 72 34 3c bd 1d 9e 3c 65 24 1a 3c 13 57 a0 3c
       0.011013598 0.01930129 0.009408091 0.01957277
0000a0 8d 31 94 3c 9e 6e 53 3c 5e 64 b3 bc d1 1e 11 3c
       0.018090034 0.012904791 -0.021898445 0.008857445
0000b0 71 a5 53 bc 19 18 62 3b d4 a9 c2 3c 22 14 e4 b9
       -0.012917862 0.0034499227 0.023762621 -0.0004350255
0000c0 df 29 5b bc 7f a3 68 bc 69 b1 49 bc 3e 5d 11 bc
       -0.013376682 -0.014199137 -0.012310364 -0.008872328
0000d0 b3 fe 98 bb 47 db c2 3c fa 83 00 bc c8 15 14 bc
       -0.0046690344 0.0237862 -0.007843966 -0.009038396
0000e0 83 37 ab bb dd d4 a6 3a 62 ad 1a 3c c7 1c e5 bb
       -0.0052251234 0.0012728233 0.009440752 -0.006991956
0000f0 49 a3 b7 3c 02 ac 4d bb e9 93 66 3c 7d 0a e8 3b
       0.022416728 -0.0031383042 0.0140733505 0.0070813284
000100 40 34 bf 3b 42 0e 7a ba 5d 57 58 bc d8 12 97 b9
       0.005835086 -0.0009538868 -0.013204423 -0.00028815004
000110 06 60 ac bc 07 b8 ad 3b ce 8c 71 bb 35 91 d8 bb
       -0.021041881 0.005301479 -0.0036857608 -0.006609107
000120 d4 11 91 3c 9a da 0c bc a4 b5 75 bc 18 a5 de bb
       0.017708696 -0.008597041 -0.01499692 -0.006794583
000130 94 19 f9 bb 94 ca e9 bb cf 98 12 3b 1b 2c c1 bb
       -0.007601926 -0.007134745 0.0022368913 -0.0058951504
000140 5c 6e f7 3c 3e a5 ca bc fd 0d 14 bc 9c 42 1f 3c
       0.03020399 -0.024736997 -0.009036538 0.009720471
000150 29 b0 49 bc 6b a5 e7 3c 1a 16 3a 3b c4 63 c1 3c
       -0.012310066 0.02827712 0.0028394521 0.023607142
000160 35 6e 0d bb 91 38 22 bc 85 7a d9 3b 79 7e 0e 3a
       -0.002158058 -0.009901182 0.00663692 0.0005435716
000170 af 01 f2 bb 9c 57 70 3b 4c 1c b6 bb f7 a6 c3 bb
       -0.0073854546 0.0036673313 -0.0055575725 -0.0059708315
000180 4a 50 83 3c 9d 82 e5 3c 02 7b f2 b9 e4 e0 83 bb
       0.016029496 0.028016383 -0.00046249485 -0.004024612
000190 95 73 61 3c 15 62 aa 3c ac 46 6b bc 79 e2 99 bc
       0.013760467 0.020798722 -0.014360111 -0.018784748
0001a0 27 95 2b 3c 4f 5a 34 3b 1a 79 12 bb 4c 51 02 3c
       0.010472572 0.0027519648 -0.0022350014 0.007953953
0001b0 4d fc b7 bc b0 84 05 3b b3 b1 d1 3c 37 95 d1 b9
       -0.022459174 0.0020373277 0.025597429 -0.0003997476
0001c0 85 c8 c9 3c e5 fc 1b bc ff e2 35 bc 2f b5 d5 bb
       0.024631748 -0.009520744 -0.011101483 -0.006521843
0001d0 79 0e d1 ba 30 87 e1 3c 98 94 c8 bb de 00 1d bc
       -0.0015949748 0.027530283 -0.0061212294 -0.009582726
0001e0 42 3c b3 bb 22 6f f8 3a 5f 3d 19 3c 11 5f be 3c
       -0.00546983 0.0018954019 0.009353011 0.02323869
0001f0 ff 76 9f 3c 77 94 54 bb 1d 5f aa bc 0a 75 c8 3b
       0.019465921 -0.0032437125 -0.020797307 0.006117468
000200 b9 25 34 b9 b4 3c d6 39 90 f6 b3 39 aa f8 aa 37
       -0.0001718019 0.00040862488 0.00034325244 2.0381372e-05
000210 73 1e f7 3b 98 74 2a bb 6b 11 00 bb a4 8e c9 bb
       0.0075414716 -0.0026009437 -0.0019541632 -0.0061510373
000220 11 5d d6 bb c6 8d cf 39 d8 fe 05 3a 98 01 ae 39
       -0.006541856 0.00039587746 0.0005111522 0.00033189054
000230 d1 29 50 3a e2 6c 5f 39 b8 67 9f b8 a3 0e 3b 3a
       0.00079408014 0.00021307499 -7.60103e-05 0.0007135665
000240 e6 93 94 ba ac 23 4a bb 47 93 66 38 ec a3 47 ba
       -0.0011335581 -0.0030844016 5.4973436e-05 -0.0007615674
000250 92 e8 0e 3a 25 25 f9 b9 f7 99 9c b9 7c c3 76 3a
       0.0005451526 -0.00047520656 -0.0002986935 0.0009413285
000260 4c e2 6f ba e5 1a b9 39 d7 32 89 b9 d8 21 94 b8
       -0.00091508473 0.00035305988 -0.00026168555 -7.063494e-05
000270 0b ca 37 b8 ac 45 d9 b8 9d 45 2c b9 c0 18 68 bb
       -4.3818767e-05 -0.00010360344 -0.00016429131 -0.0035415143
000280 d8 8e be ba 7f f2 03 bb 91 fe 5b 38 2b bc 95 39
       -0.001453842 -0.0020133553 5.2450752e-05 0.0002855969
000290 14 dc d6 b9 94 64 a4 ba 5d 9d 4c ba c6 1f f6 b9
       -0.00040981232 -0.0012542182 -0.00078054314 -0.0004694445
0002a0 e3 48 50 ba b1 62 52 b9 53 f0 34 3a 6c e3 54 b9
       -0.0007945431 -0.00020063926 0.0006902266 -0.00020302617
0002b0 fa 3a 6b 3a f0 9e a8 b7 b3 86 63 bb 48 6f 37 37
       0.0008973327 -2.0101172e-05 -0.0034717738 1.093356e-05
0002c0 63 20 b2 b9 25 6c 15 3a d4 b0 f5 3a 62 89 7f ba
       -0.00033974936 0.0005700014 0.0018744715 -0.00097479497
0002d0 c8 f9 e6 38 f0 2b 9b 3a 43 2e d2 39 83 62 73 3a
       0.0001101378 0.0011838656 0.0004008879 0.0009284394
0002e0 53 27 65 39 d7 26 d0 38 d0 a1 7e ba 0a 77 48 3b
       0.00021853791 9.9254474e-05 -0.0009713443 0.003058853
0002f0 30 69 8d bb 4e 22 23 ba 63 e8 da 3a 95 b3 80 b9
       -0.004315518 -0.00062230683 0.0016701337 -0.00024547862
000300 52 b7 a0 3b 99 6e cd 3a 91 02 33 bc 27 ec c7 ba
       0.004904666 0.001567322 -0.010925905 -0.0015252874
000310 92 2c c6 bc 64 98 75 bc 1e 6a 67 3c 82 d3 df 3b
       -0.024191175 -0.014989946 0.014124421 0.0068306336
000320 3c c1 ec 3b 6d db 3e 3b cd 50 35 bc 02 af a4 bb
       0.007225184 0.0029122487 -0.011066628 -0.0050257454
000330 a6 c8 94 bb 88 15 81 bb 25 ec 7f 3a 99 2d 5c bb
       -0.0045405207 -0.0039393343 0.00097626663 -0.0033596514
000340 b5 63 96 3c 97 12 33 3b 72 21 e3 3a 05 cb da 3b
       0.01835809 0.0027324313 0.0017328693 0.006677034
000350 d4 a9 08 bc fc 4b 51 3b b6 bb a2 3a dd 31 8f bb
       -0.008341271 0.003193616 0.0012415561 -0.004369958
000360 d9 a5 44 3b 17 28 cc bb d6 5e 12 3a c3 cd 8d 3a
       0.003000608 -0.006230365 0.00055835897 0.0010818768
000370 b2 82 a2 bb 2e 5f 14 3b 78 57 5b 3c d1 83 8c 3c
       -0.0049594278 0.002263974 0.013387553 0.017152699
000380 7b 82 11 bb c2 a6 7f bb 51 08 ea b9 27 75 39 bb
       -0.0022203017 -0.0039009308 -0.00044638154 -0.0028298588
000390 f1 e8 01 3c 14 0e ae 3c 0e a3 4d 39 6b fd 9a 3b
       0.007929073 0.021246947 0.00019611066 0.004729917
0003a0 75 6f 8d 3b e3 05 22 3b fe 2f 58 bb 58 5d 8b 3b
       0.004316265 0.0024722747 -0.003298759 0.004253071
0003b0 a3 fa 91 bc 74 21 72 3b 28 9e a4 3c 0c e2 4a b9
       -0.017819708 0.003694621 0.020094946 -0.0001934843
0003c0 32 b6 0f 3b bd 5a 3c bc 27 05 fc bb 5e ba b3 bb
       0.0021928665 -0.011496243 -0.007691044 -0.005484863
0003d0 72 e7 0d bb 6b 63 dc 3b 46 8d a7 bb 7d 08 d0 bb
       -0.0021652845 0.0067257187 -0.0051132767 -0.006348668
0003e0 89 dc 55 bb a3 f8 97 3a 19 ff e4 3b c4 8e 23 3b
       -0.003263267 0.0011594485 0.006988418 0.002495692
0003f0 63 14 8f 3c 55 6a 93 bb e0 9b 8e 3b 90 2b 6c 3b
       0.017465776 -0.0044987598 0.004352078 0.0036036707

weight_hh_l1 f4 [256, 64]
000000 a5 aa c3 3c f5 e6 bf bc f0 5d a5 bb 93 ca 03 3d
       0.02388508 -0.023425559 -0.0050465986 0.03217561
000010 4e 38 0b bd 33 7f 90 3b f9 4b 61 3b 33 cc 66 3c
       -0.033989243 0.0044096946 0.0034377559 0.014086771
000020 43 ed ab bc 3b 80 97 bc 15 13 c3 bc cd f2 34 bc
       -0.020987159 -0.018493762 -0.02381281 -0.011044216
000030 aa a5 d4 bb 1c 18 7c bc f5 6d 87 3c 6f 91 79 3c
       -0.0064894753 -0.0153866075 0.016531924 0.015232428
000040 b4 bb 01 bd b4 34 18 3d 21 7f 7c bc 3a 3f ef bc
       -0.03167315 0.037159637 -0.015411169 -0.029204953
000050 3a a8 c5 3a 9f b3 26 bc c9 e1 36 3c bc e8 28 bd
       0.0015080043 -0.010174661 0.01116223 -0.041237578
000060 c3 47 46 39 af 0d f5 bb d0 3c bb 3c da 2f 32 bc
       0.00018909485 -0.007478438 0.022856146 -0.0108756665
000070 1e f5 0c 3b ca d7 93 3c ba ba 9a 3b d8 7c 22 3c
       0.0021508406 0.018047232 0.0047219666 0.00991746
000080 d3 4e bd bc 05 1e f5 bc cb 05 e0 bc 2e 10 08 bc
       -0.023108875 -0.029921541 -0.027346512 -0.008304639
000090 79 f0 c3 3b f7 fb a8 bc 61 e7 aa bc 10 da 02 bd
       0.0059795943 -0.020627959 -0.020862283 -0.03194624
0000a0 90 76 c9 3b 72 95 b9 3b f9 ad 6b 3c c4 ad 82 bb
       0.006148167 0.005663567 0.01438474 -0.0039879996
0000b0 65 70 44 3c 6e c4 85 bc 4e a6 1e 3c 47 47 09 3d
       0.011989688 -0.016329017 0.009683205 0.03351524
0000c0 b9 41 bc 3c 84 7e d3 bc ae f3 e8 bc 17 13 84 bc
       0.022980558 -0.025817163 -0.028436508 -0.016122384
0000d0 ec 7f bd 3c b4 a1 50 bc dc 29 85 3c 70 50 fb 3b
       0.023132287 -0.0127338655 0.016255312 0.007669501
0000e0 7c 3f 1f 3c 91 a8 df 3b 4d 8f 1e 3b 8e c2 8b bc
       0.009719726 0.0068255146 0.00241943 -0.017060544
0000f0 36 94 26 39 29 e5 26 bb 7d 2b 1e bd 68 b5 af 3b
       0.00015886207 -0.002546618 -0.038615692 0.0053622015
000100 cd bd d1 3c b4 0d ca bc 64 76 2c ba c7 87 84 3c
       0.0256032 -0.024664737 -0.0006578921 0.016178025
000110 a5 ba ab bc fd fa d8 bb c5 8d 42 bc 52 20 4e 3c
       -0.020963022 -0.006621717 -0.011874621 0.012580948
000120 c2 ad 76 bc cf 3e 6a bc 9d c5 ae bc 26 83 5a 3c
       -0.0150560755 -0.014297201 -0.021334464 0.013336932
000130 ee 76 81 bb 6c c1 29 3c f2 79 72 3c 33 06 68 bc
       -0.003950945 0.010361057 0.014799582 -0.014161634
000140 9f 0e 98 bc be e2 a2 3c 28 cb 63 bc b5 89 48 bc
       -0.01856166 0.01988351 -0.013903417 -0.012239863
000150 d6 fa a1 bb 6b db 29 bc 50 c1 29 3c 27 6c b5 bc
       -0.004943232 -0.010367255 0.010361031 -0.022146298
000160 41 26 21 3b cd d1 f0 bb 01 93 91 3c ef fe e3 3b
       0.0024589451 -0.007349229 0.017770292 0.0069578807
000170 47 d0 21 bc f2 02 8f 3c 3e 17 ed b9 9c 65 d4 bb
       -0.009876317 0.01745746 -0.0004522148 -0.0064818393
000180 1a 77 81 bc 28 88 db bc 9f 20 ab bc 75 82 cd 3b
       -0.015803862 -0.026798323 -0.020889578 0.006271655
000190 c5 f1 1a bc c7 8f 7b bb d7 33 6a bc 95 74 b0 bc
       -0.009457056 -0.0038385259 -0.014294586 -0.021539966
0001a0 ca 30 7b 3b 8b dd 3a 3c d0 e5 62 3c ad 04 02 bc
       0.003832864 0.011405359 0.013848737 -0.007935685
0001b0 3f a7 74 3c 83 5e 8c bc fc aa 92 3b 1c e2 c4 3c
       0.014932453 -0.01713491 0.0044759493 0.024033599
0001c0 28 29 80 3c 29 cb 08 bc b9 e0 b4 bc 1b aa 8b bc
       0.015644625 -0.008349218 -0.022079812 -0.017048886
0001d0 f8 8b bd 3c 4d 6f 45 bc 59 69 7f 3c a4 b4 57 3c
       0.023138031 -0.012050462 0.015589082 0.013165627
0001e0 05 f6 90 3c 04 c7 00 3c aa 35 80 3b dc cd 7a bc
       0.017695436 0.007859949 0.0039126473 -0.01530787
0001f0 99 e7 1e b9 b5 36 0b bc 78 78 dd bc 74 e8 8b 3a
       -0.00015154331 -0.00849693 -0.027034983 0.0010674135
000200 c3 fa 47 3a 52 3c c1 b8 52 68 1d 3b d8 e0 36 ba
       0.0007628614 -9.214193e-05 0.0024018479 -0.00069762534
000210 d6 62 0a 3a 6f 30 89 bb 81 be 1f bb e8 77 9f b7
       0.000527901 -0.004186682 -0.0024375024 -1.9010113e-05
000220 b2 c5 da 39 72 1d 84 3a 0d f1 44 ba d9 83 18 3b
       0.00041727495 0.0010079576 -0.0007512726 0.0023271947
000230 ea 43 59 b7 8d ec 04 3b d0 a1 0d 3a 6e 02 b4 ba
       -1.295002e-05 0.0020282597 0.0005402835 -0.0013733634
000240 a1 cb 15 3a af e9 1b 3a 0e c1 1e ba c8 47 64 3a
       0.0005714242 0.00059476023 -0.0006055989 0.0008708206
000250 b6 7c b8 ba 32 94 ed b9 04 62 2d 3a aa ab 0f 3b
       -0.0014075253 -0.00045314577 0.0006614032 0.0021922388
000260 f3 32 8a 3a b3 80 96 ba ef e4 74 ba 0c 02 a2 3b
       0.0010543749 -0.0011482447 -0.0009341975 0.0049440917
000270 62 62 ce ba ec e0 65 39 46 e3 c8 ba 2a 44 3c bb
       -0.0015745873 0.00021922932 -0.0015326522 -0.0028727152
000280 5b db 63 ba ac 63 10 bb 74 b3 06 38 f1 65 5e 3b
       -0.00086920493 -0.0022032065 3.211522e-05 0.0033935274
000290 38 26 6c bb d8 1c 89 3a c7 b3 18 3b 13 05 6d 3a
       -0.0036033522 0.0010460867 0.0023300515 0.00090415886
0002a0 c9 cd 8b ba 5d 42 f4 3a 9e ff 83 3a 15 51 a4 ba
       -0.0010666187 0.00186355 0.0010070687 -0.0012536371
0002b0 21 31 0e 3a bc a2 a4 b9 56 61 c0 ba 74 c3 92 ba
       0.0005424191 -0.00031401764 -0.0014677446 -0.0011197166
0002c0 4f 80 44 b9 5e 27 04 3b 10 52 cb 37 33 8b 23 ba
       -0.00018739815 0.0020165066 2.42377e-05 -0.0006238699
0002d0 64 da 7e 3a 52 58 fb b8 e6 a9 8e ba e9 13 a0 3a
       0.0009721874 -0.000119850636 -0.0010884374 0.0012212965
0002e0 c4 47 94 3a 56 ec 12 39 19 4e 8a 39 6f b6 0f ba
       0.0011312892 0.00014011687 0.00026379598 -0.0005482202
0002f0 54 77 79 b9 a6 5b 8e ba f5 37 b0 39 5a f1 82 b9
       -0.00023790944 -0.0010861054 0.00033611027 -0.00024975353
000300 a0 7c 87 3c 90 fb 9b bc 8d 3a 2c bc 5d c1 72 3c
       0.016538918 -0.019040853 -0.0105120065 0.014816609
000310 71 4b 88 bc d3 68 b0 3b d8 40 9c 3a 49 bc 28 3c
       -0.016637536 0.00538359 0.001192118 0.010298797
000320 13 48 63 bc 64 8a 47 bc df 0a 71 bc a8 69 45 bb
       -0.013872164 -0.012178991 -0.0147120645 -0.003012279
000330 c1 b7 51 bb 2d fc 91 bb 8e c6 41 3c 00 ee 1c 3b
       -0.0032000395 -0.0044551105 0.011827124 0.002394557
000340 f2 0e 96 bc b2 6b 95 3c 0b 6a 11 bc e3 22 65 bc
       -0.018317673 0.01823983 -0.00887538 -0.013985368
000350 03 11 30 bb d8 70 05 bc b2 f2 03 3c 53 d5 be bc
       -0.0026865609 -0.00814458 0.008053469 -0.02329508
000360 89 89 c1 ba a8 6a 9b bb 5b e9 80 3c 77 58 19 bc
       -0.001476572 -0.004742939 0.015736273 -0.009359471
000370 95 5f eb 3a 60 d5 54 3c d1 2e 6e bb c5 e2 e8 3b
       0.0017957563 0.012990326 -0.0036343823 0.007107111
000380 69 10 81 bc 23 8b 81 bc 83 9e 86 bc 31 e6 be bb
       -0.015754895 -0.015813416 -0.016433006 -0.005825781
000390 8b 6a 71 3a 75 4c 1d bc 41 49 47 bc 16 5e 93 bc
       0.00092092965 -0.009600748 -0.012163461 -0.0179892
0003a0 7d 1c 05 3c 3f 5f ea 3b c0 f4 fa 3b bb 2f 9c bb
       0.008124468 0.0071524675 0.007658571 -0.004766432
0003b0 2b 02 27 3c 13 34 47 bc a9 61 cf 3b 2e 2e a3 3c
       0.010193388 -0.012158412 0.0063287807 0.019919481
0003c0 ef 5d 44 3c cd 71 55 bc db 01 89 bc 3a d3 64 bc
       0.011985286 -0.0130276205 -0.016724518 -0.013966376
0003d0 8d 51 76 3c be 15 35 bc 31 48 42 3c 71 08 09 3c
       0.015034092 -0.011052547 0.011858032 0.008363829
0003e0 da 17 49 3c 79 60 f9 3b 58 2a 19 3b 54 c5 45 bc
       0.012273753 0.0076103774 0.0023371186 -0.0120709725
0003f0 0a 3c 50 3a 5d fb 92 bb ab 2d c6 bc c6 40 5e 3b
       0.0007943517 -0.0044855312 -0.024191698 0.003391312
