code/model_cat_rnn_entire.pt (torch, 247203 bytes, 10 tensors)

weight_ih_l0 f4 [256, 40]
0	0x3aaae539	0.0013038284
1	0x3a3cc6a0	0.0007201228
2	0x3a1e0404	0.000602782
3	0x3a2700d0	0.00063706655
4	0x39f82958	0.0004733305
5	0x397034ec	0.00022907899
6	0x38ac4523	8.214477e-05
7	0x36ca924e	6.0371012e-06
8	0x38bc104d	8.967575e-05
9	0x3998d125	0.00029147524
10	0x39803e29	0.00024460375
11	0x3994a90d	0.00028354712
12	0x39bb805e	0.0003576306
13	0x39bc7759	0.00035947075
14	0x39d0b1a7	0.00039805213
15	0x39c0e1ec	0.0003678942
16	0x39b6c437	0.00034859937
17	0x3990e76d	0.00027638246
18	0x3990c443	0.00027612047
19	0x39bc317b	0.0003589502
20	0x39a73ffc	0.00031900394
21	0x39358bb0	0.00017313543
22	0x3922581f	0.00015482352
23	0x39830648	0.00024990947
24	0x394078b6	0.00018355515
25	0x3924a9ab	0.00015703465
26	0x393d4343	0.00018049502
27	0x39866db2	0.000256402
28	0x39b94a72	0.00035341416
29	0x3a3dbdad	0.0007238042
30	0x3acec5fc	0.0015775557
31	0x3aec6265	0.0018034695
32	0x3afc8daa	0.0019268293
33	0x3af3068f	0.0018541383
34	0x3aec0605	0.0018007165
35	0x3af808b8	0.0018923497
36	0x3aef5db5	0.001826218
37	0x3aed220e	0.0018091814
38	0x3af3ffaf	0.0018615628
39	0x3ae4b16d	0.0017447897
40	0x3cebc9bd	0.02878272
41	0x3cf1f780	0.029536963
42	0x3cf4d9ef	0.029889075
43	0x3ce7ffa9	0.02832015
44	0x3ced2a5d	0.028950864
45	0x3cef8da7	0.02924235
46	0x3cdd57ae	0.027019348
47	0x3cd8f9af	0.026486246
48	0x3cd2d5ec	0.025736772
49	0x3cd0d89d	0.025493914
50	0x3cd5e08d	0.02610805
51	0x3cd9c3f5	0.026582697
52	0x3cddda19	0.027081536
53	0x3cdf4bb8	0.027257785
54	0x3cd8402e	0.02639779
55	0x3cd810e7	0.026375247
56	0x3cd47d95	0.025938788
57	0x3cd41095	0.025886813
58	0x3cd53fc2	0.026031379
59	0x3cd51893	0.026012694
60	0x3cd3a7c2	0.02583683
61	0x3cd08bca	0.025457282
62	0x3cd07084	0.025444277
63	0x3cd17a73	0.025571084
64	0x3cd49a38	0.025952443
65	0x3cd212a2	0.02564365
66	0x3ccf93dc	0.02533906
67	0x3ccf4f56	0.025306385
68	0x3cd1c692	0.025607381
69	0x3cd7011b	0.026245644
70	0x3ce95448	0.028482571
71	0x3cf7d019	0.030250596
72	0x3cfa0317	0.030519051
73	0x3cf52f17	0.02992968
74	0x3cf3b07a	0.029747237
75	0x3cf3b6e8	0.029750302
76	0x3cf53341	0.029931666
77	0x3cf187a8	0.029483631
78	0x3cf0e5b3	0.029406404
79	0x3ced3ca9	0.02895959
80	0xbac7ffe8	-0.0015258761
81	0xbab113ec	-0.0013509966
82	0xba9ec631	-0.0012113509
83	0xba97b648	-0.001157471
84	0xba91e6a9	-0.0011131364
85	0xba865a40	-0.0010250285
86	0xba636ee6	-0.0008675888
87	0xba54ec99	-0.0008122414
88	0xba4a98ef	-0.00077284774
89	0xba57ec86	-0.0008236844
90	0xba4c6bc1	-0.0007798039
91	0xba5702e7	-0.00082020316
92	0xba66d041	-0.0008804836
93	0xba611257	-0.00085858017
94	0xba62fbfd	-0.0008658765
95	0xba6016af	-0.0008548302
96	0xba5a8813	-0.00083363167
97	0xba500b5b	-0.00079362624
98	0xba47d7ec	-0.00076234224
99	0xba4af31b	-0.0007741914
100	0xba44cf9f	-0.00075077446
101	0xba312ee2	-0.0006759
102	0xba2e2312	-0.0006642799
103	0xba294a38	-0.0006457898
104	0xba1a418c	-0.0005884401
105	0xba1bbb6a	-0.00059407076
106	0xba0ef282	-0.00054530066
107	0xb9d98a57	-0.00041492537
108	0xb9acdb7e	-0.0003296993
109	0xb9ed4550	-0.00045255804
110	0xba7333a6	-0.00092774106
111	0xbaa70c65	-0.0012744783
112	0xbaa5b65d	-0.001264285
113	0xba72a255	-0.0009255757
114	0xba5aece8	-0.0008351342
115	0xba77007f	-0.0009422376
116	0xba88764f	-0.0010411235
117	0xba8cd1f1	-0.001074372
118	0xba83a34b	-0.0010043172
119	0xba83ea71	-0.0010064376
120	0xbb020a7c	-0.0019842675
121	0xbb149c40	-0.002267614
122	0xbb1faa63	-0.0024363033
123	0xbb205125	-0.0024462428
124	0xbb13ca4e	-0.0022551003
125	0xbb13a4a9	-0.0022528565
126	0xbb2f474f	-0.0026745384
127	0xbb44fa9e	-0.0030056606
128	0xbb502bc8	-0.0031764377
129	0xbb39cc58	-0.0028350558
130	0xbb2fec3e	-0.0026843692
131	0xbb2a9de1	-0.0026034045
132	0xbb3714af	-0.0027935912
133	0xbb40c487	-0.0029414014
134	0xbb3bb373	-0.0028640896
135	0xbb4e9119	-0.003151959
136	0xbb45626e	-0.0030118483
137	0xbb3d9eb5	-0.0028933708
138	0xbb50c180	-0.0031853616
139	0xbb430bf7	-0.002976177
140	0xbb64688f	-0.003485236
141	0xbb752efa	-0.0037412033
142	0xbb537447	-0.0032265352
143	0xbb5241c5	-0.0032082659
144	0xbb66c2ee	-0.0035211402
145	0xbb5f22b9	-0.0034047796
146	0xbb5e0372	-0.0033876565
147	0xbb598473	-0.0033190518
148	0xbb3bad7c	-0.002863734
149	0xbb790a43	-0.0038000501
150	0xbb8c8edc	-0.004289491
151	0xbb85b5a9	-0.0040804935
152	0xbb86918d	-0.0041067065
153	0xbb9831cc	-0.004644608
154	0xbb8c8fe9	-0.0042896164
155	0xbb862731	-0.0040940274
156	0xbb822b54	-0.0039724503
157	0xbb4be172	-0.0031109718
158	0xbb816885	-0.0039492273
159	0xbb8b3193	-0.004247853
160	0xb8f2d5bc	-0.0001157927
161	0xb9715a91	-0.0002301729
162	0xb9125f79	-0.00013959211
163	0x37bdc2d8	2.2621287e-05
164	0x38b2a23c	8.51792e-05
165	0x39983acb	0.00029035503
166	0x3a6a4a5a	0.0008937471
167	0x3aa962d3	0.0012923129
168	0x3ac9ddca	0.0015401181
169	0x3abbe9e6	0.0014336675
170	0x3ab78670	0.0014001857
171	0x3aad9586	0.0013243414
172	0x3a929834	0.0011184276
173	0x3aad03e4	0.0013200012
174	0x3ab2cc8a	0.001364128
175	0x3ac53fd1	0.0015048926
176	0x3ada7436	0.0016666714
177	0x3ae35c1f	0.001734618
178	0x3ae96059	0.0017805203
179	0x3af1584f	0.0018413159
180	0x3b02a5a3	0.0019935153
181	0x3b0db184	0.00216207
182	0x3b0b8dda	0.0021294267
183	0x3b0fa9c7	0.0021921264
184	0x3b11541f	0.0022175384
185	0x3b22cb50	0.0024840422
186	0x3b19ef42	0.0023488556
187	0x3b2811cb	0.002564537
188	0x3b325807	0.0027213113
189	0x3b38ff38	0.0028228294
190	0x3b223856	0.0024752817
191	0x3b08c4e4	0.002086931
192	0x3b0814be	0.0020764316
193	0x3b3a11e2	0.0028392007
194	0x3b3d5223	0.0028888069
195	0x3b385c97	0.002813136
196	0x3b317f9b	0.0027084115
197	0x3b4e0395	0.003143524
198	0x3b6d8ee0	0.003624849
199	0x3b8f2030	0.0043678507
200	0xb60f5c69	-2.136245e-06
201	0xb9934b59	-0.00028094163
202	0xba3bd652	-0.000716542
203	0xba5b08a1	-0.0008355473
204	0xba7c9830	-0.0009635715
205	0xbac82a65	-0.0015271424
206	0xbb11aac2	-0.0022227024
207	0xbb3e0c36	-0.0028998978
208	0xbb587072	-0.0033026007
209	0xbb3ee982	-0.002913088
210	0xbb41d7d5	-0.0029578109
211	0xbb3b4ac0	-0.002857849
212	0xbb45096d	-0.0030065433
213	0xbb51c198	-0.003200626
214	0xbb3b3a2d	-0.002856861
215	0xbb4fa75f	-0.0031685454
216	0xbb5d43f2	-0.0033762422
217	0xbb6041da	-0.0034218938
218	0xbb6bc682	-0.0035976474
219	0xbb6f297c	-0.0036493232
220	0xbb89fe9b	-0.0042112595
221	0xbb91a659	-0.004444879
222	0xbb95ca9c	-0.004571272
223	0xbb8e34cd	-0.0043397904
224	0xbb90167d	-0.004397212
225	0xbb9e4062	-0.0048294524
226	0xbbc580c2	-0.006027312
227	0xbba45019	-0.005014431
228	0xbbb240cf	-0.0054398547
229	0xbbaa0762	-0.0051888684
230	0xbbb7fc55	-0.005614797
231	0xbb979152	-0.004625478
232	0xbb95ee97	-0.0045755613
233	0xbbb4e0f8	-0.0055199824
234	0xbbc2b974	-0.005942518
235	0xbbb4d1df	-0.0055181826
236	0xbbafd72e	-0.0053662276
237	0xbbb6629f	-0.005565956
238	0xbbb9ea88	-0.0056737103
239	0xbbc06e67	-0.005872536
240	0x3b443c53	0.0029943183
241	0x3afcf1ca	0.0019298133
242	0x3aefa779	0.0018284164
243	0x3af62636	0.0018779698
244	0x3aebb875	0.001798405
245	0x3b009f73	0.001962629
246	0x3b0e9047	0.0021753476
247	0x3b0cd818	0.0021491107
248	0x3b0cb924	0.0021472657
249	0x3b1806e7	0.0023197473
250	0x3b1fcfaa	0.0024385252
251	0x3b221ffd	0.0024738305
252	0x3b285073	0.0025682717
253	0x3b2d7578	0.0026467722
254	0x3b2102b3	0.002456826
255	0x3b1bc0eb	0.002376611

weight_hh_l0 f4 [256, 64]
0	0x3689337a	4.088911e-06
1	0xb2840f8e	-1.5373896e-08
2	0xb5dc55a9	-1.6416208e-06
3	0xb9973d5a	-0.00028846675
4	0xb6d04c6f	-6.207781e-06
5	0xb8e9d43d	-0.00011149838
6	0x34c75d5a	3.713456e-07
7	0xb56f1169	-8.9059773e-07
8	0xb27fea30	-1.4896202e-08
9	0xb50af61b	-5.1767137e-07
10	0xb9a705a5	-0.00031856928
11	0xb504ea59	-4.951485e-07
12	0xb9bfcab6	-0.0003658139
13	0xb04464fb	-7.1447886e-10
14	0x3598fce2	1.1398481e-06
15	0xb38a5ada	-6.4426516e-08
16	0xb8dca337	-0.000105208186
17	0xb4128ea4	-1.3649202e-07
18	0x36367674	2.7189062e-06
19	0x3401332a	1.2032675e-07
20	0x39027007	0.000124395
21	0xb37b03ed	-5.8444062e-08
22	0xb3ad3abf	-8.066626e-08
23	0xb58ab846	-1.0335432e-06
24	0x3924c446	0.00015713376
25	0x31fb5690	7.3149025e-09
26	0xb46054cf	-2.0892479e-07
27	0x392332af	0.00015563772
28	0xb35fdbca	-5.212113e-08
29	0x35140ecc	5.515583e-07
30	0xb917848e	-0.00014449863
31	0x34f65a94	4.5886975e-07
32	0x39951c76	0.000284407
33	0x33a9b132	7.9019074e-08
34	0xb913e638	-0.00014104776
35	0x383569c1	4.3252254e-05
36	0x346a3501	2.1812231e-07
37	0x34256494	1.5403413e-07
38	0x33fd9849	1.1808931e-07
39	0xb3dd8c0a	-1.03165874e-07
40	0xb6b4ba6b	-5.38612e-06
41	0x345f166f	2.0776655e-07
42	0xb4012b78	-1.2029875e-07
43	0xb4f7c086	-4.6147414e-07
44	0x34c9a4ec	3.7559164e-07
45	0xb94836f3	-0.00019093957
46	0x39188eb1	0.00014549006
47	0xb8e40639	-0.00010873046
48	0xb24df700	-1.1988732e-08
49	0xb2db7459	-2.5547864e-08
50	0x36057abb	1.9889983e-06
51	0x3362e8ec	5.2831567e-08
52	0x3501fdd0	4.842559e-07
53	0x399e498b	0.00030190902
54	0x36b91543	5.515905e-06
55	0xb303c083	-3.0675903e-08
56	0xb54e06ef	-7.675107e-07
57	0xb908a35c	-0.00013030827
58	0x3361d13c	5.2577192e-08
59	0x342dd125	1.6187967e-07
60	0x33f64c32	1.14691275e-07
61	0x32bd1ac4	2.2014667e-08
62	0xb50d201a	-5.2573307e-07
63	0x3572afb7	9.0407724e-07
64	0xb335eb5d	-4.2356408e-08
65	0xba808560	-0.0009805374
66	0xb79f404e	-1.8984221e-05
67	0xbaa000a1	-0.0012207219
68	0xb7ed5050	-2.829e-05
69	0x38208bd7	3.827721e-05
70	0x383acb9d	4.4535485e-05
71	0xb795b10f	-1.7844633e-05
72	0xba8df478	-0.0010830304
73	0x37b77df5	2.1873953e-05
74	0xb732ee6f	-1.0665141e-05
75	0x384dc321	4.9057537e-05
76	0xb99201e8	-0.0002784871
77	0xb87a8b37	-5.97343e-05
78	0x37e59d84	2.7372276e-05
79	0x3784adb7	1.5816518e-05
80	0xbac3c778	-0.0014936766
81	0xb71ef1bd	-9.473818e-06
82	0x388811d8	6.488309e-05
83	0x3aaade80	0.0013036281
84	0x3a8194ec	0.0009886301
85	0x3a97d411	0.0011583586
86	0x384e3a20	4.916836e-05
87	0x38b23722	8.497971e-05
88	0xb83cc9ef	-4.501076e-05
89	0xb757f0d7	-1.28710735e-05
90	0x370ff682	8.580859e-06
91	0xba75f0d2	-0.00093818933
92	0x375b8365	1.308401e-05
93	0x372f7cfa	1.0459911e-05
94	0x3a9d96c1	0.0012023078
95	0xb90d0206	-0.00013447562
96	0x3a1c9ea8	0.00059745694
97	0xba999941	-0.0011718647
98	0xb8bedc54	-9.100945e-05
99	0x3ac379b6	0.0014913592
100	0xb94cc68e	-0.00019528923
101	0xb6bd9dce	-5.65101e-06
102	0x372f3ca1	1.0444929e-05
103	0x36c6ac87	5.9209447e-06
104	0x35aab658	1.2719056e-06
105	0xba962159	-0.001145403
106	0x3a44832c	0.0007496353
107	0xb7898b18	-1.6396443e-05
108	0xb7e76779	-2.758553e-05
109	0xb9b5ca74	-0.0003467385
110	0x3805e77a	3.192525e-05
111	0xba7e1e3d	-0.0009693837
112	0x38cf46ad	9.8836936e-05
113	0xb7fdb0ae	-3.0242223e-05
114	0x37da0d86	2.5993922e-05
115	0xb86a278e	-5.5826786e-05
116	0x37dcce2a	2.6322046e-05
117	0x3a3864f2	0.0007034085
118	0x3a01b6e7	0.0004948214
119	0x38443ad8	4.6784844e-05
120	0xb73976b5	-1.1054498e-05
121	0x38854b37	6.355944e-05
122	0xb7d5e50b	-2.5498235e-05
123	0x373a6598	1.1110118e-05
124	0x38f72c33	0.000117861106
125	0xb8061206	-3.1964875e-05
126	0x3574db56	9.121626e-07
127	0xb6dbec3a	-6.554209e-06
128	0xb0b697fe	-1.3285442e-09
129	0x36f57a36	7.315796e-06
130	0x3670b9f2	3.5871021e-06
131	0xb73240a1	-1.0624674e-05
132	0xb5e8e929	-1.7353206e-06
133	0x36bc5263	5.6124277e-06
134	0x36a55b81	4.9280357e-06
135	0xb6e3205a	-6.7688934e-06
136	0x388effc8	6.8187306e-05
137	0x37b94a65	2.2088361e-05
138	0xb606ed94	-2.0105845e-06
139	0x379b2a82	1.8497234e-05
140	0xb78b426e	-1.6601025e-05
141	0xb78d110e	-1.6816452e-05
142	0x368aaeca	4.1330686e-06
143	0x36c45f3c	5.852342e-06
144	0x379ca1ed	1.8672052e-05
145	0xb6825c84	-3.885072e-06
146	0x378bec51	1.6680135e-05
147	0x37a85e8a	2.0071184e-05
148	0xb7a484ad	-1.9612105e-05
149	0xb6f8e514	-7.417644e-06
150	0x3787f8f2	1.6209178e-05
151	0x37ece023	2.8237764e-05
152	0xb7fef120	-3.0391442e-05
153	0xb61e25bc	-2.35658e-06
154	0xb50ce759	-5.249072e-07
155	0x37043d6b	7.882113e-06
156	0xb67c645c	-3.7609343e-06
157	0xb50bbf22	-5.205967e-07
158	0x376b7a64	1.4035588e-05
159	0xb69fc2cd	-4.761247e-06
160	0x379beafe	1.8586867e-05
161	0x37958c8d	1.7827633e-05
162	0xb70e2ddd	-8.474538e-06
163	0x36d1a970	6.2484105e-06
164	0x368a8692	4.1283865e-06
165	0xb7732fe4	-1.4495079e-05
166	0x361f1736	2.3706357e-06
167	0x3661d66b	3.365242e-06
168	0xb572ddfe	-9.0475066e-07
169	0x376e5127	1.42048e-05
170	0xb7ac435a	-2.053536e-05
171	0xb56bc0ee	-8.782507e-07
172	0x3481904c	2.4133112e-07
173	0x37c292b2	2.3194913e-05
174	0xb780806c	-1.531859e-05
175	0x37bd1b4e	2.254327e-05
176	0x37d18bf1	2.4979907e-05
177	0xb6919fa0	-4.3399195e-06
178	0xb6415048	-2.880597e-06
179	0xb78ce4b9	-1.6795808e-05
180	0xb5a93754	-1.2607584e-06
181	0x383046b4	4.2027517e-05
182	0xb7b5245e	-2.1593816e-05
183	0x3783aea2	1.5697737e-05
184	0x368d5b2d	4.2127417e-06
185	0xb744fed0	-1.17418385e-05
186	0xb6e1a009	-6.724153e-06
187	0xb5881cd9	-1.0141185e-06
188	0x37a7cedf	2.0004283e-05
189	0xb6d6e85c	-6.404747e-06
190	0x36f05dae	7.163463e-06
191	0xb33c7fa1	-4.388824e-08
192	0xb3555b9b	-4.9676242e-08
193	0x36e293db	6.7525375e-06
194	0x36382eba	2.7445335e-06
195	0xb641afcf	-2.8861575e-06
196	0xb5e2f5b0	-1.6909817e-06
197	0x36b751a5	5.4633297e-06
198	0x366a0b89	3.4875432e-06
199	0xb616da10	-2.247867e-06
200	0x381e336a	3.771802e-05
201	0x37426e50	1.1588985e-05
202	0x34c9dd0a	3.7599995e-07
203	0x35d6d305	1.6005657e-06
204	0x3621e934	2.4126612e-06
205	0xb6e47d81	-6.80954e-06
206	0x36207549	2.3910127e-06
207	0x370931f1	8.177464e-06
208	0x36602621	3.3400795e-06
209	0xb6bbb00c	-5.593529e-06
210	0x37159c6c	8.917512e-06
211	0x373ddf85	1.131732e-05
212	0xb769f0a3	-1.394391e-05
213	0x36174234	2.2539289e-06
214	0x37a72697	1.9925921e-05
215	0x373bd2ae	1.1195121e-05
216	0xb7406d97	-1.1469608e-05
217	0xb58ea4b7	-1.0627763e-06
218	0x3713ebe0	8.816802e-06
219	0x36b51545	5.3966965e-06
220	0xb6e3b26b	-6.7858978e-06
221	0x33a49f4b	7.66582e-08
222	0x37851a7a	1.5867165e-05
223	0xb7864c71	-1.600964e-05
224	0xb319593b	-3.5704243e-08
225	0x37bd8685	2.2593196e-05
226	0xb67b1d05	-3.7418806e-06
227	0xb686dd5d	-4.0192813e-06
228	0x36e1f276	6.7337487e-06
229	0xb7b64c5d	-2.173165e-05
230	0x36155e7e	2.2257732e-06
231	0x35c30b33	1.4531892e-06
232	0xb5433557	-7.272078e-07
233	0x3732c601	1.0655728e-05
234	0xb76e5f2d	-1.4208065e-05
235	0xb49aeeef	-2.8858582e-07
236	0x361ea650	2.3640641e-06
237	0x379c44c9	1.862868e-05
238	0xb7b641c1	-2.172671e-05
239	0x37bdd02b	2.2627491e-05
240	0x37c59bcb	2.3556777e-05
241	0xb6a28442	-4.843373e-06
242	0xb553ab11	-7.885256e-07
243	0xb7960e22	-1.7887975e-05
244	0xb581b288	-9.663208e-07
245	0x368d3922	4.2087786e-06
246	0xb788b5ad	-1.6297063e-05
247	0x3744e1d7	1.1735093e-05
248	0x3577e064	9.23412e-07
249	0x3497b212	2.8255505e-07
250	0xb6f784ef	-7.376649e-06
251	0x36998c31	4.5760758e-06
252	0x37d7c348	2.5720932e-05
253	0x3532e581	6.664414e-07
254	0x37575a06	1.2835959e-05
255	0xb2c6c8f8	-2.3141624e-08

bias_ih_l0 f4 [256]
0	0x392f97c9	0.00016745845
1	0x3b305be5	0.0026910242
2	0x39a67b78	0.0003175398
3	0x396ab76c	0.00022384309
4	0x38b13000	8.4489584e-05
5	0x39a60057	0.0003166224
6	0x3a749c10	0.00093311165
7	0x399ce312	0.0002992382
8	0x3cb4a94d	0.022053385
9	0x3babcc6d	0.0052428753
10	0xbb1af733	-0.0023645877
11	0x3a2435d5	0.0006264125
12	0xb99104c8	-0.00027660117
13	0x3aed8ca6	0.0018123582
14	0x3a370370	0.0006981408
15	0x3a0ceacb	0.0005375563
16	0x3b7b4d96	0.0038345805
17	0x3928ba1e	0.00016091063
18	0x3b23780a	0.0024943375
19	0x3b668b05	0.0035178077
20	0x3b287b6f	0.0025708338
21	0x37a831ba	2.0050316e-05
22	0x3af7d2ef	0.0018907468
23	0x3b3f8c46	0.0029227897
24	0x3b7950df	0.0038042588
25	0x38229d70	3.8770435e-05
26	0x39e4c2b9	0.00043632629
27	0x39bb0262	0.00035669195
28	0x389c3ef9	7.450389e-05
29	0xb5d824c3	-1.6103953e-06
30	0x3b539031	0.003228199
31	0x3a0efc8f	0.0005454504
32	0xba856d37	-0.0010179643
33	0x3b8c39e1	0.0042793606
34	0xbaa442e1	-0.0012532138
35	0x3a6fa3d4	0.0009141539
36	0x389a65f5	7.362283e-05
37	0x3ae5e29b	0.0017538847
38	0x38c55f39	9.4114286e-05
39	0x39c30894	0.0003719969
40	0xb79053c1	-1.7205139e-05
41	0x3b90415c	0.0044023227
42	0x3ba34b66	0.0049833534
43	0x368957c1	4.093134e-06
44	0x38b7dba8	8.767034e-05
45	0x3c13ed6f	0.009028777
46	0x3a9f20c8	0.0012140507
47	0x3c286a6a	0.010279277
48	0x3b1bb1d7	0.0023757124
49	0x38e538fa	0.000109301836
50	0x37f825e8	2.9581555e-05
51	0x3b543417	0.003237968
52	0x38fd7776	0.000120862314
53	0x3968ec93	0.00022213375
54	0x3b8d3d07	0.0043102535
55	0x3a76e818	0.000941874
56	0x3a140bad	0.0005647492
57	0xbb741a8f	-0.0037247275
58	0x37f759bb	2.9486479e-05
59	0x39a8056e	0.00032047502
60	0x3b5834c0	0.0032990426
61	0x38894034	6.544628e-05
62	0x3a69eb9f	0.0008923355
63	0xb423cc64	-1.5254915e-07
64	0xb58c4b37	-1.0452703e-06
65	0xba0a087d	-0.0005265547
66	0x39ec5138	0.0004507394
67	0x3b0b6fea	0.0021276423
68	0x381e03d4	3.76737e-05
69	0x3a13bb4b	0.0005635514
70	0x3a0c55f1	0.00053533824
71	0x3932ed4b	0.00017063801
72	0x3b4ef5ba	0.003157957
73	0x3b952fa1	0.004552797
74	0xbb2bfd6c	-0.002624358
75	0xb83beb61	-4.4803488e-05
76	0x393fa3df	0.00018276226
77	0x3aca53da	0.0015436367
78	0x39907609	0.00027553763
79	0x39cbda4c	0.0003888182
80	0xbb23719c	-0.0024939543
81	0x38ff1e4e	0.00012164992
82	0x3b09a3a2	0.0021002074
83	0x3a937324	0.0011249525
84	0x3b00bf74	0.0019645365
85	0x373c52d6	1.122496e-05
86	0x3b0085da	0.0019611032
87	0x3acd7cd7	0.0015677464
88	0x3a6cb315	0.0009029371
89	0x37d4d08f	2.5369487e-05
90	0x3a0d6906	0.0005394373
91	0xba25d405	-0.0006325844
92	0x38c2e40c	9.293118e-05
93	0x384300db	4.649242e-05
94	0x3b56ac51	0.0032756517
95	0x3a4000f3	0.000732436
96	0xba2b002d	-0.00065231585
97	0x3afb766d	0.0019185074
98	0xba286d35	-0.00064249645
99	0x3aaa11a2	0.0012975226
100	0xbacbde73	-0.0015553966
101	0x396ab4c1	0.00022383315
102	0x38d2f00c	0.000100582925
103	0x38e33c90	0.00010835484
104	0x3501b17e	4.831453e-07
105	0x3b560870	0.0032658838
106	0x3b82dea3	0.0039938255
107	0x372cd377	1.0301234e-05
108	0xb8cae709	-9.675144e-05
109	0xbb2d7e86	-0.002647312
110	0x3a9f84d5	0.0012170324
111	0x3bbe151e	0.005800857
112	0x3a9a5533	0.0011774659
113	0xb417ed2b	-1.4149252e-07
114	0x380c50e1	3.3453925e-05
115	0x3b15cec7	0.0022858845
116	0x3837d510	4.382903e-05
117	0x38ef5bb9	0.00011413493
118	0x3a4a091a	0.0007707045
119	0x3a7bd8ae	0.0009607178
120	0x395d1055	0.00021082287
121	0xbb942d05	-0.0045219683
122	0x39a25afc	0.00030966836
123	0xb962db32	-0.00021634696
124	0x3b38a1e9	0.0028172678
125	0x391dad80	0.0001503732
126	0x3963381d	0.00021669311
127	0xb450302d	-1.9389036e-07
128	0xb9e44ab5	-0.0004354321
129	0x3c89cc92	0.01682118
130	0x3c573b32	0.013136672
131	0xbc4b44b5	-0.012406518
132	0xbb83bea2	-0.004020528
133	0x3c1843e7	0.009293533
134	0x3c84d16a	0.016213138
135	0xbc23f7ca	-0.010007808
136	0x3e140e53	0.1445859
137	0x3d38653f	0.04501843
138	0xbab0548e	-0.0013452934
139	0x3c6dd97c	0.014517184
140	0x3c05c425	0.00816444
141	0xbcfccb83	-0.03085876
142	0x3c5e4089	0.013565191
143	0x3c8399ff	0.016064642
144	0x3d087735	0.03331681
145	0xbc15bcb5	-0.00913923
146	0x3d1d71a1	0.038438443
147	0x3d13f703	0.03612424
148	0xbcf793d3	-0.030221855
149	0x3b60c20b	0.0034295346
150	0x3cf831d1	0.030297192
151	0x3d516a09	0.051126514
152	0xbd1971c9	-0.03746203
153	0xbb84da4e	-0.0040543443
154	0x3c23ddb5	0.01000159
155	0x3cedd04e	0.029029991
156	0xbb2361f7	-0.0024930218
157	0x3aa0955b	0.0012251543
158	0x3c71656f	0.014733656
159	0xbc8d5058	-0.017250225
160	0x3c1aac3d	0.009440479
161	0x3d12e54a	0.0358632
162	0xbc58f400	-0.013241768
163	0xbbd791b6	-0.0065786494
164	0x3c933568	0.017969802
165	0xbcab9142	-0.020943288
166	0x3c03f52f	0.008054062
167	0x3bdead37	0.006795551
168	0xba2a1d9d	-0.0006489398
169	0x3d350d01	0.044201855
170	0xbd4b2152	-0.049592324
171	0xbaa53b36	-0.0012606147
172	0xbb9420c0	-0.0045205057
173	0x3d919325	0.07108144
174	0xbccb9138	-0.02484952
175	0x3d548700	0.05188656
176	0x3d12f2d3	0.035876106
177	0xbc5d4186	-0.013504392
178	0xbb92446f	-0.0044637243
179	0xbd0d1850	-0.034447014
180	0xbb8ca0c9	-0.004291628
181	0xbc1a60db	-0.009422506
182	0xbd6f60a2	-0.058441766
183	0x3cd8e594	0.026476659
184	0x3c9bed4a	0.019034047
185	0x3b96f8a9	0.0046072793
186	0xbc2c5ae0	-0.010519713
187	0xbc08108b	-0.008304725
188	0x3d17b96a	0.03704206
189	0xbc549725	-0.012975489
190	0x3c6b72cd	0.014370632
191	0xb909fa8e	-0.00013158677
192	0x3831addc	4.2362008e-05
193	0x3ac1d752	0.0014788902
194	0x39974859	0.00028854868
195	0x3acc1d52	0.0015572703
196	0x38987524	7.269744e-05
197	0x3a6a8f4e	0.00089477457
198	0x3a1ad978	0.0005907039
199	0x394b3cf6	0.00019382298
200	0x3c2b56e4	0.010457728
201	0x3b8e18cd	0.0043364526
202	0xbb57900c	-0.0032892255
203	0xb8e9f3fa	-0.0001115575
204	0x397b0480	0.00023938902
205	0x3acdd49b	0.001570362
206	0x399f26c2	0.0003035572
207	0x39c8866c	0.00038247125
208	0xbad8a436	-0.0016528431
209	0x390ec887	0.00013616878
210	0x3b0dd168	0.0021639708
211	0xba281351	-0.000641157
212	0x3b17332f	0.002307128
213	0xb8b117e1	-8.4444655e-05
214	0x3ae0c4bd	0.0017148476
215	0xb92b4edb	-0.00016337207
216	0x3b16539e	0.0022938023
217	0x37c7f517	2.3836777e-05
218	0x39f7979b	0.00047224466
219	0xb88fe27d	-6.860958e-05
220	0xb9e47ffa	-0.000435829
221	0xb83241b7	-4.249971e-05
222	0x3b1c21da	0.0023823888
223	0x3a150cc6	0.00056858023
224	0xba17a374	-0.0005784549
225	0x3a1495e2	0.0005668086
226	0xba323e14	-0.00067994115
227	0x3a78fa35	0.0009497733
228	0xbb2ede8c	-0.0026682941
229	0x398810ec	0.0002595255
230	0x38b250cb	8.50275e-05
231	0x397b17fa	0.00023946157
232	0x38eae417	0.000112004745
233	0x3ab06e38	0.0013460582
234	0x3b82178f	0.0039700936
235	0x37862f93	1.5996198e-05
236	0xb965f244	-0.00021929393
237	0x3ac69aa4	0.0015152288
238	0x3aaa9da1	0.0013016948
239	0x3bc19b5a	0.005908412
240	0x3ae96e2d	0.0017809324
241	0x36c82756	5.965044e-06
242	0xb72ecf33	-1.04194505e-05
243	0x3b196f2b	0.0023412209
244	0x38c4b566	9.3797964e-05
245	0x3962f05b	0.00021642579
246	0x3b2afc6c	0.0026090397
247	0x3a812670	0.0009853374
248	0x3a1b8300	0.0005932301
249	0xbbd153fe	-0.0063881865
250	0x39e645a2	0.000439209
251	0x369495ef	4.4281983e-06
252	0x3b3ecc57	0.0029113495
253	0x3946e3e0	0.00018967642
254	0x3923128f	0.00015551805
255	0x33757242	5.7147425e-08

bias_hh_l0 f4 [256]
0	0x39334cde	0.00017099406
1	0x3b2aa8b8	0.0026040506
2	0x39a856d7	0.00032108158
3	0x396f92d6	0.00022847517
4	0x38a59146	7.8948724e-05
5	0x399f31d8	0.0003036398
6	0x39d489f3	0.0004053857
7	0x3993ab78	0.0002816578
8	0x3cb464ae	0.022020664
9	0x3bab6d4f	0.0052315365
10	0xbafa3fb6	-0.0019092474
11	0x39ad053d	0.00033001034
12	0xb9919e27	-0.00027774388
13	0x3af2fdca	0.001853877
14	0x3a367aff	0.0006961077
15	0x3a0be1c4	0.0005336071
16	0x3b770dc6	0.0037697419
17	0x3968e6bc	0.000222112
18	0x3b1f73f5	0.002433059
19	0x3b64d8ab	0.0034919183
20	0x3b2875a7	0.0025704892
21	0x38d0ad12	9.95045e-05
22	0x3af4a5b1	0.0018665103
23	0x3b3ed3c6	0.0029117926
24	0x3b86c4a5	0.0041127973
25	0x3825cd3d	3.953021e-05
26	0x3975ffab	0.00023460264
27	0x39edced1	0.00045358253
28	0x379adccc	1.8461047e-05
29	0x37b4c499	2.154922e-05
30	0x3b405919	0.0029349981
31	0x3a206956	0.0006119212
32	0xba857027	-0.0010180519
33	0x3b8e1b3b	0.004336742
34	0xba94605c	-0.0011320221
35	0x3a3febd3	0.00073212123
36	0x38843e11	6.305811e-05
37	0x3a9b02fb	0.001182645
38	0x38bdc286	9.048455e-05
39	0xb7e07f70	-2.6762224e-05
40	0xb747f91f	-1.1919327e-05
41	0x3b93428e	0.004494018
42	0x3ba4f0cc	0.005033588
43	0x385e33eb	5.2977277e-05
44	0x3771b2f0	1.44063815e-05
45	0x3c130fa6	0.008975899
46	0x3a872a10	0.0010312218
47	0x3c039ef3	0.008033502
48	0x3b210daf	0.0024574806
49	0x38e694ee	0.00010994995
50	0x37bcfd59	2.252932e-05
51	0x3b521752	0.0032057357
52	0x38e960ae	0.00011128314
53	0x39b17050	0.0003384375
54	0x3b8da817	0.0043230164
55	0x3a70bc32	0.0009183317
56	0x3a9710ef	0.0011525432
57	0xbb7a5d7f	-0.00382027
58	0x3692f7a8	4.37997e-06
59	0x39a7fc74	0.00032040814
60	0x3b5a6c85	0.0033328843
61	0x39f3836c	0.0004644649
62	0x3a6498f5	0.0008720302
63	0xb48a203c	-2.5727957e-07
64	0xb5e0d7bd	-1.6752089e-06
65	0xbaa517f2	-0.0012595637
66	0x39aaab25	0.0003255244
67	0x3b08ebca	0.0020892494
68	0x382287f9	3.8750444e-05
69	0x3a18a455	0.0005822827
70	0x39cd4025	0.00039148438
71	0x3932f82a	0.00017067851
72	0x3b4ef4e1	0.0031579065
73	0x3b94d330	0.004541777
74	0xbb0d5b2d	-0.0021569238
75	0x3905acd2	0.00012748249
76	0x3963fea5	0.0002174327
77	0x3ac760e4	0.0015211371
78	0x39903263	0.0002750336
79	0x39cbf803	0.0003890396
80	0xbb2a6ddd	-0.0026005425
81	0x3905b9d3	0.00012753093
82	0x3b11652f	0.0022185554
83	0x3a8e2d1a	0.0010847182
84	0x3b202a54	0.0024439292
85	0x35b8d0c4	1.3769827e-06
86	0x3b008b55	0.0019614298
87	0x3ad0206a	0.0015878801
88	0x3a45e862	0.00075495814
89	0x37d4f4cb	2.538636e-05
90	0x3a05566a	0.0005086424
91	0xba25feea	-0.00063322356
92	0x3823bde0	3.9039063e-05
93	0xb8370be5	-4.3641678e-05
94	0x3b514417	0.0031931454
95	0x3a4ba7c0	0.0007768832
96	0xba310f54	-0.0006754298
97	0x3ad53da8	0.0016268985
98	0xba371d28	-0.00069852406
99	0x3a8febf8	0.0010980358
100	0xbac9b314	-0.0015388452
101	0x38d802c9	0.000103002014
102	0x38d241bc	0.00010025824
103	0x38257395	3.944671e-05
104	0xb6cb652d	-6.06165e-06
105	0x3b5b9f37	0.0033511647
106	0x3b831987	0.004000846
107	0x37bbb0d3	2.2374477e-05
108	0xb8cacd83	-9.67039e-05
109	0xbb2dea31	-0.0026537294
110	0x3a9ced41	0.0011972563
111	0x3bbf6f2d	0.0058421106
112	0x3a9c9797	0.0011947033
113	0x36dd990b	6.60413e-06
114	0x3819b82b	3.6649562e-05
115	0x3b18fbd2	0.0023343456
116	0x379bc2ed	1.856821e-05
117	0x38dbb2aa	0.000104760125
118	0x3a4998e8	0.00076903263
119	0x3a7bf128	0.0009610825
120	0x3953ce7f	0.00020199454
121	0xbb94896e	-0.0045329845
122	0x399ee324	0.0003030534
123	0xb962fba6	-0.00021646786
124	0x3b36db97	0.0027901882
125	0x3867c7a1	5.526061e-05
126	0x36f57904	7.315657e-06
127	0xb424d192	-1.5349931e-07
128	0xb9e20860	-0.0004311232
129	0x3c89ffe0	0.016845644
130	0x3c574302	0.0131385345
131	0xbc4b42ca	-0.0124060605
132	0xbb83c0c1	-0.004020781
133	0x3c18f458	0.0093356
134	0x3c8461ac	0.016159855
135	0xbc23f5e2	-0.0100073535
136	0x3e15c0bd	0.14624305
137	0x3d388a44	0.045053735
138	0xbab2149d	-0.0013586466
139	0x3c6d78b3	0.014494109
140	0x3c05b616	0.008161088
141	0xbcfcd099	-0.030861186
142	0x3c5e422f	0.013565584
143	0x3c83b128	0.016075686
144	0x3d08600f	0.033294734
145	0xbc159d87	-0.009131796
146	0x3d1d7300	0.03843975
147	0x3d140b85	0.0361438
148	0xbcf7967d	-0.030223126
149	0x3b605c89	0.0034234843
150	0x3cf82386	0.030290376
151	0x3d4970fa	0.04918001
152	0xbd19415e	-0.037415855
153	0xbb846e7d	-0.0040414915
154	0x3c25489a	0.01008811
155	0x3cf1b9f4	0.029507615
156	0xbb2377d8	-0.0024943259
157	0x3accba79	0.0015619538
158	0x3cf7d000	0.03025055
159	0xbc8d78a5	-0.017269442
160	0x3c1a6f46	0.009425944
161	0x3d1297d4	0.035789326
162	0xbc58e06e	-0.013237102
163	0xbbd7d4b0	-0.0065866336
164	0x3c934ca1	0.017980875
165	0xbcaba61b	-0.020953229
166	0x3c03ea98	0.008051537
167	0x3bdea759	0.0067948517
168	0xba2a3cc2	-0.0006494039
169	0x3d34d00c	0.04414372
170	0xbd4af3a7	-0.04954877
171	0xbaa54511	-0.0012609084
172	0xbb946659	-0.0045288024
173	0x3d961e43	0.07329991
174	0xbccb64d4	-0.024828352
175	0x3d52fe69	0.051512156
176	0x3d0d4615	0.034490664
177	0xbc5e3b65	-0.013563965
178	0xbb9244f3	-0.004463786
179	0xbd0d2c66	-0.03446617
180	0xbb8cb2a6	-0.0042937575
181	0xbc19cceb	-0.009387235
182	0xbd75346f	-0.059864458
183	0x3cd884d4	0.026430525
184	0x3c9beeeb	0.019034823
185	0x3b98c846	0.0046625463
186	0xbc2c5fef	-0.010520919
187	0xbc06d10d	-0.0082285525
188	0x3d216302	0.03940106
189	0xbc561f6a	-0.013069013
190	0x3c6b8d83	0.014377001
191	0xb90bece3	-0.0001334432
192	0x381a6454	3.68099e-05
193	0x389baf88	7.423671e-05
194	0x399d8c14	0.0003004974
195	0x3ad46704	0.0016205017
196	0x38a57961	7.890422e-05
197	0x3a69ccad	0.00089187437
198	0x3a565c83	0.00081772375
199	0x39516e2f	0.0001997284
200	0x3c2b7547	0.010464973
201	0x3b8d41b8	0.004310813
202	0xbb4727aa	-0.0030388632
203	0xb8b7350e	-8.736002e-05
204	0xb99400b2	-0.00028229278
205	0x3ad53b4f	0.0016268286
206	0x399828b7	0.00029022034
207	0x39d6aad2	0.00040944532
208	0xbacaf9e2	-0.0015485848
209	0x390fff1f	0.00013732583
210	0x3b15e7d8	0.0022873785
211	0xbaaecb64	-0.0013335762
212	0x3b14b66c	0.002269174
213	0xb91c93dd	-0.00014932403
214	0x3ae3ee4b	0.0017389742
215	0xb97fb019	-0.00024384297
216	0x3b285731	0.0025686736
217	0x37d62f70	2.5532878e-05
218	0x3a0819ec	0.0005191851
219	0xb8c86eec	-9.557404e-05
220	0xb983684b	-0.0002506397
221	0x3682030a	3.8746557e-06
222	0x3b41fe6b	0.0029601108
223	0x3a28517a	0.00064208324
224	0xba15e8b4	-0.00057185744
225	0x3a1ae8a9	0.0005909303
226	0xba3315df	-0.0006831567
227	0x3a733eb5	0.00092790584
228	0xbb2dab21	-0.0026499706
229	0x3988c6ab	0.0002608796
230	0x38b8bad8	8.808606e-05
231	0x39326711	0.00017013798
232	0x38d5e1d1	0.00010198693
233	0x3a9888c7	0.0011637443
234	0x3b816606	0.0039489297
235	0x37d054ed	2.4835079e-05
236	0xb96977ad	-0.00022265194
237	0x3acb44d6	0.0015508186
238	0x3aa67a2c	0.0012701205
239	0x3bc1630c	0.0059017
240	0x3aee19d6	0.0018165659
241	0x376ad174	1.3996254e-05
242	0xb765c854	-1.3696106e-05
243	0x3b1958fa	0.0023398981
244	0x38c6d169	9.4803814e-05
245	0x389979b0	7.3182746e-05
246	0x3b2c494f	0.0026288813
247	0x3a816975	0.0009873348
248	0x39abcd48	0.00032768608
249	0xbb0e87fc	-0.0021748533
250	0x39e6c360	0.00044014584
251	0x3957a0a5	0.00020563843
252	0x3b40a201	0.0029393437
253	0x391f2110	0.00015175738
254	0x394b9f84	0.00019419013
255	0xb463b07c	-2.1205227e-07

weight_ih_l1 f4 [256, 64]
0	0x3a57c099	0.00082302984
1	0xbbe72dff	-0.0070550437
2	0x3a247ccf	0.00062747014
3	0x3c8ddaf0	0.017316312
4	0x39fa48a0	0.00047737826
5	0x3c612dfc	0.013743874
6	0x3a4dd58f	0.0007851952
7	0xb9d0dc0e	-0.00039836805
8	0x3ab5a0d9	0.001385714
9	0x3ae4bd43	0.0017451424
10	0x3d13adb0	0.036054313
11	0x3a41e60a	0.0007396644
12	0x3cc7ae95	0.02437524
13	0xba83d9e5	-0.0010059444
14	0x3a2ceb5f	0.00065963523
15	0xbbcb10d8	-0.0061970763
16	0x3c4c6349	0.012474843
17	0x393ce904	0.00018015882
18	0x3ad12d74	0.0015958981
19	0xbb5a88c9	-0.003334569
20	0xbd11ba82	-0.03557826
21	0xbb84495c	-0.0040370654
22	0x3ad83c5e	0.0016497483
23	0xbc48f57c	-0.012265559
24	0xbca479ba	-0.020077575
25	0x3a2dd788	0.0006631543
26	0x3a2bfabd	0.0006560495
27	0xbb478f3d	-0.0030450367
28	0x3b852b25	0.004063981
29	0x3b60fa35	0.0034328823
30	0x3bb70003	0.005584718
31	0xba6731d5	-0.0008819376
32	0xbc72e9d7	-0.01482626
33	0xbaac64b3	-0.0013152569
34	0x3c4403aa	0.011963764
35	0xbcef968a	-0.029246587
36	0x3b21519f	0.00246153
37	0xb9c73437	-0.0003799514
38	0x39eff4ed	0.00045768116
39	0xb9f9b180	-0.0004762523
40	0x3ae8245d	0.0017711032
41	0xbb097384	-0.0020973394
42	0x3b13192d	0.0022445426
43	0xb89ab3a5	-7.376754e-05
44	0x3b0d6be9	0.0021579212
45	0x3c3c565b	0.011495198
46	0xbd2477b3	-0.040153217
47	0x3c94f13a	0.018181432
48	0x3a7474aa	0.00093252456
49	0xbb98cf41	-0.0046633785
50	0x3a487077	0.0007646153
51	0xba6ef13f	-0.0009114928
52	0xb8bdce38	-9.0506335e-05
53	0xbcc845bf	-0.02444732
54	0xbc35bdff	-0.011092662
55	0xba677bc3	-0.00088303926
56	0x3a78e1f8	0.0009494121
57	0x3d41bcc5	0.047299165
58	0xbc27f2a8	-0.010250725
59	0x3acb407c	0.0015506889
60	0x3acee94a	0.0015786078
61	0xbbc317c5	-0.0059537613
62	0x3a5a79b8	0.00083341775
63	0x385f6abf	5.326676e-05
64	0x38af0461	8.345466e-05
65	0x3a64e23c	0.00087312213
66	0x3a8894d5	0.0010420332
67	0x3d03b4a8	0.03215471
68	0x3984f36f	0.00025358374
69	0x3cb9ffce	0.022704985
70	0x3a94d00e	0.0011353509
71	0xba1ff3f7	-0.0006101722
72	0x3c546fc4	0.0129661
73	0x3c1ba28c	0.009499203
74	0x3d4b247d	0.049595345
75	0x3a36e076	0.00069761963
76	0x3d40bbdb	0.047054153
77	0xbad4dfc7	-0.0016241007
78	0x3a6301a7	0.0008659609
79	0xbb8c3c9d	-0.0042796866
80	0x3ce7ed3e	0.028311368
81	0xb5351bb5	-6.7468073e-07
82	0x3b0ce221	0.0021497088
83	0x3b93c96b	0.004510095
84	0xbd3c7cb4	-0.046017364
85	0xbb74001a	-0.0037231506
86	0x3b125f6b	0.0022334706
87	0xbc8625e6	-0.016375493
88	0xbd0cd627	-0.03438392
89	0x39ceae74	0.0003942136
90	0x3abfee06	0.001464308
91	0xbc88d334	-0.016702272
92	0xbbc58c32	-0.0060286755
93	0x3b24d28d	0.0025149912
94	0x3cada80d	0.021198297
95	0xbaceb45d	-0.0015770305
96	0xbce89d85	-0.028395424
97	0x3bdf2987	0.0068103704
98	0x3ca9a53f	0.020708678
99	0xbd5ad10a	-0.05342201
100	0x3c35da7a	0.011099452
101	0xbab5d4f9	-0.0013872675
102	0x3a0b4e8a	0.00053141324
103	0xb951dddb	-0.00020014441
104	0x3aebdcac	0.0017994842
105	0x3bbfd6bd	0.005854456
106	0xbba2de6e	-0.0049703633
107	0xb86cca97	-5.645546e-05
108	0x39a840c3	0.00032091708
109	0x3ce9776b	0.028499326
110	0xbd4cf91a	-0.05004225
111	0x3d1b8b99	0.037974928
112	0x3b15fba7	0.0022885592
113	0xbb861556	-0.004091899
114	0x3a136048	0.0005621952
115	0xbab5f23f	-0.0013881399
116	0xb946c071	-0.00018954441
117	0xbd0ede2c	-0.03487985
118	0xbc7fe1ee	-0.015617831
119	0x39bb8eb6	0.00035773747
120	0x3afbe347	0.0019217514
121	0x3d81f6e7	0.06345921
122	0xbc5f92bd	-0.013645825
123	0x39da55a2	0.00041644002
124	0x3b0c6902	0.0021424894
125	0xbbaede83	-0.005336584
126	0x3aa4909b	0.0012555303
127	0x37fdaba6	3.023988e-05
128	0x37925aa9	1.7446773e-05
129	0x38307431	4.206988e-05
130	0x36dad6d0	6.5219137e-06
131	0xba5d069e	-0.0008431467
132	0x36de9199	6.6330654e-06
133	0xba1f9835	-0.0006088049
134	0xb725b88f	-9.877737e-06
135	0x3642d5aa	2.9032622e-06
136	0xb892494a	-6.975474e-05
137	0x393df32a	0.0001811503
138	0xb9ff81b3	-0.00048734024
139	0x35db531d	1.6340961e-06
140	0xba26bedd	-0.00063608383
141	0xb60d0aba	-2.101688e-06
142	0xb58609c3	-9.986619e-07
143	0x32b40e74	2.096133e-08
144	0xba8cd659	-0.0010745033
145	0xb4dd0ef7	-4.1175346e-07
146	0x3532de4c	6.663365e-07
147	0x39883255	0.00025977442
148	0x3a073dd0	0.0005159052
149	0x381c2109	3.7224065e-05
150	0x36b22361	5.308932e-06
151	0x37292614	1.0082051e-05
152	0x3a47c0c0	0.00076199695
153	0x3338ee57	4.3057607e-08
154	0x3629de68	2.531242e-06
155	0x3a47097b	0.000759266
156	0x38491d52	4.794944e-05
157	0x358a3bd0	1.0299209e-06
158	0xba488a37	-0.000764999
159	0xb6e683ed	-6.8698923e-06
160	0x39b30662	0.00034146296
161	0xb912082a	-0.00013926686
162	0xb9bce5e4	-0.00036029436
163	0x3a90a25a	0.0011034713
164	0xb972bbda	-0.00023148899
165	0xb74597b9	-1.1777441e-05
166	0x3512134f	5.4417336e-07
167	0x362bbc9f	2.5590778e-06
168	0xb79deff1	-1.882759e-05
169	0xb734c436	-1.077452e-05
170	0x391b19e2	0.00014791594
171	0xb53f3b95	-7.123975e-07
172	0xb7816d23	-1.542882e-05
173	0xba8fed20	-0.0010980703
174	0x3a7a95e3	0.0009559078
175	0xba40ce43	-0.0007354954
176	0x35d51910	1.5877031e-06
177	0xb61733e9	-2.253097e-06
178	0xb6a3625a	-4.869228e-06
179	0xb6d06d10	-6.2115796e-06
180	0x3714b502	8.863632e-06
181	0x3a605e0f	0.00085589377
182	0xb8a8a53e	-8.041643e-05
183	0x33f3f2c2	1.1359727e-07
184	0x36921e91	4.3546975e-06
185	0xba84edb0	-0.0010141637
186	0xb523a603	-6.096381e-07
187	0xb69fc327	-4.761288e-06
188	0x369d845d	4.6943737e-06
189	0x3357dfec	5.0262244e-08
190	0xb4d2e82d	-3.9284478e-07
191	0xb5bae783	-1.3925459e-06
192	0x3974b0f5	0.00023335575
193	0x3a3e22f0	0.0007253131
194	0x3a30fa50	0.00067511667
195	0x3acda76f	0.0015690158
196	0x39290aef	0.00016121169
197	0x3b8110b1	0.0039387573
198	0x39f00ba2	0.00045785034
199	0xb97a2b9a	-0.00023858101
200	0x3b1d1a7d	0.0023972087
201	0x3ad8bb7c	0.0016535367
202	0x3ac571e0	0.0015063845
203	0x397fbccd	0.00024389029
204	0x3c0202de	0.007935254
205	0xba7c0268	-0.00096133957
206	0x3a068144	0.00051309564
207	0x372b0b0d	1.0194967e-05
208	0x3b2eb93f	0.0026660708
209	0xb9b9c1ab	-0.00035430244
210	0x3a802e0a	0.0009779346
211	0x3ae445e4	0.0017415849
212	0xbba2f8ba	-0.004973498
213	0x39ffd7a1	0.00048798046
214	0x3a711554	0.00091965985
215	0xbb56f96d	-0.0032802478
216	0xbbbf3c50	-0.005836047
217	0xb853794f	-5.0419298e-05
218	0x3a597207	0.00082948845
219	0xb9974e4d	-0.00028859303
220	0x3b142ddb	0.002261034
221	0x3a758cad	0.00093669706
222	0x3bcd1033	0.0062580346
223	0xba5df335	-0.00084667216
224	0xbb7f4e71	-0.0038956667
225	0x39154fd2	0.00014239483
226	0x3b853854	0.0040655527
227	0xbc0df42c	-0.008664172
228	0xbb254c6f	-0.002522256
229	0xba678a23	-0.00088325347
230	0x39db3264	0.0004180848
231	0xb90529d4	-0.0001269945
232	0x3a089017	0.00052094593
233	0x3ac383d7	0.0014916611
234	0xbb2b9126	-0.0026179045
235	0xb8478fbf	-4.757917e-05
236	0xb8c0018b	-9.155561e-05
237	0x3b040cb3	0.002014917
238	0xbc0bb2dc	-0.00852653
239	0x3bce5376	0.0062965704
240	0x3a370695	0.0006981877
241	0xba275ff3	-0.0006384842
242	0xb91a616b	-0.00014722875
243	0xba51ce6f	-0.0008003478
244	0xb8174496	-3.606508e-05
245	0xbb3036ee	-0.002688821
246	0x3b15f0e4	0.0022879178
247	0x3a3e5e9c	0.00072620227
248	0x3a9f2029	0.0012140322
249	0x3ba4e341	0.0050319736
250	0x3b115c28	0.0022180174
251	0xba516dc9	-0.00079890765
252	0x3a7bf942	0.00096120324
253	0xb997ade1	-0.00028930514
254	0x3a43cc76	0.0007469127
255	0xb6f4ac0b	-7.291795e-06

weight_hh_l1 f4 [256, 64]
0	0x3c2d4f12	0.010577934
1	0xbc5169fb	-0.012781615
2	0xb948630a	-0.00019110381
3	0x3c88b20b	0.01668646
4	0xbca14511	-0.019686254
5	0x3a7a33f9	0.00095444877
6	0xbbeed285	-0.0072882795
7	0x3bfabd73	0.0076519786
8	0xbc58c40d	-0.013230336
9	0xbc6d9570	-0.014500961
10	0xbc27f668	-0.010251619
11	0xba5b6970	-0.00083698984
12	0x3c62c513	0.0138409315
13	0xbbf973b2	-0.007612669
14	0x3b9dfbb7	0.0048212665
15	0xbb363323	-0.0027801476
16	0xbc86e848	-0.016468182
17	0x3c5db74c	0.013532471
18	0xba3efd8c	-0.0007285706
19	0xbc858d73	-0.0163028
20	0x398968b5	0.0002620869
21	0xbb8fd917	-0.004389893
22	0x3b9efa44	0.0048516113
23	0xbcb82712	-0.022479568
24	0x3a21863c	0.0006161665
25	0x3af98567	0.0019036949
26	0x3c4cc5ef	0.012498363
27	0xbc9acfb1	-0.018897863
28	0xbb90c160	-0.0044175833
29	0x3c4e5098	0.012592457
30	0x3c76aeb9	0.015056306
31	0x3c918341	0.017762782
32	0xbc1aa8c6	-0.009439653
33	0xbc5855fe	-0.013204096
34	0xbc40b2bc	-0.011761364
35	0xbc318313	-0.010834473
36	0xba4e3faa	-0.0007867763
37	0xbc4f871d	-0.012666491
38	0xbc9dc5b5	-0.019259313
39	0xbc92cc47	-0.017919673
40	0x379f1216	1.8962699e-05
41	0x3929eb8b	0.00016204843
42	0x3a451da5	0.0007519371
43	0x3c4fbda7	0.012679494
44	0xb9ab0f7d	-0.000326272
45	0xbc8f4bdd	-0.01749223
46	0x3c569483	0.013096931
47	0x3cae02a4	0.021241494
48	0x3b46903f	0.003029838
49	0xbc9aa5dc	-0.018877916
50	0xbc6b9554	-0.014378864
51	0xbbd886a1	-0.006607846
52	0x3c1105ba	0.008851463
53	0xbac33ecc	-0.0014896034
54	0x3c8a215c	0.01686161
55	0x3b3ed5ee	0.0029119211
56	0x3c013271	0.007885561
57	0x3bbd98e5	0.0057860487
58	0xbbaa7a02	-0.0052025327
59	0xbc3ea73c	-0.0116365515
60	0xbbb9ab47	-0.00566617
61	0xba4b7eb8	-0.0007762718
62	0xbcad6065	-0.021164129
63	0x391cc43c	0.00014950422
64	0x3c7acaef	0.015307172
65	0xbc83c569	-0.016085343
66	0xba5fdb14	-0.000853942
67	0x3c59d9c3	0.013296547
68	0xbc7d9dae	-0.015479488
69	0xbba9c7ba	-0.00518128
70	0xbc238ca9	-0.009982266
71	0x3bb28460	0.0054479092
72	0xbc3130e7	-0.010814882
73	0xbc510467	-0.012757397
74	0xbc572658	-0.0131317
75	0xb965f1f2	-0.00021929273
76	0x3c0e920a	0.008701811
77	0xba11ec6f	-0.00055665424
78	0x3be593c8	0.0070061423
79	0xbbfe61e1	-0.007763133
80	0xbc5f1e70	-0.013618097
81	0x3c48cb77	0.012255541
82	0xbb394174	-0.0028267773
83	0xbc3c1a45	-0.0114808725
84	0xbba7f0c6	-0.005125138
85	0xbbdeaa0f	-0.006795175
86	0x3b5e07ce	0.0033879164
87	0xbc9dc6dd	-0.019259864
88	0xbb9a2eea	-0.0047052996
89	0x3b5f2a5b	0.0034052345
90	0x3c1985b7	0.009370259
91	0xbc815272	-0.015786383
92	0xbbf73bbd	-0.007544963
93	0x3c27bf01	0.01023841
94	0x3c4e3a8c	0.012587201
95	0x3c518639	0.012788349
96	0xbc3fd505	-0.011708503
97	0xbc8f91e7	-0.017525626
98	0xbc5be248	-0.013420649
99	0xbb8ac85b	-0.00423531
100	0xbbe64db7	-0.0070283073
101	0xbbfec327	-0.007774729
102	0xbc86f3ea	-0.01647373
103	0xbc7ab62d	-0.015302223
104	0xbb305791	-0.0026907662
105	0x3bd3ae45	0.0064599835
106	0xb978cd8a	-0.00023727692
107	0x3c046457	0.0080805635
108	0x391a5b80	0.00014720671
109	0xbc6915b3	-0.014226365
110	0x3c03dac5	0.008047764
111	0x3c9a491a	0.018833686
112	0x3a4cdd80	0.00078149885
113	0xbc741fc7	-0.014900154
114	0xbc999ec9	-0.018752472
115	0xbbeec52a	-0.0072866874
116	0x3c55a4ee	0.013039811
117	0xbb7fd5f8	-0.0039037447
118	0x3c5d9827	0.0135250455
119	0x3bf4024d	0.0074465633
120	0x3c4703e1	0.012146921
121	0x3c0846d5	0.008317669
122	0xba83c56c	-0.0010053343
123	0xbc15ba7f	-0.009138702
124	0xbc01dea8	-0.007926621
125	0xb9a16f07	-0.00030791035
126	0xbc941c6c	-0.018079959
127	0x39683f12	0.0002214874
128	0x38317137	4.2305528e-05
129	0xb81fbd65	-3.808494e-05
130	0x381f1ad0	3.7933525e-05
131	0x37f2b721	2.8933924e-05
132	0x3794d561	1.7742337e-05
133	0x396d25dc	0.00022616185
134	0x34916b41	2.7086392e-07
135	0x39545d16	0.00020252573
136	0xb89b06a3	-7.392212e-05
137	0xb80e0505	-3.3860113e-05
138	0xb770cd5e	-1.43529305e-05
139	0xb788a39b	-1.6288648e-05
140	0x397d174d	0.0002413664
141	0xb95e35d8	-0.00021191628
142	0xb6e42583	-6.7992964e-06
143	0x39054214	0.00012708484
144	0x37865fc2	1.6018636e-05
145	0x37627019	1.34967495e-05
146	0x39156e46	0.00014250827
147	0xb9894cab	-0.00026187798
148	0x393de0ae	0.00018108144
149	0x38420f6d	4.626757e-05
150	0x382cacb2	4.116883e-05
151	0x38a75a97	7.980054e-05
152	0x39cf9644	0.00039594073
153	0xb865adc2	-5.475968e-05
154	0xb71a8808	-9.2107875e-06
155	0x378cc39f	1.6780394e-05
156	0x3880a893	6.134915e-05
157	0x37af46fe	2.0894684e-05
158	0x38d41474	0.000101127574
159	0x36fae2d7	7.4769882e-06
160	0xb7b41e30	-2.147173e-05
161	0xb896c8fd	-7.189994e-05
162	0x36c1480c	5.7602356e-06
163	0xba03c0ba	-0.0005025972
164	0x39b4725f	0.00034417488
165	0xb88dd8a1	-6.763754e-05
166	0x3848aad0	4.7842797e-05
167	0x3867976a	5.5215707e-05
168	0x38cc355d	9.737418e-05
169	0xb9baafef	-0.00035607765
170	0x384e5313	4.9191596e-05
171	0x3981ed03	0.00024781385
172	0xb861df43	-5.385211e-05
173	0x3871e134	5.7668614e-05
174	0x39d51430	0.00040641567
175	0xb8b71fa4	-8.7320135e-05
176	0x38b05ccd	8.4096195e-05
177	0xb72b6d06	-1.0217778e-05
178	0xb88db7d7	-6.757647e-05
179	0xb7e7580a	-2.7578342e-05
180	0xb759453a	-1.2950326e-05
181	0x38b86f0b	8.794487e-05
182	0x381c194f	3.721687e-05
183	0xb94fb286	-0.00019807564
184	0x37cc3858	2.4344932e-05
185	0xb53ffc25	-7.1519963e-07
186	0xb9a488a2	-0.00031382317
187	0x37cf6182	2.4721729e-05
188	0x37fab2fb	2.9885667e-05
189	0xb7b71c1a	-2.1828386e-05
190	0x389e5a73	7.5508746e-05
191	0xb6913f56	-4.32871e-06
192	0x3be936f2	0.0071171457
193	0xbc0efc11	-0.0087270895
194	0xba0debbb	-0.000541385
195	0x3c099dc6	0.0083994325
196	0xbc385698	-0.011251114
197	0xb8ffbf9f	-0.0001219504
198	0xbb95c6e1	-0.0045708274
199	0x3b902a10	0.0043995455
200	0xbc19863f	-0.009370386
201	0xbc0ede4b	-0.008719991
202	0xbbdd2e81	-0.0067499285
203	0xb929a5d1	-0.00016178867
204	0x3bd9f6dd	0.006651743
205	0xbb2417e2	-0.002503865
206	0x3b6433e9	0.003482098
207	0xbb5f536b	-0.003407682
208	0xbc37b1af	-0.011211797
209	0x3c06c8e3	0.008226606
210	0xba810ffb	-0.0009846681
211	0xbc0eff41	-0.008727849
212	0x388aa306	6.610718e-05
213	0xbb5555cf	-0.0032552367
214	0x3b730fce	0.0037088278
215	0xbc60e129	-0.013725557
216	0xb9d5dad7	-0.00040789574
217	0xba8e757b	-0.0010868752
218	0x3bddbd77	0.0067669707
219	0xbc27b467	-0.010235882
220	0xbb7e5fc9	-0.0038814417
221	0x3c0b41ff	0.008499621
222	0x3c03cc26	0.008044278
223	0x3c164c28	0.0091734305
224	0xbbbbda2b	-0.0057327948
225	0xbc177ad1	-0.00924559
226	0xbbee57cd	-0.0072736503
227	0xbba8e8f3	-0.005154723
228	0xbb06c8de	-0.0020566504
229	0xbbe6213f	-0.007023006
230	0xbc315e97	-0.010825775
231	0xbc3dd221	-0.011585743
232	0x39bb66f5	0.00035744128
233	0x3a9461bd	0.0011320632
234	0x3a271bf5	0.00063747104
235	0x3bd8024d	0.006592071
236	0xb989ad19	-0.00026259644
237	0xbc2daf23	-0.010600838
238	0x3bd9ae4f	0.0066430937
239	0x3c45991e	0.012060432
240	0x3ad26d75	0.0016054349
241	0xbc3756eb	-0.011190156
242	0xbc0b8948	-0.008516617
243	0xbb8dd4d7	-0.004328351
244	0x3bb591e5	0.0055410736
245	0xbae19990	-0.0017211903
246	0x3c252a2f	0.010080858
247	0x3b600553	0.003418286
248	0x3bc3ab04	0.0059713144
249	0x3b7ea7bd	0.0038857304
250	0xbb2ac4cd	-0.0026057244
251	0xbc057048	-0.008144446
252	0xbb87951a	-0.0041376473
253	0xb9946e48	-0.00028310926
254	0xbc3eed5f	-0.011653273
255	0x3810ea92	3.4550736e-05

bias_ih_l1 f4 [256]
0	0x3d51c8f5	0.05121704
1	0x3d3c5038	0.04597494
2	0xb9222192	-0.0001546203
3	0x3d059991	0.032617155
4	0x3d46be5d	0.04852139
5	0x3c6739c6	0.014112895
6	0x3c959f23	0.018264359
7	0x3c84c45b	0.01620691
8	0x3d281472	0.041035123
9	0x3d068119	0.03283796
10	0x3d07aac8	0.033121854
11	0x38896664	6.551741e-05
12	0x3cd32c27	0.02577789
13	0x3c837995	0.016049186
14	0x3c2c0411	0.010499016
15	0x3caeeb6a	0.021352489
16	0x3d4847da	0.048896648
17	0x3d0d5e3b	0.034513693
18	0x3a07e2b6	0.0005183624
19	0x3d1e76b5	0.038687427
20	0x3c24977b	0.010045881
21	0x3c1867c5	0.009302084
22	0x3c411810	0.011785522
23	0x3d51a597	0.05118331
24	0x3c3f1b12	0.011664169
25	0x3aeddcfb	0.0018147522
26	0x3cb8a437	0.022539241
27	0x3d05e5aa	0.032689728
28	0x3c691245	0.014225547
29	0x3d085002	0.033279426
30	0x3ce57d6e	0.028013911
31	0x3d08c143	0.033387434
32	0x3cc09fda	0.023513723
33	0x3d75057e	0.05981969
34	0x3ce9707f	0.028496025
35	0x3cc16d76	0.023611765
36	0x3c9e8a27	0.019352986
37	0x3cf87c9f	0.030332861
38	0x3d1baaae	0.03800457
39	0x3d3daa2c	0.046304867
40	0x3b2f0ca8	0.0026710425
41	0x3c88992f	0.016674606
42	0x39b4403d	0.00034380137
43	0x3ccffc3d	0.025388831
44	0xb99241e8	-0.00027896394
45	0x3d2cf940	0.04222989
46	0x3cf3a7e1	0.029743137
47	0x3d23bfb3	0.03997774
48	0x3ac7f454	0.001525531
49	0x3d3f921e	0.046770208
50	0x3d6c7d9d	0.05773698
51	0x3c1da956	0.009622892
52	0x3d14aede	0.03629958
53	0x3b1c82a8	0.0023881588
54	0x3d2b0659	0.0417541
55	0x3c974ab1	0.018468233
56	0x3d294bff	0.04133224
57	0x3c43720d	0.011929047
58	0x3c486d15	0.012233038
59	0x3d01b423	0.031665932
60	0x3c4b4aaf	0.012407943
61	0x3694c6f0	4.433903e-06
62	0x3d34df2b	0.044158142
63	0xb68b8064	-4.1574694e-06
64	0x3d882ad1	0.066487916
65	0x3d8f75a8	0.07004863
66	0xb930ae78	-0.00016849663
67	0x3d2be69b	0.04196797
68	0x3d849049	0.06472833
69	0x3c6a68e7	0.014307237
70	0x3cba7a09	0.022763269
71	0x3c87f1f9	0.016594874
72	0x3d4c474b	0.049872678
73	0x3d2fd430	0.042926967
74	0x3d30b6cd	0.043143082
75	0x38890305	6.5332315e-05
76	0x3d075845	0.033043165
77	0x3cb61a10	0.022229224
78	0x3c38afea	0.01127241
79	0x3caf4aea	0.021398026
80	0x3d81a2b2	0.0632986
81	0x3d246d91	0.040143553
82	0x38c090c9	9.182242e-05
83	0x3d4a5fe2	0.049407847
84	0x3c2572db	0.010098184
85	0x3c041d18	0.008063577
86	0x3c418d7e	0.0118135195
87	0x3d9d101d	0.07669089
88	0x3c30e5ab	0.010796945
89	0x3ae4c3ad	0.0017453335
90	0x3ce90b14	0.028447665
91	0x3d44dd53	0.048062634
92	0x3c601532	0.013676928
93	0x3d26e7de	0.04074847
94	0x3d152089	0.03640798
95	0x3d406ba9	0.046977673
96	0x3d02f4cf	0.03197175
97	0x3db5d1fb	0.08877941
98	0x3d1b9117	0.037980165
99	0x3cf7f98c	0.03027036
100	0x3ca11f2f	0.01966819
101	0x3d171fe4	0.036895648
102	0x3d5c6ad1	0.053812806
103	0x3d82fae6	0.06395511
104	0x3b0810cf	0.0020761972
105	0x3c854665	0.016268918
106	0x39967bbd	0.00028702422
107	0x3cff7374	0.031182982
108	0xb991c3b0	-0.00027802354
109	0x3d6fc70e	0.058539443
110	0x3d15c841	0.03656793
111	0x3d7e09d9	0.06202111
112	0x3a8d0369	0.0010758463
113	0x3d807a1f	0.06273293
114	0x3da08ea1	0.07839704
115	0x3c282f07	0.010265118
116	0x3d333650	0.04375297
117	0x3aea0dbe	0.0017856879
118	0x3d614f4f	0.055007275
119	0x3c91f44a	0.017816681
120	0x3d5985d7	0.053106155
121	0x3c4d2240	0.012520373
122	0x3c53fa8b	0.012938152
123	0x3d1bbffe	0.038024895
124	0x3c5a4c04	0.013323788
125	0xb59c5140	-1.1646553e-06
126	0x3d84eb46	0.06490187
127	0xb68cc4dc	-4.1952426e-06
128	0x3c9e3ee1	0.019317092
129	0xbdbbdd98	-0.09173125
130	0xbbde3c5e	-0.0067820987
131	0x3dc6ee7a	0.097134545
132	0xbde67764	-0.11253241
133	0x3b265534	0.0025380375
134	0xbd21b57c	-0.039479718
135	0x3d9c12cc	0.07620773
136	0xbdd46ec0	-0.103726864
137	0xbdc485ff	-0.0959587
138	0xbd8aee0c	-0.06783685
139	0x3a3a84fe	0.00071151543
140	0x3d9db47e	0.07700442
141	0xbd741acd	-0.05959587
142	0x3d5a65cc	0.053319737
143	0xbd3ddcae	-0.046353035
144	0xbde5f428	-0.1122821
145	0x3db9d3b3	0.090735815
146	0xbc35e0d2	-0.011100965
147	0xbdc07fe3	-0.093993925
148	0x3c3d3bc7	0.011549897
149	0xbd033494	-0.032032564
150	0x3d8bdb7e	0.06828974
151	0xbdebc4cd	-0.11512146
152	0x3c091e44	0.008369032
153	0xbc89becc	-0.016814612
154	0x3da6703f	0.08126878
155	0xbdbfe4e0	-0.09369826
156	0xbcc68e1e	-0.024237689
157	0x3dc4c146	0.096071765
158	0x3dbcfad8	0.09227532
159	0x3dbbe9ed	0.09175477
160	0xbd7b8283	-0.061403763
161	0xbbec212d	-0.0072061033
162	0xbd695622	-0.05696691
163	0xbd8cda7b	-0.06877609
164	0xbc950067	-0.018188668
165	0xbdb1841e	-0.086677775
166	0xbdcf6d4d	-0.10128269
167	0xbde4d702	-0.11173822
168	0x3c373d05	0.011183982
169	0xbc922512	-0.017839942
170	0x3c716d04	0.014735464
171	0x3da6c64c	0.08143291
172	0xbad8d100	-0.0016541779
173	0xbdd8add2	-0.105800286
174	0x3dae63bd	0.08515117
175	0x3dd88e77	0.10574048
176	0x3afe7a58	0.0019415123
177	0xbdd9dc10	-0.10637677
178	0xbd798870	-0.060921133
179	0xbd84b0b2	-0.064790145
180	0x3d33adab	0.043866795
181	0xbc48b4aa	-0.012250105
182	0x3dd014eb	0.1016024
183	0x3ba91232	0.0051596398
184	0xbbfa1718	-0.0076321475
185	0x3d5bbb59	0.053645466
186	0xbd3a2fc6	-0.045455717
187	0xbdba3051	-0.09091247
188	0xbd79107f	-0.060806748
189	0xba0a47aa	-0.0005274961
190	0xbde540fd	-0.11194036
191	0xba0aafce	-0.0005290479
192	0x3d78edef	0.060773786
193	0x3d7f7a51	0.06237251
194	0xb92db755	-0.00016566862
195	0x3d304efe	0.043044083
196	0x3d89f741	0.06736613
197	0x3c82635a	0.015916515
198	0x3cb3223f	0.021866916
199	0x3c8b8939	0.017033206
200	0x3d4fb9c7	0.05071428
201	0x3d35d80c	0.04439549
202	0x3d21790a	0.039422072
203	0x388d2e09	6.731979e-05
204	0x3d1369c4	0.035989538
205	0x3cdd10c8	0.026985541
206	0x3c386eb0	0.011256859
207	0x3cb30246	0.02185167
208	0x3d861ec8	0.0654884
209	0x3d289812	0.04116065
210	0x39940dc7	0.00028239025
211	0x3d591fe3	0.053008925
212	0x3c38c2a2	0.011276873
213	0x3c162552	0.009164171
214	0x3c480018	0.012207054
215	0x3da6c62d	0.08143268
216	0x3c406e7e	0.011745093
217	0x3ae487b7	0.0017435466
218	0x3cf4f212	0.029900584
219	0x3d51d86f	0.051231798
220	0x3c62421e	0.013809709
221	0x3d2d3196	0.042283617
222	0x3d1c746d	0.03819697
223	0x3d575234	0.05256863
224	0x3cf65c7b	0.030073395
225	0x3dac6b77	0.08418935
226	0x3d18bb65	0.03728809
227	0x3d0c69b2	0.034280486
228	0x3caf44c0	0.021395087
229	0x3d1dea95	0.038553793
230	0x3d65cdb2	0.05610437
231	0x3d885ce3	0.06658342
232	0x3b17cb31	0.0023161883
233	0x3c942f27	0.01808889
234	0x3999cff5	0.00029337374
235	0x3d08d14c	0.033402726
236	0xb990c1c6	-0.00027610193
237	0x3d78aafd	0.060709942
238	0x3d1e72c3	0.038683664
239	0x3d836630	0.06415975
240	0x3ab7c026	0.0014019057
241	0x3d84037c	0.06445977
242	0x3d95306d	0.07284627
243	0x3c34641a	0.011010194
244	0x3d2684d9	0.040654037
245	0x3b008dc8	0.0019615758
246	0x3d68c5d2	0.05682928
247	0x3c95f828	0.018306807
248	0x3d3f5010	0.046707213
249	0x3c4fe29f	0.012688308
250	0x3c5c46ae	0.013444586
251	0x3d1e685c	0.038673744
252	0x3c55349d	0.013013032
253	0x3609329b	2.0444047e-06
254	0x3d8d13c4	0.068885356
255	0xb6a00510	-4.768961e-06
