code/model_cat_rnn_entire.pt (torch, 247203 bytes, 10 tensors)

weight_ih_l0 f4 [256, 40]
0	0xba9d4cf5	-0.0012001084
1	0xba9ba061	-0.0011873358
2	0xba979ea4	-0.0011567664
3	0xba86c368	-0.0010281624
4	0xba695d73	-0.00089021696
5	0xba49d611	-0.000769944
6	0xba4533f8	-0.00075226976
7	0xba639cae	-0.000868271
8	0xba735123	-0.00092818047
9	0xba694128	-0.00088979537
10	0xba58f46c	-0.0008276168
11	0xba500c69	-0.00079364196
12	0xba57d6aa	-0.00082335866
13	0xba61cc28	-0.00086134905
14	0xba75a63a	-0.0009370778
15	0xba764a71	-0.0009395248
16	0xba6cf0ff	-0.0009038597
17	0xba5ea726	-0.0008493535
18	0xba5c78a2	-0.00084103097
19	0xba6f8351	-0.0009136694
20	0xba717fc6	-0.000921246
21	0xba7b8433	-0.00095945894
22	0xba7f336e	-0.00097351416
23	0xba8424d7	-0.001008178
24	0xba8dccc7	-0.0010818475
25	0xba961137	-0.0011449222
26	0xba95ed54	-0.0011438527
27	0xba9c6250	-0.0011931155
28	0xbaa64f39	-0.0012688405
29	0xbab98d81	-0.0014156551
30	0xbb2a0de7	-0.0025948228
31	0xbb3fe390	-0.0029279925
32	0xbb56945f	-0.0032742245
33	0xbb5ba3f9	-0.0033514483
34	0xbb5d2bad	-0.0033747957
35	0xbb5e1455	-0.003388663
36	0xbb73ef58	-0.0037221517
37	0xbb6151f9	-0.0034381135
38	0xbb62644c	-0.0034544645
39	0xbb54046e	-0.0032351273
40	0xbb0304a3	-0.0019991777
41	0xbb04fd5e	-0.002029262
42	0xbaffe535	-0.0019523265
43	0xbaf1ed0c	-0.0018457486
44	0xbae52537	-0.0017482404
45	0xbad691ee	-0.0016370395
46	0xbad43c4c	-0.0016192286
47	0xbad32e9c	-0.0016111913
48	0xbada5e23	-0.0016660135
49	0xbad276eb	-0.0016057169
50	0xbac7e1c0	-0.0015249774
51	0xbaca7170	-0.0015445184
52	0xbacfc2d5	-0.0015850911
53	0xbacd91ea	-0.0015683745
54	0xbad5b5a0	-0.0016304739
55	0xbad96a13	-0.0016587399
56	0xbade2cd3	-0.0016950615
57	0xbace0cb8	-0.0015720343
58	0xbabb6170	-0.0014296006
59	0xbabfe6cb	-0.0014640925
60	0xbac45b33	-0.0014980793
61	0xbac77a7f	-0.0015219002
62	0xbacb6464	-0.001551759
63	0xbacbaf08	-0.0015539834
64	0xbad69757	-0.0016372007
65	0xbae3904a	-0.0017361727
66	0xbadedc48	-0.0017002905
67	0xbaead6e1	-0.0017916822
68	0xbafb3ee4	-0.0019168523
69	0xbb1635b3	-0.002292019
70	0xbb5f0053	-0.0034027293
71	0xbb888bf6	-0.0041670753
72	0xbb88f52a	-0.0041796165
73	0xbb868f39	-0.004106429
74	0xbb867fc1	-0.004104585
75	0xbb87c6c3	-0.0041435673
76	0xbb8689cb	-0.0041057817
77	0xbb86cfb3	-0.004114115
78	0xbb84d5a8	-0.00405379
79	0xbb83b08e	-0.0040188497
80	0x3d04bfbb	0.03240941
81	0x3ca728ec	0.020405255
82	0x3c715433	0.014729547
83	0x3c2128f7	0.009836427
84	0x3c0734f1	0.008252368
85	0x3b40902d	0.002938281
86	0xbbb7634e	-0.005596555
87	0xbc3635a6	-0.011121189
88	0xbc393736	-0.011304667
89	0xbc2bb9f1	-0.010481344
90	0xbc2857c6	-0.010274833
91	0xbc44628b	-0.011986385
92	0xbc2d43d5	-0.010575254
93	0xbc20c34b	-0.0098121865
94	0xbc1e3f11	-0.009658591
95	0xbc1e9178	-0.009678237
96	0xbc357b5c	-0.011076774
97	0xbc5dd495	-0.013539453
98	0xbc64481c	-0.013933208
99	0xbc751d0b	-0.014960538
100	0xbc8044b7	-0.015657766
101	0xbc889274	-0.016671397
102	0xbca1d7c6	-0.01975621
103	0xbca02ab3	-0.01955161
104	0xbc9332b5	-0.017968515
105	0xbc6e825e	-0.014557449
106	0xbc4f091d	-0.01263645
107	0xbc8f865f	-0.017520128
108	0xbc96889c	-0.018375687
109	0xbc2f4953	-0.010698634
110	0xbc1e58e4	-0.009664748
111	0xb990fa01	-0.00027652088
112	0xb8d452e8	-0.0001012439
113	0xba86d2e7	-0.0010286242
114	0xbaf12ff4	-0.0018401132
115	0xbc363ff9	-0.011123651
116	0xbbdf5607	-0.006815675
117	0x39c6764c	0.0003785364
118	0x3b14e23c	0.0022717854
119	0xbb8a4045	-0.0042190873
120	0x3cb44221	0.022004189
121	0xbbc33021	-0.005956665
122	0xbc454878	-0.012041204
123	0x3cf48924	0.02985055
124	0x3c8fd4e2	0.017557565
125	0x3ca845a9	0.020541029
126	0xbbfe5ca1	-0.007762507
127	0x3b840c4c	0.004029786
128	0xbd3fba21	-0.046808366
129	0xbc3e7056	-0.011623463
130	0xba921332	-0.0011144637
131	0x3cce74b5	0.025202135
132	0xbc2a7bd4	-0.0104054995
133	0x3b6cb38b	0.0036117758
134	0x3d1d46a0	0.03839743
135	0xbced1fc0	-0.028945804
136	0x3b2718d2	0.0025496972
137	0x3c819d17	0.015821977
138	0xbcd5fadd	-0.026120597
139	0x3c9ca30c	0.019120716
140	0xbd4e0db0	-0.050306022
141	0xbd4a70f2	-0.04942412
142	0xbb774669	-0.0037731177
143	0xbc9b0ea0	-0.018927872
144	0xbd32090f	-0.04346567
145	0xbb7426c1	-0.0037254544
146	0xbc3eea2e	-0.0116525125
147	0xbc224919	-0.009905123
148	0x3d43739f	0.047717687
149	0xbc50e6c6	-0.012750333
150	0xbcb86a27	-0.022511555
151	0x3c6b56e5	0.014363979
152	0xbb5bad24	-0.0033519948
153	0xbd127756	-0.03575834
154	0xbb23cdbc	-0.0024994453
155	0x3b2a56ff	0.0025991795
156	0xbbcf29c7	-0.006322119
157	0x3d58882a	0.05286423
158	0x3c60a685	0.013711576
159	0xbc9d97ba	-0.019237388
160	0xbcef9532	-0.029245947
161	0xbc06c07a	-0.008224601
162	0xbc86ec0c	-0.016469978
163	0xbd2070e0	-0.039170146
164	0xbbe2670d	-0.0069092573
165	0xbbe3c81c	-0.006951345
166	0x3d3bccb3	0.045849513
167	0x3cd3ebe5	0.02586932
168	0x3c101eb5	0.008796384
169	0x3d215daa	0.039395966
170	0x3cac4220	0.021027625
171	0x3d09385f	0.033501025
172	0x3c44ff48	0.012023754
173	0x3c8fb6f4	0.017543294
174	0x3d06f407	0.032947566
175	0x3cab21a0	0.020890057
176	0x3c462793	0.012094396
177	0xbc9acbfd	-0.018896097
178	0xbc968a0b	-0.01837637
179	0x3a03707b	0.00050140143
180	0x3d73fc7b	0.059566956
181	0x3d62b6e5	0.055350203
182	0x3c520b27	0.012820042
183	0x3d83735e	0.06418489
184	0x3da52388	0.08063418
185	0x3d92a1c7	0.07159763
186	0xb8524191	-5.0128965e-05
187	0x3d013723	0.031546723
188	0x3cd8e50e	0.02647641
189	0x3d35de14	0.044401243
190	0x3d0578c2	0.032585867
191	0xbbb7d7ba	-0.0056104334
192	0xbd79f450	-0.06102401
193	0xbc6bd1eb	-0.01439331
194	0xbd301060	-0.042984366
195	0xbbcd414c	-0.0062638875
196	0xbc4f075b	-0.012636031
197	0x3c78024a	0.0151372645
198	0xbc198d9e	-0.009372143
199	0xbc227350	-0.009915188
200	0x3824d40d	3.9298135e-05
201	0xba39db1c	-0.000708984
202	0xb9cf935b	-0.00039591905
203	0xba394c9a	-0.00070686045
204	0xba2c5adb	-0.0006574818
205	0xba93d778	-0.0011279425
206	0xbaca6bf6	-0.0015443552
207	0xbaabfeeb	-0.0013122236
208	0xbb3dd723	-0.0028967343
209	0xbae0c500	-0.0017148554
210	0xbb12406c	-0.002231623
211	0xbaee2c28	-0.0018171119
212	0xbaf75b5d	-0.0018871833
213	0xbb1a8340	-0.0023576766
214	0xbada77d9	-0.0016667797
215	0xbb1aa1e1	-0.0023595023
216	0xbb2719a2	-0.0025497456
217	0xbb1765c9	-0.002310144
218	0xbb24baa1	-0.0025135654
219	0xbb3446e3	-0.0027508072
220	0xbb55febe	-0.003265306
221	0xbb46c5fc	-0.003033041
222	0xbb39be03	-0.0028342016
223	0xbb02bd70	-0.001994934
224	0xbb37aa15	-0.002802496
225	0xbb2cf48d	-0.002639088
226	0xbb97e677	-0.004635628
227	0xbb5b3145	-0.0033446115
228	0xbb88685e	-0.004162832
229	0xbb43e630	-0.002989184
230	0xbb86c0fc	-0.004112361
231	0xba1be83e	-0.00059473875
232	0xbadfb078	-0.0017066142
233	0xbb0a2707	-0.002108039
234	0xbb3a865e	-0.0028461437
235	0xbb13b489	-0.0022538027
236	0xbad4d49e	-0.0016237681
237	0xbb2d5af1	-0.002645191
238	0xbb4466f7	-0.0029968598
239	0xbb86b5cf	-0.0041110287
240	0xba94305f	-0.001130592
241	0xba92a8a4	-0.0011189175
242	0xbabd61be	-0.0014448685
243	0xbabf81ef	-0.0014610867
244	0xbac25837	-0.0014827315
245	0xbaa86e54	-0.0012850263
246	0xbad2c64d	-0.0016080827
247	0xbaed1afb	-0.0018089706
248	0xbaacf222	-0.001319472
249	0xba8f5e29	-0.0010938096
250	0xbb0046d2	-0.0019573462
251	0xbafb2c4d	-0.0019162983
252	0xbae0502c	-0.0017113737
253	0xbb04b170	-0.0020247363
254	0xbad55501	-0.0016275943
255	0xbb1826ba	-0.0023216442

weight_hh_l0 f4 [256, 64]
0	0xb8c9415d	-9.596602e-05
1	0xb9b3fc62	-0.0003432958
2	0xb9937f62	-0.00028132932
3	0xb688b539	-4.074213e-06
4	0x395d05a7	0.00021078308
5	0xb6ecc5d2	-7.0563774e-06
6	0xb894a715	-7.0883114e-05
7	0x380308cf	3.1241038e-05
8	0x3a043877	0.00050438143
9	0xb859b034	-5.1900934e-05
10	0xb6c78d81	-5.9471354e-06
11	0xb913b68b	-0.00014087015
12	0xb844a887	-4.6886995e-05
13	0xb80d8ee8	-3.375011e-05
14	0xb8c6f7d1	-9.487535e-05
15	0xb922ef71	-0.00015538723
16	0x39022b6e	0.00012413945
17	0xb91459a3	-0.00014147772
18	0xb88e3af0	-6.7820656e-05
19	0x398ad480	0.00026479736
20	0xb9689319	-0.00022180042
21	0x39361b62	0.00017367073
22	0xb928f3fd	-0.00016112621
23	0xb9f3d640	-0.000465082
24	0xb918c42f	-0.00014568934
25	0xb95b7328	-0.00020928367
26	0xb67d12ae	-3.771081e-06
27	0xb8608b34	-5.3535405e-05
28	0xb8636bb3	-5.422132e-05
29	0xb8609469	-5.354398e-05
30	0x398ef2da	0.0002726529
31	0xb8a880ce	-8.034856e-05
32	0x38a61ccd	7.9208614e-05
33	0xb8380da9	-4.388174e-05
34	0xb840fc99	-4.6011617e-05
35	0x38db4688	0.00010455871
36	0x39ab98c5	0.00032729484
37	0x36e88c90	6.9305024e-06
38	0x37def291	2.6577416e-05
39	0x38c66283	9.459725e-05
40	0x39953ad5	0.00028463328
41	0x37e34752	2.709372e-05
42	0xb826b1fc	-3.9743245e-05
43	0xb8aa9a33	-8.1349535e-05
44	0x39ac4e27	0.00032864625
45	0x39a2e8a8	0.0003107239
46	0x3967748e	0.00022073297
47	0xb805fe0b	-3.1946267e-05
48	0x381a722b	3.682279e-05
49	0x393f1dd7	0.00018226296
50	0xb960381f	-0.00021383211
51	0xb75d516c	-1.3191584e-05
52	0xb803fc23	-3.1467654e-05
53	0x36928d4f	4.3675896e-06
54	0xb869c2bd	-5.5732893e-05
55	0xb8b74010	-8.7380526e-05
56	0xb9bab86c	-0.0003561409
57	0x38b0617f	8.410494e-05
58	0x390b8789	0.00013306564
59	0xb916848f	-0.00014354497
60	0xb88eed29	-6.815262e-05
61	0xb8ee1a5c	-0.00011353634
62	0x386786c2	5.5200195e-05
63	0xb7e46197	-2.7225162e-05
64	0xbac738b1	-0.001519939
65	0xbb75e378	-0.0037519615
66	0xbb145339	-0.0022632612
67	0xb95d65c3	-0.00021114112
68	0xbb8cb281	-0.0042937403
69	0x3a2d8085	0.0006618577
70	0xbab3b798	-0.0013711331
71	0x3a9d2bdc	0.001199122
72	0x3b9ae30f	0.0047267745
73	0xbb0ed12c	-0.0021792157
74	0xbb49b2ba	-0.0030776695
75	0xbb2b029c	-0.0026094085
76	0x3a92cdda	0.0011200265
77	0xbac58bc6	-0.0015071563
78	0xba9ea366	-0.001210314
79	0xbb2620ca	-0.0025349134
80	0x3b2c869a	0.0026325346
81	0xbaa8b588	-0.0012871483
82	0xbacddb2d	-0.0015705578
83	0x3b75c90c	0.0037503866
84	0xbb5abf7a	-0.003337829
85	0x3b4b77f4	0.003104684
86	0xbaf6f598	-0.0018841503
87	0x3b3f8486	0.0029223277
88	0xbb0e83d4	-0.0021746056
89	0xbb584ceb	-0.003300483
90	0x381d4464	3.749541e-05
91	0xbab0b9b9	-0.0013483084
92	0xba265c44	-0.0006346146
93	0x39848d48	0.00025282265
94	0x3b542e38	0.0032376181
95	0xbb0a84c5	-0.0021136266
96	0x3b0f99b9	0.0021911694
97	0xba4c4c74	-0.0007793375
98	0xbab91c06	-0.0014122732
99	0x3b04a9d9	0.0020242839
100	0x3b82753f	0.003981262
101	0xbb22208e	-0.0024738642
102	0x39c8218b	0.00038171964
103	0x3af484ea	0.0018655334
104	0x3b595c3a	0.0033166544
105	0xba8f6dea	-0.0010942791
106	0xbb713ecd	-0.0036811114
107	0xbb095aad	-0.0020958588
108	0x3b9e89f3	0.004838222
109	0x3b85283d	0.0040636347
110	0x3b3fee05	0.0029286158
111	0xb8f2d15c	-0.000115784555
112	0x3a37bf53	0.00070094055
113	0x3af6a756	0.001881818
114	0xbb4f4aba	-0.0031630234
115	0xb9518510	-0.00019981363
116	0x39dcb7f2	0.0004209872
117	0x382f2f65	4.176739e-05
118	0xba1889a9	-0.0005818853
119	0xbac4bec3	-0.0015010465
120	0xbb7a1bef	-0.0038163622
121	0x3ade6437	0.0016967122
122	0x3b096a7e	0.0020968015
123	0xbad7e73d	-0.0016472113
124	0xbadb2f2a	-0.001672243
125	0xbb25d90b	-0.002530637
126	0x3a7bd634	0.0009606809
127	0xbb096c94	-0.0020969259
128	0xba89ceae	-0.0010513866
129	0xbb3b2efb	-0.0028561938
130	0xba67be43	-0.0008840302
131	0x3a05cb22	0.00051038165
132	0xbb4e4638	-0.003147496
133	0xb9f6b1a7	-0.00047053138
134	0xba60e2e9	-0.0008578734
135	0x3a742ebd	0.0009314826
136	0x3b644354	0.003483017
137	0xbaa07550	-0.0012241993
138	0xbaca472f	-0.0015432591
139	0xba9968e4	-0.0011704233
140	0x3a334f9a	0.00068401697
141	0xba8ccfc7	-0.0010743075
142	0xba6898d4	-0.0008872871
143	0xba566c34	-0.00081795757
144	0x3a608e19	0.0008566096
145	0xba9660d3	-0.0011472948
146	0x38852664	6.349085e-05
147	0x3b3170d0	0.0027075298
148	0xbb1c8ef8	-0.0023888927
149	0x3a91023b	0.0011063287
150	0xbab864e2	-0.0014068151
151	0x3b1a0d51	0.0023506472
152	0xba95b9d5	-0.001142318
153	0xbb20e556	-0.0024550757
154	0x3a0643a1	0.0005121772
155	0xba49d2ee	-0.00076989725
156	0xba2c1104	-0.0006563815
157	0x39380a9b	0.00017551558
158	0x3b12631a	0.0022336901
159	0xba77d482	-0.00094539684
160	0x3ae44118	0.0017414419
161	0xb99da60e	-0.00030069094
162	0xba5ff58a	-0.0008543363
163	0x3a965ddf	0.0011472068
164	0x3b45af6f	0.003016438
165	0xbacb1542	-0.0015494006
166	0x3a07f0df	0.0005185734
167	0x3a8e9e97	0.0010881004
168	0x3b30bd16	0.0026968173
169	0xba2f56a0	-0.00066886283
170	0xba7ee576	-0.00097235234
171	0xba52f5b6	-0.0008047478
172	0x3b125233	0.0022326827
173	0x3a9296ae	0.0011183822
174	0x3b20fd7e	0.0024565156
175	0xba2ba58f	-0.00065478025
176	0x39e5e638	0.0004384981
177	0x3aa09f2f	0.0012254472
178	0xbb1567c4	-0.0022797445
179	0xb85e746f	-5.303736e-05
180	0xb990a6b8	-0.00027590035
181	0x38d86ae7	0.00010319595
182	0xb9d7c486	-0.00041154417
183	0xba816217	-0.0009871152
184	0xbb32e755	-0.002729853
185	0x3a82bd8c	0.0009974702
186	0x3acd3e6c	0.0015658862
187	0xbac4e726	-0.0015022501
188	0xba498e68	-0.00076887617
189	0xba435c40	-0.0007452406
190	0x3a1bf1b5	0.0005948798
191	0xba493191	-0.00076749275
192	0xb9390090	-0.00017643184
193	0xb9524ee0	-0.00020056544
194	0x384187af	4.614115e-05
195	0x382090b3	3.8281734e-05
196	0xb8b7566f	-8.7422195e-05
197	0x37d88f6b	2.581599e-05
198	0xb8f335d9	-0.00011597173
199	0x38e89d41	0.00011091913
200	0x37967fff	1.7940996e-05
201	0xb91b81ca	-0.00014830302
202	0xb711ee5f	-8.698174e-06
203	0xb9104601	-0.00013758989
204	0x38c7cedf	9.527592e-05
205	0xb6c3c280	-5.8340956e-06
206	0xb9b7fdb4	-0.00035093504
207	0xb8feb76c	-0.00012145829
208	0x387f4c53	6.086782e-05
209	0x378433f0	1.5759812e-05
210	0xb7740fab	-1.4547181e-05
211	0x39ab78e7	0.0003270574
212	0xb913fd5b	-0.00014113395
213	0x38cd1891	9.7797376e-05
214	0xb855ed89	-5.100438e-05
215	0x381c446b	3.7257018e-05
216	0x377879a9	1.4810278e-05
217	0xb9417965	-0.00018451137
218	0xb7211e46	-9.603396e-06
219	0xb8c93c93	-9.59571e-05
220	0xb979c66f	-0.00023820413
221	0x36eb0184	7.003722e-06
222	0xb74e9728	-1.2313751e-05
223	0xb70c9a96	-8.380643e-06
224	0x38a75b52	7.98019e-05
225	0xb6bbd725	-5.5980804e-06
226	0xb971a869	-0.00023046289
227	0x397f72d8	0.00024361478
228	0x3820b267	3.8313123e-05
229	0x3869406c	5.5611526e-05
230	0x387bcd7d	6.003444e-05
231	0x381b5838	3.703704e-05
232	0x39bc894b	0.00035960446
233	0xb7b06282	-2.1026706e-05
234	0xb7da154e	-2.5997546e-05
235	0x37275f4f	9.976166e-06
236	0x3945d39a	0.00018866212
237	0x37e93aad	2.7803088e-05
238	0x39d03806	0.00039714592
239	0xb967bcaa	-0.0002210016
240	0x3759c6a8	1.2980461e-05
241	0x36d11325	6.230914e-06
242	0xb881be0b	-6.1865976e-05
243	0xb5db9a04	-1.6361596e-06
244	0xb6b3b4e2	-5.3556732e-06
245	0x379a8afd	1.8422952e-05
246	0xb8a8657d	-8.029768e-05
247	0xb999500a	-0.00029242068
248	0xb99dfba7	-0.0003013287
249	0x3911b31a	0.00013894998
250	0x39abe78f	0.00032788186
251	0x382ea78f	4.1640884e-05
252	0xb89b0b68	-7.3931005e-05
253	0xb8e1d404	-0.00010768327
254	0xb980a200	-0.00024534762
255	0xb8bd3baa	-9.0233356e-05

bias_ih_l0 f4 [256]
0	0x3ac29941	0.0014846699
1	0x3c2486c0	0.0100418925
2	0x3bfe0657	0.0077522206
3	0xb6c502f9	-5.8714036e-06
4	0x3cc35c07	0.023847593
5	0x3b77f3aa	0.0037834444
6	0xb9cc7921	-0.0003900016
7	0x386a2ff6	5.5834615e-05
8	0x3d0d73fb	0.034534436
9	0x3b19ce9e	0.00234691
10	0x3c1af388	0.009457476
11	0x3b4c26e1	0.0031151103
12	0x3a0afaf0	0.0005301675
13	0x3b8438d0	0.004035093
14	0x3aa3a24e	0.0012484284
15	0x3ca2600f	0.019821195
16	0x3c27f3b5	0.010250975
17	0x3ba56bf0	0.0050482675
18	0x3bc984bd	0.006149857
19	0x3c2cd850	0.01054962
20	0x3c56555d	0.013081876
21	0x3c848b2b	0.016179642
22	0x3bab650e	0.0052305525
23	0x3c298428	0.01034645
24	0x3b1578b6	0.0022807545
25	0x3bea3fda	0.007148725
26	0xbc023ba4	-0.00794879
27	0x38ac97c5	8.2298684e-05
28	0xb811a8c0	-3.4727855e-05
29	0x388e2cfe	6.779468e-05
30	0x3bd3fc7a	0.0064693065
31	0x3b3645b6	0.0027812547
32	0x3bd0e403	0.0063748374
33	0x3b95c6c9	0.004570816
34	0x3a9051a9	0.0011010665
35	0x3ba4192a	0.0050078826
36	0x3c2dedff	0.010615825
37	0x3b89ac36	0.0042014373
38	0xb8dcf065	-0.000105351945
39	0x3b23fd91	0.0025022964
40	0x3c165520	0.009175569
41	0x3aaa203d	0.0012979578
42	0x3c92b842	0.017910127
43	0x3a7f3de0	0.0009736698
44	0x3cf3da28	0.029767111
45	0x3cad7555	0.021174112
46	0x3be56646	0.0070007173
47	0x3a30d9f7	0.00067463465
48	0x393f85a4	0.00018264964
49	0x3c0e0393	0.008667844
50	0x3c2883a1	0.010285289
51	0xb86009b2	-5.341479e-05
52	0x39ec7502	0.00045100605
53	0xb8aeeb38	-8.3407795e-05
54	0x39f53527	0.00046769643
55	0x3ad71420	0.0016409196
56	0x3c25d355	0.010121186
57	0x3b108231	0.0022050256
58	0x3bd8a60c	0.006611591
59	0x3b86f694	0.00411875
60	0xb97e9f33	-0.00024282634
61	0x3c285d0a	0.0102760885
62	0x3a6b5bed	0.00089782366
63	0x3b2136e4	0.0024599368
64	0x3bbc4640	0.005745679
65	0x3cce5f8f	0.02519205
66	0xbc3de54d	-0.011590314
67	0xbc1585ad	-0.009126109
68	0x3ca958f6	0.020672303
69	0xbc13e56b	-0.0090268655
70	0xbb77e4b7	-0.0037825534
71	0xbb61e391	-0.0034467916
72	0x3d011e2d	0.03152292
73	0x3ae9b642	0.0017830806
74	0x3c0024e4	0.007821295
75	0x3bcb2f1b	0.006200684
76	0x3c3d1916	0.0115416255
77	0x3b34641a	0.0027525485
78	0xba864638	-0.0010244315
79	0x3c5f2faa	0.013622204
80	0x3c0ff048	0.008785315
81	0x3ad445a6	0.0016195073
82	0xbc5d5009	-0.013507851
83	0x3cc7af78	0.024375662
84	0x3c3aedb6	0.011409214
85	0x3c5ecd66	0.0135987755
86	0x3c72cde6	0.014819598
87	0x3ca34648	0.019930974
88	0x3aae89f0	0.0013316255
89	0x3c92469e	0.017855939
90	0xbc0b173a	-0.008489424
91	0xb60855a3	-2.0315426e-06
92	0xbb503362	-0.0031768908
93	0x38c82c4f	9.544996e-05
94	0x3c301816	0.01074793
95	0x3b23a0ca	0.0024967664
96	0x3c867cec	0.01641699
97	0x3b4421d0	0.002992738
98	0x3c0ed659	0.008718097
99	0x3c535e34	0.012900878
100	0x3ccd92cb	0.02509441
101	0x3b6e1ce9	0.003633315
102	0x394aaccf	0.00019328597
103	0x3b44dd4e	0.0030039134
104	0x3ccb7333	0.024835205
105	0x3a980739	0.0011598832
106	0x3c492f4d	0.012279344
107	0x3b73f958	0.0037227478
108	0x3d475f4a	0.04867486
109	0x3c0a751e	0.0084507745
110	0x3ca182a2	0.01971561
111	0xbb9474ee	-0.0045305407
112	0x392e19ec	0.0001660359
113	0x3bcca059	0.006244701
114	0x3c0ca35b	0.008583869
115	0xb83345c8	-4.2741915e-05
116	0x39e1aadc	0.00043042644
117	0xb7cceae4	-2.4428075e-05
118	0x3afbe473	0.0019217863
119	0x3ba7c28f	0.0051196287
120	0x3cc1e36e	0.023668017
121	0x3bfc05de	0.007691129
122	0x3c96883d	0.01837551
123	0x3b517b82	0.0031964486
124	0xbb6cd7ab	-0.003613929
125	0x3bf2321b	0.007391227
126	0x3a2ebb23	0.0006665459
127	0xbbd82ffd	-0.0065975175
128	0xbcb5207c	-0.022110216
129	0xbdb40519	-0.08790035
130	0xbdc2abf2	-0.09505452
131	0xbb890599	-0.0041815755
132	0xbde82a42	-0.11336185
133	0x3cdf4a30	0.027257055
134	0xbca1e82c	-0.019764028
135	0x3cd63970	0.026150435
136	0x3e165499	0.14680709
137	0xbd530153	-0.051514935
138	0xbd7511d5	-0.05983146
139	0xbd23b9aa	-0.039971985
140	0x3c2d628d	0.010582578
141	0xbd158343	-0.036502134
142	0xbcb6cb2f	-0.022313682
143	0xbd85ccc0	-0.065331936
144	0x3d825eb5	0.0636572
145	0xbd11faa2	-0.035639413
146	0xbd83cd98	-0.06435698
147	0x3daa33e0	0.083106756
148	0xbdd1c5a0	-0.10242772
149	0x3d9e28b7	0.077226095
150	0xbd20514b	-0.039140027
151	0x3da01d9b	0.07818147
152	0xbd40cf99	-0.04707298
153	0xbda2a237	-0.07941096
154	0xbc6376e5	-0.013883327
155	0xbb832d0f	-0.004003174
156	0xbb6be721	-0.0035995918
157	0x3c010334	0.007874299
158	0x3d81ba88	0.06334406
159	0xbd1c637e	-0.03818082
160	0x3d4d431f	0.05011284
161	0x3b4fdaf8	0.003171621
162	0xbc3aec7c	-0.011408921
163	0x3ce743b6	0.02823053
164	0x3dc9fe67	0.098629765
165	0xbd24d00c	-0.04023747
166	0xbbf9dbdb	-0.007625086
167	0x3d0a0693	0.033697676
168	0x3dad26b3	0.08454647
169	0xbcfa4952	-0.03055254
170	0xbd85a377	-0.06525319
171	0xbc97c457	-0.01852624
172	0x3de28de2	0.11062218
173	0x3d9cdaa1	0.07658888
174	0x3da2fc2b	0.079582535
175	0x3c1ad34e	0.009449793
176	0x3c4ecff9	0.012622827
177	0x3d4ced67	0.050031092
178	0xbdce1776	-0.100630686
179	0xbb872e37	-0.0041253823
180	0xbc630aa0	-0.013857514
181	0x3a5875b1	0.00082572835
182	0xbbd9c2b3	-0.0066455244
183	0xbcd1a719	-0.025592374
184	0xbdbad9fc	-0.091236085
185	0x3cfe0621	0.031008782
186	0x3d25cff6	0.04048153
187	0xbd26a259	-0.04068217
188	0xbcec1e08	-0.028822914
189	0xbd4209f0	-0.04737276
190	0x3c95caf0	0.018285245
191	0xbcf17910	-0.029476672
192	0x3bac2a8f	0.005254097
193	0x3d204775	0.039130647
194	0xbc7a3479	-0.0152712995
195	0xbbd68108	-0.0065461434
196	0x3cd736c8	0.026271239
197	0xbc6e1815	-0.014532109
198	0xbc34cb96	-0.011034867
199	0xbbfa10cd	-0.0076313973
200	0x3d1f3f09	0.038878474
201	0x3a6fdca0	0.0009150002
202	0x3c16bc26	0.0092001315
203	0x3bc101e2	0.005890117
204	0x3c59fa3a	0.013304288
205	0x3b424bf9	0.0029647334
206	0xbb85637d	-0.004070698
207	0x3c760064	0.015014742
208	0x3c2a2702	0.010385277
209	0x3b8fdb7b	0.004390178
210	0xbcac37da	-0.021022726
211	0x3d0a3ab3	0.033747386
212	0x3c62a14f	0.013832404
213	0x3c838a9d	0.016057307
214	0x3c8e9def	0.017409293
215	0x3cf56ce7	0.029959155
216	0x3b137589	0.0022500476
217	0x3cdc1ebc	0.026870124
218	0xbc2534cd	-0.0100833895
219	0xbba87c54	-0.005141774
220	0xbbdf0c63	-0.0068068965
221	0x38ad5f2b	8.267009e-05
222	0x3c418e84	0.0118137635
223	0x3b3916f8	0.002824245
224	0x3cc11de5	0.023573825
225	0x3b887c36	0.0041651977
226	0x3be6bafb	0.007041333
227	0x3c82eafd	0.015981192
228	0x3d15d20c	0.03657727
229	0x3b74da28	0.0037361477
230	0xbae1d38f	-0.0017229187
231	0x3b4c6beb	0.0031192254
232	0x3d0b195c	0.03395973
233	0x3aab5117	0.0013070431
234	0x3c891561	0.016733827
235	0x3b4e3358	0.0031463709
236	0x3d864564	0.06556204
237	0x3c9327d4	0.017963327
238	0x3cfb1731	0.030650707
239	0xbc5d8c87	-0.013522274
240	0x3951c5a7	0.00020005424
241	0x3bf57622	0.007490889
242	0x3c330147	0.0109255975
243	0xb8433147	-4.6537516e-05
244	0x3a499b38	0.0007690671
245	0xb8b1809b	-8.463972e-05
246	0x3abc6005	0.0014371878
247	0x3bc27dd0	0.005935408
248	0x3d16063f	0.03662705
249	0x3be58cbc	0.0070053022
250	0x3cb4087b	0.0219767
251	0x3b70c295	0.0036737074
252	0xbc0a8a67	-0.008455849
253	0x3c1c1f15	0.009528895
254	0x3a5f158e	0.0008509987
255	0xb5b9d3fb	-1.3845269e-06

bias_hh_l0 f4 [256]
0	0x3ac37c86	0.001491443
1	0x3c248493	0.010041374
2	0x3bfe05b6	0.0077521456
3	0x36eb6b81	7.016061e-06
4	0x3cc355e9	0.023844676
5	0x3b6dd4b9	0.0036290123
6	0xb9b9d3b7	-0.0003544369
7	0x3872daf9	5.790123e-05
8	0x3d0a4fb8	0.033767432
9	0x3b196e8e	0.0023411843
10	0x3c19c8bb	0.009386237
11	0x3b478a03	0.0030447252
12	0x3a141055	0.00056481856
13	0x3b8723e1	0.00412415
14	0x3ac2c934	0.0014860989
15	0x3ca3379d	0.01992398
16	0x3c27c0ac	0.010238808
17	0x3bb136d2	0.0054081464
18	0x3bc974cf	0.006147958
19	0x3c2cd71e	0.010549335
20	0x3c56555c	0.013081875
21	0x3c84de1c	0.016219191
22	0x3ba5d923	0.005061285
23	0x3c29a344	0.010353867
24	0x3b17c5b2	0.0023158607
25	0x3bea688f	0.0071535776
26	0xbb8bef4a	-0.004270469
27	0xb921350f	-0.00015373922
28	0xb814993d	-3.5428664e-05
29	0x388efa42	6.817702e-05
30	0x3bd32e72	0.0064447457
31	0x3b378fb2	0.0028009233
32	0x3bd0e381	0.006374777
33	0x3b941b78	0.004519876
34	0x3a8b1b9e	0.0010613089
35	0x3b93ca2f	0.004510186
36	0x3c2de39f	0.010613351
37	0x3b889400	0.0041680336
38	0xb8fe9d1a	-0.00012140926
39	0x3b20f21e	0.0024558376
40	0x3c166ac7	0.009180731
41	0x3aaad7a0	0.0013034232
42	0x3c92c6eb	0.017917117
43	0x3a9e5cda	0.0012082115
44	0x3cf3be7b	0.029753914
45	0x3cacfb2e	0.021115866
46	0x3be4c6f9	0.006981727
47	0x39dfbda1	0.0004267516
48	0x3951e32a	0.00020016418
49	0x3c0e22c2	0.008675279
50	0x3c289d84	0.010291461
51	0xb85ffe16	-5.340398e-05
52	0x39d28570	0.0004015374
53	0xb88547fc	-6.355342e-05
54	0x39f52b01	0.00046762082
55	0x3ad896d0	0.0016524438
56	0x3c26e6bd	0.010186848
57	0x3b11087c	0.0022130301
58	0x3bdf762b	0.0068195066
59	0x3b86f5f8	0.004118677
60	0xb980b659	-0.00024549922
61	0x3c2b1393	0.010441679
62	0x3a6b84d4	0.00089843315
63	0x3b399fb7	0.0028323957
64	0x3bbbd0be	0.005731671
65	0x3cce546e	0.025186744
66	0xbc3df5da	-0.01159426
67	0xbc19d483	-0.009389046
68	0x3ca95ab1	0.020673128
69	0xbc134708	-0.008989103
70	0xbb6c3b54	-0.0036046105
71	0xbb61e79b	-0.0034470323
72	0x3d012a91	0.031534735
73	0x3aea094e	0.0017855556
74	0x3bff3ea1	0.0077894484
75	0x3bcb88b0	0.006211363
76	0x3c3c7c77	0.011504284
77	0x3b3273e6	0.0027229725
78	0xba88f897	-0.0010450062
79	0x3c5f3a9f	0.013624816
80	0x3c0e855d	0.0086987885
81	0x3ad1866f	0.0015985499
82	0xbc5c8632	-0.013459729
83	0x3cc7aa1b	0.024373105
84	0x3c3b0dad	0.011416835
85	0x3c5e2d4b	0.013560603
86	0x3c72d6f4	0.014821757
87	0x3ca307f7	0.019901259
88	0x3ab6a177	0.0013933618
89	0x3c9224a1	0.017839732
90	0xbc0c80b5	-0.008575608
91	0xb8a91bfe	-8.063762e-05
92	0xbb500479	-0.0031740947
93	0x388f3fc5	6.830649e-05
94	0x3c3025fa	0.010751242
95	0x3b1ba535	0.0023749594
96	0x3c8582b8	0.016297683
97	0x3b3e671d	0.002905316
98	0x3c0ea6a1	0.00870672
99	0x3c52c822	0.012865098
100	0x3ccd8305	0.025086889
101	0x3b704a48	0.0036665369
102	0x393606d9	0.00017359424
103	0x3b3baf17	0.0028638297
104	0x3ccbbc16	0.02486996
105	0x3a98bd7f	0.0011653154
106	0x3c488ae5	0.012240146
107	0x3b7965a0	0.0038054958
108	0x3d475f25	0.04867472
109	0x3c0a526c	0.0084425025
110	0x3ca18203	0.019715315
111	0xbb944a87	-0.004525486
112	0x3931cf41	0.00016957243
113	0x3bd14da5	0.00638743
114	0x3c0cb3bb	0.008587773
115	0xb8399cd3	-4.425349e-05
116	0x399511ba	0.00028432702
117	0xb7eb94b9	-2.8083437e-05
118	0x3afc1a5c	0.001923393
119	0x3ba7fe92	0.0051267827
120	0x3cc1e776	0.02366994
121	0x3bfbf9ad	0.007689676
122	0x3c973ba3	0.018461054
123	0x3b517c58	0.0031964984
124	0xbb6adccc	-0.0035837172
125	0x3bf548e5	0.0074854963
126	0x3a3d3f04	0.0007219168
127	0xbbddc02d	-0.006767294
128	0xbca91272	-0.020638678
129	0xbdc23d99	-0.09484405
130	0xbdb46d4b	-0.088099085
131	0xbb961b37	-0.004580881
132	0xbdf0eaee	-0.11763559
133	0x3cf1bb24	0.02950818
134	0xbc45a259	-0.0120626325
135	0x3cd57e44	0.026061185
136	0x3e1ae576	0.15126595
137	0xbd5647d1	-0.052314583
138	0xbd7f738f	-0.062366065
139	0xbd2a1f8d	-0.041533995
140	0x3c3cecad	0.011531037
141	0xbd1966a3	-0.037451398
142	0xbcb69e64	-0.022292323
143	0xbd6399c3	-0.05556656
144	0x3d816c8b	0.06319531
145	0xbd0de413	-0.034641337
146	0xbd7f614b	-0.062348645
147	0x3daf95f0	0.0857352
148	0xbdcfba87	-0.10142999
149	0x3dab8453	0.08374848
150	0xbd21b48b	-0.03947882
151	0x3d50f113	0.051011156
152	0xbd392ed3	-0.04521067
153	0xbd9ac248	-0.075565875
154	0xbbd058a6	-0.006358224
155	0xbb7fd09d	-0.0039034255
156	0x3ae3d849	0.0017383184
157	0x3c13779d	0.009000686
158	0x3dadef3a	0.084928945
159	0xbd318bd2	-0.043346234
160	0x3d2091a6	0.0392014
161	0xbc4e5906	-0.012594467
162	0xbc3a9aef	-0.011389478
163	0x3ce6fd1f	0.02819687
164	0x3dd464f4	0.10370818
165	0xbd239df2	-0.03994555
166	0xbbfe8269	-0.007767011
167	0x3d124ee4	0.035719767
168	0x3dad6ef5	0.08468429
169	0xbce46445	-0.027879843
170	0xbd81ff72	-0.063475505
171	0xbc980432	-0.018556688
172	0x3e207aa3	0.15671782
173	0x3db536b6	0.08848326
174	0x3da75628	0.0817073
175	0x3c10a362	0.008828016
176	0x3c2290ac	0.009922188
177	0x3d3b237a	0.04568813
178	0xbda761c6	-0.08172946
179	0xbc3aedbc	-0.011409219
180	0xbc630f35	-0.013858606
181	0x3a3ced5f	0.0007207002
182	0xbc7d9cb5	-0.015479256
183	0xbcef823b	-0.029236903
184	0xbdb97566	-0.09055595
185	0x3ceff119	0.029289769
186	0x3d2402df	0.0400418
187	0xbd3470c0	-0.04405284
188	0xbca5b461	-0.020227613
189	0xbd61c1ff	-0.05511665
190	0x3c9c75af	0.019099085
191	0xbce570d3	-0.0280079
192	0x3bb00f92	0.00537295
193	0x3d2004e6	0.03906717
194	0xbc7a2f65	-0.015270089
195	0xbbdba979	-0.0067035523
196	0x3cd7389b	0.026272109
197	0xbc6e11a5	-0.014530574
198	0xbc34dd23	-0.011039051
199	0xbbfae1ab	-0.0076562962
200	0x3d1e3f1e	0.038634412
201	0x3a703b8b	0.0009164146
202	0x3c16a1dd	0.009193865
203	0x3bc10d81	0.0058915024
204	0x3c576eb3	0.013148951
205	0x3b486c1f	0.0030582023
206	0xbb82c71d	-0.0039910213
207	0x3c7879d1	0.015165762
208	0x3c2b63d0	0.010460809
209	0x3b8f4f55	0.004373471
210	0xbcac4cc3	-0.021032697
211	0x3d0a2353	0.033725094
212	0x3c62a084	0.013832215
213	0x3c82e4ca	0.015978236
214	0x3c8ecc38	0.017431363
215	0x3cf59b34	0.029981233
216	0x3b0ef2b1	0.0021812136
217	0x3cdc4196	0.026886743
218	0xbc25c4ec	-0.010117751
219	0xbbb4aabc	-0.005513517
220	0xbbe02412	-0.0068402374
221	0x38dfbb75	0.00010668385
222	0x3c413609	0.011792668
223	0x3b33b69b	0.0027422074
224	0x3cc0de97	0.02354364
225	0x3b888a64	0.004166888
226	0x3be6b6b2	0.007040822
227	0x3c82eb10	0.015981227
228	0x3d15bfea	0.036559977
229	0x3b74a211	0.0037328044
230	0xbae827a3	-0.0017712008
231	0x3b4b479e	0.003101803
232	0x3d0aeb74	0.03391595
233	0x3aaac5d9	0.0013028934
234	0x3c894cf9	0.016760336
235	0x3b4dfaef	0.0031430086
236	0x3d8644a3	0.0655606
237	0x3c939cb9	0.018019067
238	0x3cfb1b48	0.030652657
239	0xbc5d8e69	-0.013522723
240	0x39697d0b	0.00022267194
241	0x3bf96fd5	0.0076122084
242	0x3c3303d1	0.010926203
243	0xb8430604	-4.6497225e-05
244	0x3a4e3ea2	0.00078676094
245	0xb8bcd5c2	-9.004354e-05
246	0x3abda928	0.0014469968
247	0x3bc2405b	0.005928082
248	0x3d161c6a	0.03664819
249	0x3bdb1f04	0.006687047
250	0x3cb40405	0.021974573
251	0x3b6c93f7	0.0036098936
252	0xbc0acb61	-0.008471341
253	0x3c1d1143	0.009586635
254	0x3a5d7458	0.00084478175
255	0xb97bb662	-0.00024005168

weight_ih_l1 f4 [256, 64]
0	0xbd1aab2d	-0.037760902
1	0xbc8d6708	-0.017261043
2	0x3ce64afb	0.028111925
3	0x3d01a77d	0.03165387
4	0xbc6b9b4e	-0.014380289
5	0xbcead1e4	-0.028664537
6	0xbd02322d	-0.031786133
7	0x3d1492fb	0.036272984
8	0x3c615599	0.013753318
9	0xbd0c1771	-0.034202043
10	0xbbb27a6a	-0.005446722
11	0xbcda34dd	-0.026636535
12	0x3bd3ca21	0.0064633046
13	0xbb7120c5	-0.0036793214
14	0xbc9a21d1	-0.018814953
15	0x3c160d5f	0.009158461
16	0x3b65b90f	0.003505293
17	0xbbe58f70	-0.0070056245
18	0x3cdee528	0.02720888
19	0x3c8ee5fc	0.01744365
20	0xbc0233ef	-0.007946952
21	0x39a1c526	0.000308552
22	0xbc3a2ad8	-0.011362754
23	0x3c83bf3f	0.016082404
24	0xbd03d0be	-0.032181494
25	0xbc6a5187	-0.014301664
26	0x3cf0c2ac	0.029389702
27	0xbce13559	-0.027491258
28	0xbd0d6004	-0.034515396
29	0x3a37ee92	0.0007016446
30	0x3d1dfa49	0.03856877
31	0xbb581790	-0.0032973029
32	0x3c67487f	0.0141164055
33	0x3c011028	0.007877387
34	0xbbbc7516	-0.0057512624
35	0x3c3292dd	0.010899273
36	0x3c9031e9	0.017601924
37	0xbb06cebf	-0.0020570008
38	0x3c8f8b50	0.017522484
39	0x3b4a459f	0.0030864251
40	0x3c836c46	0.01604284
41	0xbb91f217	-0.004453908
42	0x3bc7c9ad	0.0060970397
43	0xbcd8e245	-0.026475081
44	0x3d23b832	0.039970584
45	0xbc6adf5b	-0.014335479
46	0x3c6c0427	0.014405287
47	0xbcff722d	-0.031182373
48	0x3ab0cd77	0.0013488968
49	0x3b75787a	0.0037455843
50	0xbc0def59	-0.008663022
51	0xba0f0e38	-0.0005457136
52	0xbab874b6	-0.0014072869
53	0x3aa34e70	0.0012459289
54	0xba969d67	-0.0011491001
55	0xbc0d065a	-0.008607471
56	0xbc975106	-0.018471252
57	0x3c1a8b9b	0.009432699
58	0x3c4c075b	0.012452926
59	0xbb0d0af7	-0.0021521428
60	0xbd10000a	-0.035156287
61	0x3b395fe0	0.0028285906
62	0x3aa5983a	0.0012633868
63	0x3c69a9eb	0.014261703
64	0xbbc2c391	-0.0059437235
65	0xbcce81a5	-0.025208304
66	0xbc75febc	-0.015014347
67	0xbc01fd21	-0.007933886
68	0xbc8a36e6	-0.01687188
69	0x3c032f36	0.008006861
70	0x3b51519d	0.0031939514
71	0xbb36050b	-0.0027774002
72	0x3c9464d4	0.018114485
73	0x3a3e676c	0.0007263336
74	0xbc0298ca	-0.007970998
75	0xbb86b5b5	-0.0041110166
76	0x3bc594f9	0.006029722
77	0xbbabe831	-0.005246185
78	0x3b86ef39	0.004117873
79	0xbbebfc09	-0.007201676
80	0x3c04a86c	0.0080967955
81	0xbc155563	-0.009114596
82	0xbc1f42fe	-0.009720562
83	0x3caa2c6d	0.020773137
84	0xbc36599f	-0.011129766
85	0x3c37dc05	0.01122189
86	0xbc6859d8	-0.014181577
87	0x3ca0365e	0.019557174
88	0x3b384be9	0.0028121418
89	0xbc9b0a05	-0.018925676
90	0xbbd929e0	-0.0066273063
91	0x3bc539e2	0.006018863
92	0xbaf1c6a7	-0.0018446044
93	0x3a9b19de	0.001183327
94	0x3a8081dc	0.0009804326
95	0xbbae54cb	-0.0053201667
96	0x3c8df617	0.017329259
97	0xbba83547	-0.0051333043
98	0xbc2cb4d7	-0.010541162
99	0x3c6ca662	0.014443966
100	0x3cbdb2f7	0.023156626
101	0xbb979f39	-0.004627135
102	0xb9bdc013	-0.00036191996
103	0x3b919ff0	0.004444115
104	0x3ca18a2c	0.019719206
105	0xbb97d683	-0.004633726
106	0xbc240887	-0.010011799
107	0xbadb7b71	-0.0016745162
108	0x3bd72df7	0.0065667587
109	0x3c9a56ff	0.018840311
110	0x3c9dd373	0.019265866
111	0x3bb86f95	0.005628536
112	0x3af3cb5b	0.0018600033
113	0x3bc271b2	0.0059339637
114	0xbc45cee4	-0.012073252
115	0xba09bdc5	-0.0005254413
116	0xbacfb2fa	-0.0015846186
117	0x398cdacd	0.000268659
118	0x39d48085	0.00040531546
119	0xbc3b9bbc	-0.011450704
120	0xbcbb16ee	-0.022838082
121	0x3c1a5abe	0.009421049
122	0x3c849733	0.016185379
123	0xbbba57ca	-0.005686735
124	0x3b7225a1	0.0036948698
125	0xbc22575c	-0.009908523
126	0x3b7bdb80	0.0038430393
127	0xbbea0947	-0.007142219
128	0xb765ff7b	-1.3708947e-05
129	0xb72351d9	-9.734614e-06
130	0x377e6c06	1.5164731e-05
131	0x36a90e58	5.0382623e-06
132	0xb5499440	-7.5094067e-07
133	0xb69c3e17	-4.6563905e-06
134	0xb802a5d7	-3.1148866e-05
135	0x3807a1d8	3.2337237e-05
136	0xb5eb2361	-1.7519161e-06
137	0xb7c7b53b	-2.380704e-05
138	0x34b59e20	3.3828928e-07
139	0xb6b76900	-5.4660486e-06
140	0x36be66c8	5.6744066e-06
141	0x35a49c27	1.2264398e-06
142	0xb6014eae	-1.9268296e-06
143	0xb568420a	-8.6522834e-07
144	0x36c8701b	5.9735153e-06
145	0xb3a2a9b8	-7.5745845e-08
146	0x370a41da	8.240773e-06
147	0x36cc8d3b	6.096115e-06
148	0x32cae754	2.362109e-08
149	0xb5255e6b	-6.1604686e-07
150	0x35eb5cd7	1.7535884e-06
151	0xb63063a1	-2.6284035e-06
152	0xb6c843e6	-5.968369e-06
153	0xb59d3bd5	-1.1714825e-06
154	0x36c69535	5.91823e-06
155	0xb7a7c726	-2.0000687e-05
156	0xb7355872	-1.08090335e-05
157	0x34919333	2.7115456e-07
158	0x37123fe8	8.7171575e-06
159	0x3518b60a	5.6889314e-07
160	0xb60453c7	-1.9718298e-06
161	0x34c867bc	3.732838e-07
162	0xb4b66d11	-3.3979498e-07
163	0x35c064dd	1.433447e-06
164	0xb4bd34e7	-3.5242485e-07
165	0xb5785428	-9.2509663e-07
166	0x3744ef1c	1.1738182e-05
167	0x35f2c301	1.8087159e-06
168	0x36aadd8e	5.092187e-06
169	0xb616bc50	-2.2461354e-06
170	0x3564b752	8.5203385e-07
171	0xb6c48eec	-5.8578935e-06
172	0x378b38cc	1.659654e-05
173	0xb70ae05c	-8.277679e-06
174	0x36ca6c7f	6.0326997e-06
175	0xb70bbe94	-8.329418e-06
176	0xb3c3c178	-9.115587e-08
177	0xb43a846c	-1.7370775e-07
178	0xb718c59f	-9.105918e-06
179	0xb3da647a	-1.01696926e-07
180	0x35a6a2fc	1.2415398e-06
181	0x3389f78a	6.424587e-08
182	0xb70a5fc3	-8.247737e-06
183	0x3565f310	8.566285e-07
184	0x3560ce25	8.374648e-07
185	0x3675789f	3.6578056e-06
186	0x36433342	2.90871e-06
187	0xb558fb5c	-8.0832046e-07
188	0xb7a2ff40	-1.9430765e-05
189	0xb6b2a6ae	-5.3242175e-06
190	0xb2cfbf92	-2.4185088e-08
191	0xb7191a66	-9.125657e-06
192	0x3bbfef15	0.005857358
193	0xbc1b5435	-0.009480526
194	0xbb794c86	-0.0038039996
195	0xbb6c076a	-0.0036015161
196	0xbbc9eaee	-0.006162039
197	0x3b825cfb	0.0039783693
198	0x3b34ae11	0.0027569572
199	0xbb8b6942	-0.004254491
200	0x3bfa7c8e	0.0076442426
201	0x3b97c77f	0.004631936
202	0xbb816dac	-0.0039498415
203	0x3b37ad81	0.0028027
204	0xbc1024ca	-0.008797834
205	0xbb540493	-0.003235136
206	0xb9c8ed64	-0.00038323842
207	0xbb88e8de	-0.0041781506
208	0x3b5295ea	0.0032132813
209	0xbb984c0e	-0.0046477383
210	0xbaa2a677	-0.001240923
211	0x3c17e39d	0.009270576
212	0xbbba0dbe	-0.0056779077
213	0x3ba2ed56	0.0049721403
214	0xbbd7f831	-0.006590866
215	0x3c00eb73	0.0078686355
216	0xb9f925f9	-0.00047521273
217	0xbc340a18	-0.010988735
218	0xbba0b0dd	-0.0049038962
219	0x3addeb8c	0.001693116
220	0x3c39008a	0.011291632
221	0x398bbcb8	0.00026652752
222	0xba8ea309	-0.0010882328
223	0xbb107f1d	-0.0022048422
224	0x3c05248f	0.008126392
225	0xbafbeb94	-0.0019219988
226	0xbbc7cec9	-0.0060976488
227	0x3bdd36da	0.0067509236
228	0x3c198990	0.009371176
229	0xbb04d9df	-0.0020271463
230	0xbba4cd45	-0.005029353
231	0x3ae8a870	0.0017750394
232	0x3c2af36d	0.010434014
233	0xbb2a2fee	-0.002596851
234	0xbba52fb2	-0.005041086
235	0x3b959855	0.0045652785
236	0x3abfb61e	0.0014626419
237	0x3c2bdf4e	0.010490252
238	0x3c20aacb	0.009806345
239	0x3b39fed9	0.002838066
240	0x3a315077	0.00067640044
241	0x3b4b4dfb	0.0031021822
242	0xbb491307	-0.0030681507
243	0xb8dceb46	-0.000105342406
244	0xb9e07902	-0.00042814767
245	0x38e00926	0.000106828564
246	0x3c2b8d1c	0.010470655
247	0xbbc063a1	-0.0058712517
248	0xbc2bb8c7	-0.010481066
249	0x3bdad70b	0.006678467
250	0x3c01ac5a	0.007914627
251	0xbaff1c06	-0.0019463308
252	0x3b62b0f6	0.003459034
253	0xbb3765ba	-0.0027984218
254	0x3aac862b	0.0013162544
255	0xbb505292	-0.0031787497

weight_hh_l1 f4 [256, 64]
0	0xbaa460a8	-0.0012541013
1	0xbcb30d17	-0.021856828
2	0x36ffaf01	7.6199653e-06
3	0x3cdb8f48	0.02680172
4	0xbd2881bf	-0.04113936
5	0x3acdbdf3	0.0015696868
6	0x3b619825	0.003442296
7	0x3cbabfb7	0.022796495
8	0xbd1d567b	-0.038412552
9	0xbd0038b3	-0.031304073
10	0xbc634934	-0.013872433
11	0x3c1f30fe	0.0097162705
12	0x3c8ef30e	0.017449882
13	0xbc72d2f7	-0.014820806
14	0x3ca208be	0.01977956
15	0x3ba022e5	0.0048869723
16	0xbd2d40cb	-0.04229812
17	0x3d1c1233	0.038103294
18	0xbc674f8c	-0.014118087
19	0xbd163aa5	-0.03667702
20	0x3b77add2	0.0037792814
21	0xbc586be4	-0.013209317
22	0x3ce77718	0.02825503
23	0xbd3fb893	-0.046806883
24	0xbac2f694	-0.0014874511
25	0xbc90574d	-0.017619753
26	0x3cd89a46	0.02644075
27	0xbd0190d7	-0.03163227
28	0xbb71f8d8	-0.0036922004
29	0x3d036966	0.032082938
30	0x3aef4bfa	0.0018256896
31	0x3cd94c1d	0.026525551
32	0xbccd7b79	-0.02508329
33	0xbd0303cf	-0.031986054
34	0xbd084e9d	-0.033278096
35	0xbcc10f5f	-0.0235669
36	0x3bb6a3e8	0.0055737384
37	0xbd059812	-0.03261573
38	0xbc7b3e6a	-0.015334705
39	0xbd287f9a	-0.041137315
40	0x3a54cb3c	0.00081174425
41	0x3c3edfb2	0.011650013
42	0x3c24490e	0.010027183
43	0x3c279d55	0.010230382
44	0x3c1f7f0c	0.00973488
45	0xbd254209	-0.04034618
46	0x3d05e74a	0.032691278
47	0x3d27a397	0.040927496
48	0x3bf371ec	0.007429352
49	0xbd156d49	-0.036481176
50	0xbcd4028d	-0.025880123
51	0xbcb78af1	-0.02240512
52	0x3c4cf3c6	0.012509292
53	0xbc67271c	-0.0141084455
54	0x3d164283	0.036684524
55	0xbbdca6eb	-0.0067337654
56	0x3c5bd54e	0.013417555
57	0x3c3fd86b	0.011709313
58	0x3aa0d98a	0.0012271863
59	0xbd159a3b	-0.03652404
60	0x3bc12a87	0.005894962
61	0xbc496b1f	-0.012293606
62	0xbd2f7314	-0.042834356
63	0x3c4ef4dc	0.012631621
64	0x3cd1ff82	0.025634531
65	0xbcf8801e	-0.030334529
66	0xb9f9e4df	-0.00047663503
67	0x3c9dd917	0.019268556
68	0xbcca64a3	-0.02470619
69	0xbb4f73c1	-0.0031654688
70	0xbc99e5a4	-0.018786259
71	0x3c918890	0.017765313
72	0xbcbd747e	-0.023126837
73	0xbcc6cc85	-0.024267444
74	0xbcaba988	-0.020954862
75	0x3c7af821	0.015317948
76	0x3bac935f	0.0052665914
77	0x3b64b130	0.003489565
78	0x3cc1ad0a	0.023642082
79	0xbca3858e	-0.019961145
80	0xbcdac62f	-0.02670583
81	0x3ce19ab6	0.027539592
82	0xbc8365ab	-0.01603969
83	0xbcbcdea6	-0.023055386
84	0xbaeba556	-0.0017978351
85	0xbc9d2ff9	-0.019187914
86	0x3c9d2397	0.01918201
87	0xbd030e7b	-0.03199623
88	0xbba4d11b	-0.00502981
89	0xbc2b64ae	-0.010461016
90	0x3c8b3142	0.016991261
91	0xbc95ddc4	-0.018294223
92	0xbc7d2c87	-0.015452511
93	0x3cb5d5c2	0.022196654
94	0x3a1be298	0.0005946546
95	0x3c37890f	0.011202111
96	0xbccae676	-0.024768095
97	0xbcef43ca	-0.029207129
98	0xbce1a8f3	-0.027546382
99	0xbbe6c852	-0.007042923
100	0xbc7ec4de	-0.0155498665
101	0xbc77791c	-0.015104558
102	0xbc7cb20e	-0.015423311
103	0xbcebaf2a	-0.028770048
104	0xb9f656bb	-0.00046985396
105	0x3c36f9ec	0.011167984
106	0x3c389125	0.011265074
107	0x3b6d5cd9	0.0036218672
108	0x3c19dfb3	0.009391713
109	0xbce8e705	-0.028430471
110	0x3c91f2af	0.017815916
111	0x3ce21207	0.027596487
112	0x3be5be55	0.0070112147
113	0xbca5899e	-0.020207223
114	0xbd0276d8	-0.03185162
115	0xbca859c5	-0.020550618
116	0x3cd4ebcc	0.025991343
117	0xbc4f2ffc	-0.012645718
118	0x3cccd8df	0.025005756
119	0x3c5bd9e6	0.01341865
120	0x3cc4fb5d	0.02404564
121	0x3c698bfc	0.014254566
122	0x399e8405	0.0003023447
123	0xbcbf7bcc	-0.02337446
124	0xbbcfeece	-0.0063456064
125	0xbc6b59bd	-0.014364657
126	0xbcfed9b7	-0.031109674
127	0x3c3e9e21	0.011634381
128	0xb6664601	-3.4313418e-06
129	0xb70546c2	-7.943892e-06
130	0xb3a13a75	-7.50778e-08
131	0x375019ff	1.2403819e-05
132	0xb6f38787	-7.257742e-06
133	0xb66891c4	-3.465554e-06
134	0xb697db25	-4.5256625e-06
135	0x3793f280	1.7636688e-05
136	0xb79d263f	-1.8733668e-05
137	0xb7affb44	-2.097863e-05
138	0xb682daae	-3.8997596e-06
139	0x371f7c67	9.506103e-06
140	0x36aa86bc	5.08208e-06
141	0xb61b230c	-2.31172e-06
142	0x37438d91	1.1655867e-05
143	0x365790e4	3.2121834e-06
144	0xb72ce4d0	-1.03052735e-05
145	0x36e94b50	6.9527086e-06
146	0xb7382174	-1.0975044e-05
147	0xb76d73b9	-1.4153245e-05
148	0xb68d3887	-4.208708e-06
149	0xb685f11b	-3.9917772e-06
150	0x36851be4	3.966956e-06
151	0xb72118f5	-9.602159e-06
152	0xb64a1ab2	-3.0115884e-06
153	0xb690b73a	-4.312865e-06
154	0x369b7895	4.6333976e-06
155	0xb796ee20	-1.7992279e-05
156	0xb5b2d47c	-1.3323875e-06
157	0x36b8c238	5.5062374e-06
158	0xb56534e2	-8.53861e-07
159	0x35fd0999	1.8852762e-06
160	0xb71af7c8	-9.236806e-06
161	0xb73ddf1d	-1.13172255e-05
162	0xb715a5e7	-8.919719e-06
163	0xb7131659	-8.767086e-06
164	0xb781446b	-1.5409858e-05
165	0xb5ef0fc4	-1.7811476e-06
166	0xb78c998a	-1.6760798e-05
167	0xb6d27034	-6.27155e-06
168	0xb53912fb	-6.894549e-07
169	0x36290856	2.5187815e-06
170	0x3737b672	1.0950129e-05
171	0x3684686b	3.9460624e-06
172	0x36b0c239	5.2678192e-06
173	0xb6dc0fc2	-6.5583454e-06
174	0x37999f04	1.8313069e-05
175	0x36dde7de	6.613306e-06
176	0x36ea2438	6.97796e-06
177	0xb7cd4afa	-2.4472818e-05
178	0xb5543058	-7.9046504e-07
179	0xb78eabd8	-1.700774e-05
180	0x371368be	8.78627e-06
181	0xb6aab330	-5.087255e-06
182	0x37a91038	2.0153922e-05
183	0x34e9ef5e	4.3573795e-07
184	0x376b136f	1.4011616e-05
185	0x3697b76b	4.5215033e-06
186	0x34af2df1	3.2629717e-07
187	0xb6c835ee	-5.9667427e-06
188	0xb6a719aa	-4.9799755e-06
189	0xb77f805f	-1.5229073e-05
190	0xb707d5fd	-8.09645e-06
191	0x366a6973	3.4930097e-06
192	0x3c103c9c	0.008803513
193	0xbc17ff47	-0.009277171
194	0xb9887342	-0.00026025815
195	0x3b987810	0.0046529844
196	0xbc0760cf	-0.008262827
197	0xbb02c2e1	-0.0019952583
198	0xbbc7be4f	-0.0060956846
199	0x3b7c89c3	0.003853426
200	0xbc037ce5	-0.008025383
201	0xbbc25701	-0.005930782
202	0xbbcd3e45	-0.0062635266
203	0x3ba61830	0.0050688013
204	0x38bbfd1c	8.964e-05
205	0x3b278842	0.0025563394
206	0x3bda8eef	0.006669871
207	0xbbf84f91	-0.0075778444
208	0xbc20bbe3	-0.009810421
209	0x3bec991d	0.007220401
210	0xbba0cd0e	-0.004907257
211	0xbbe84340	-0.007088095
212	0xbaa21bd1	-0.0012367909
213	0xbbd34795	-0.006447742
214	0x3b85ea2b	0.004086753
215	0xbc380b5d	-0.011233178
216	0xbb14dc90	-0.0022714473
217	0xbb09dd70	-0.0021036528
218	0x3bb48ade	0.0055097183
219	0xbbb4d10b	-0.005518084
220	0xbba04499	-0.00489099
221	0x3bcc2451	0.006229915
222	0xb99368ed	-0.000281162
223	0x3b400ee2	0.0029305746
224	0xbbd8192b	-0.006594797
225	0xbc01dc87	-0.007926113
226	0xbc0427a3	-0.008066091
227	0xbb0bc0c8	-0.0021324623
228	0xbbc0991c	-0.005877627
229	0xbbaee7a6	-0.0053376732
230	0xbb8c093f	-0.004273563
231	0xbc175498	-0.009236477
232	0xba4a538b	-0.00077181373
233	0x3b2af3e5	0.0026085314
234	0x3b59f1ee	0.0033255774
235	0xba7dca1a	-0.00096812996
236	0x3af9b9da	0.001905258
237	0xbc13c936	-0.00902014
238	0x3b516e92	0.0031956774
239	0x3c0de7a9	0.008661189
240	0x3a8a2972	0.0010540916
241	0xbbcf750b	-0.0063310913
242	0xbc12fc0b	-0.008971225
243	0xbb9b7bf8	-0.004745003
244	0x3c00b957	0.007856688
245	0xbb5b4388	-0.0033457
246	0x3bfc198d	0.0076934756
247	0x3bc26bbd	0.0059332536
248	0x3bd267c3	0.0064210608
249	0x3b850f8b	0.0040606908
250	0xb92ba660	-0.0001636981
251	0xbbf820a1	-0.007572249
252	0xbb3724a5	-0.0027945426
253	0xbb82de4d	-0.0039937855
254	0xbc1c8f82	-0.009555699
255	0x3b495fc6	0.0030727251

bias_ih_l1 f4 [256]
0	0x3d893659	0.06699819
1	0x3d44c678	0.048040837
2	0xb5173fd3	-5.634476e-07
3	0x3cbc3ba9	0.022977667
4	0x3d321693	0.04347856
5	0x3bd94b1d	0.0066312687
6	0x3d375dca	0.04476718
7	0x3c3f2bdf	0.0116681745
8	0x3d21a7a1	0.039466504
9	0x3cf9a953	0.030476248
10	0x3d0dbdae	0.03460472
11	0x3c8274a0	0.015924752
12	0x3c0d18cd	0.00861187
13	0x3caa30b2	0.020775173
14	0x3d0da02a	0.034576572
15	0x3d50a69b	0.050940137
16	0x3d52bb8f	0.0514484
17	0x3d406bd5	0.046977837
18	0x3c4e24cf	0.012582018
19	0x3d214664	0.03937377
20	0x3b5a59ac	0.0033317609
21	0x3cec4483	0.028841263
22	0x3c982bc4	0.018575557
23	0x3d6a6bf8	0.057231873
24	0x3b50f624	0.0031884992
25	0xba10ae00	-0.0005519092
26	0x3cad6074	0.021164156
27	0x3cb35c0c	0.021894477
28	0x3ce04825	0.027378151
29	0x3cf3adaf	0.029745905
30	0xb905035d	-0.00012685121
31	0x3c48bca2	0.012252005
32	0x3d06f09e	0.032944314
33	0x3d249b89	0.040187392
34	0x3d330cf7	0.043713536
35	0x3c406dd9	0.01174494
36	0x3d1b1b7e	0.037868015
37	0x3cb12bf0	0.021627396
38	0x3c19858a	0.009370217
39	0x3d54aef5	0.051924665
40	0xbaf06b88	-0.0018342594
41	0x3bd1b1c5	0.0063993656
42	0x3ba16c3b	0.004926232
43	0xbab5e7b1	-0.0013878254
44	0xb9bcc814	-0.00036007224
45	0x3d57755d	0.05260216
46	0x3c86fe9d	0.016478831
47	0x3d349f6e	0.044097356
48	0xbb57fc37	-0.0032956728
49	0x3cf0250f	0.029314546
50	0x3d8280f6	0.063722536
51	0x3ca7b27e	0.020470854
52	0x3d62d835	0.055381972
53	0x3b976ec5	0.004621359
54	0x3d2142b5	0.039370257
55	0x3d139898	0.036034197
56	0x3d3d29fd	0.04618262
57	0x3c0b9d6c	0.008521419
58	0xb90e67d5	-0.00013580856
59	0x3d244b5b	0.040110927
60	0x3c39d372	0.011341916
61	0x3c01a61f	0.0079131415
62	0x3d61ffe2	0.05517567
63	0x3bdf61d8	0.006817084
64	0x3d5d88b7	0.05408546
65	0x3d931118	0.07180995
66	0x360d12ea	2.1021647e-06
67	0x3c9dbe30	0.019255728
68	0x3d69e9a2	0.057107575
69	0x3b0d07ae	0.002151947
70	0x3d21b3f6	0.039478265
71	0x3c6a306a	0.014293769
72	0x3d48933d	0.048968542
73	0x3d14908a	0.036270656
74	0x3d00d125	0.031449456
75	0x3c2097c0	0.009801805
76	0x3bc5c75e	0.0060357293
77	0x3ca53e1e	0.020171221
78	0x3d23c6c6	0.039984487
79	0x3d2bf4f2	0.041981645
80	0x3d8d962a	0.06913407
81	0x3d382552	0.044957466
82	0x3c4569d7	0.01204916
83	0x3d403e23	0.04693426
84	0x3adbe5a8	0.0016776817
85	0x3c8d358c	0.017237447
86	0x3c95cc11	0.018285783
87	0x3dbbf499	0.09177513
88	0xb8d8289b	-0.00010307246
89	0xb9c4b0e5	-0.0003751583
90	0x3cc1384b	0.023586413
91	0x3ce4b616	0.027918857
92	0x3c87fa69	0.016598897
93	0x3d18b18c	0.037278697
94	0xb924ee20	-0.00015728967
95	0x3c5df4b5	0.013547112
96	0x3d4965cf	0.049169358
97	0x3d804444	0.06263021
98	0x3d3a28ab	0.04544894
99	0x3c5286d6	0.01284953
100	0x3cecf3a1	0.028924765
101	0x3ce84f3b	0.028358093
102	0x3c26d155	0.010181745
103	0x3d979c3f	0.074028485
104	0xbb0c4cfa	-0.0021408186
105	0x3b2edd27	0.002668211
106	0x3b4db7b7	0.003139002
107	0xbadc91bd	-0.0016828101
108	0xba0d9fe0	-0.00054025464
109	0x3d89fece	0.06738053
110	0x3c858b4e	0.016301777
111	0x3d70e264	0.058809653
112	0xbb5d3983	-0.0033756203
113	0x3d0c9cac	0.0343291
114	0x3d4b5356	0.049640022
115	0x3ca26dc9	0.01982774
116	0x3d83c707	0.06434446
117	0x3b7307fb	0.0037083614
118	0x3d5aafbd	0.053390253
119	0x3ce6e996	0.028187554
120	0x3d412e7f	0.047163483
121	0x3be2ffbb	0.006927458
122	0xb94dbfab	-0.00019621725
123	0x3d3c5258	0.045976967
124	0x3c2af2b5	0.010433842
125	0x3bdbd5d7	0.0067088413
126	0x3da1528e	0.07877074
127	0x3b84d430	0.004053615
128	0xbcc281ac	-0.023743473
129	0xbde146d9	-0.10999841
130	0xbc24afe5	-0.010051702
131	0x3dbcf0f9	0.092256494
132	0xbdd004d8	-0.10157174
133	0xbd46f8fe	-0.0485773
134	0xbc800995	-0.015629569
135	0x3db25f6f	0.08709609
136	0xbdce453a	-0.10071798
137	0xbd993cd4	-0.07482305
138	0xbd8d5958	-0.069018066
139	0x3d9c2a79	0.076252885
140	0x3c35cab9	0.011095696
141	0xbd6f3b64	-0.05840625
142	0x3da5386b	0.080674015
143	0xbd9aeb96	-0.07564466
144	0xbdee27b3	-0.11628666
145	0x3d9c025d	0.07617638
146	0xbd7e6efc	-0.06211756
147	0xbdb7212f	-0.08941876
148	0xbc6c8d84	-0.014438037
149	0xbd480d0a	-0.04884056
150	0x3dc14a5d	0.09438012
151	0xbde75441	-0.11295367
152	0xbc69740a	-0.014248857
153	0xbb7fa4d8	-0.0039008167
154	0x3d7acdc3	0.061231386
155	0xbd57abcc	-0.052654073
156	0xba46fb60	-0.00075905584
157	0x3dd796c7	0.10526805
158	0x3c6f6453	0.0146113215
159	0x3d76c62f	0.060247596
160	0xbd8ef9cc	-0.06981239
161	0xbbf56a19	-0.0074894545
162	0xbd9d98ae	-0.07695137
163	0xbd434916	-0.047677122
164	0xbd3a0b58	-0.045420974
165	0xbdaf7b28	-0.08568412
166	0xbd6379e0	-0.05553615
167	0xbdf503e7	-0.11963635
168	0x3ba57e24	0.0050504375
169	0xbb344045	-0.0027504128
170	0x3d4e3f7d	0.050353516
171	0x3c09cc49	0.008410522
172	0x3d567360	0.052356124
173	0xbde09c6e	-0.109673366
174	0x3d8dd581	0.06925488
175	0x3de7d354	0.113196045
176	0x3c6e1b8e	0.014532937
177	0xbd774975	-0.06037279
178	0xbd68a657	-0.05679926
179	0xbdb514b7	-0.08841842
180	0x3d0d5466	0.034504317
181	0xbce47a57	-0.027890367
182	0x3da45f2e	0.080259666
183	0xbca01107	-0.01953937
184	0xbd3b54c3	-0.045735132
185	0x3d89bbad	0.067252494
186	0xbb61c828	-0.0034451578
187	0xbd9ebda4	-0.07751015
188	0xbd4945c4	-0.0491388
189	0xbd47e789	-0.048804794
190	0xbe027178	-0.12738597
191	0x3c01918c	0.007908236
192	0x3d88d0c7	0.06680446
193	0x3d59690a	0.05307869
194	0xb594197d	-1.1034277e-06
195	0x3c93c7f7	0.018039687
196	0x3d7bd804	0.061485305
197	0x3bbb42ae	0.005714736
198	0x3d3a82ed	0.045535017
199	0x3c062b6a	0.008189062
200	0x3d4c4c0d	0.049877215
201	0x3d0cc419	0.0343667
202	0x3cea86c4	0.028628714
203	0x3c71c591	0.014756576
204	0x3c2d50d1	0.01057835
205	0x3cb88e38	0.022528753
206	0x3d2fc853	0.042915653
207	0x3d645b85	0.055751342
208	0x3d9b5291	0.07584108
209	0x3d78529e	0.060625665
210	0x3c5bc766	0.0134142395
211	0x3d565dc7	0.052335527
212	0x3b5e27bf	0.0033898202
213	0x3d1a1886	0.037621044
214	0x3ca643b9	0.020295965
215	0x3dcb8b32	0.09938659
216	0x3b1073f2	0.0022041765
217	0xba83ca82	-0.0010054859
218	0x3ccca3a5	0.024980376
219	0x3ce9619a	0.028488923
220	0x3cc69fbf	0.024246095
221	0x3cfd4e94	0.030921258
222	0xb8f9e675	-0.00011916171
223	0x3cca109c	0.024666123
224	0x3d305531	0.043049995
225	0x3d9ba25a	0.075993255
226	0x3d163eae	0.03668087
227	0x3c8400e0	0.016113698
228	0x3d0f6153	0.035004925
229	0x3ce441bf	0.027863381
230	0x3c374ec8	0.0111882165
231	0x3d9366d5	0.07197348
232	0xbaf368a3	-0.0018570613
233	0x3bd6b616	0.006552468
234	0x3b8eccef	0.004357926
235	0xbaaca5c4	-0.0013171961
236	0xb9810c12	-0.0002461379
237	0x3d681bf0	0.05666727
238	0x3c83db75	0.016095856
239	0x3d569232	0.052385516
240	0xbb588159	-0.0033036082
241	0x3d09b9a2	0.0336243
242	0x3d6907c6	0.05689218
243	0x3cc37e7e	0.023864027
244	0x3d8b863a	0.06812711
245	0x3ba0b5b8	0.004904475
246	0x3d45502c	0.04817216
247	0x3d155e97	0.03646716
248	0x3d541e37	0.051786628
249	0x3c175038	0.009235434
250	0xb91a35c8	-0.0001470662
251	0x3d30400a	0.043029822
252	0x3c11cbbc	0.008898672
253	0x3c14cb47	0.009081668
254	0x3dbef267	0.09323578
255	0x3bfacf43	0.007654102
