code/UrbanSoundRNN_entiremodel.pt (torch, 247203 bytes, 10 tensors)

weight_ih_l0 f4 [256, 40]
000000 bc 24 30 3b 5a 01 a2 3b db ea c9 b9 ac f0 77 3a
       0.0026877364 0.004944009 -0.00038512688 0.0009458165
000010 f2 ec 77 3a ad 3c af 3a d3 dd 01 3b 17 c0 ef 3b
       0.000945761 0.0013369523 0.0019816055 0.0073166
000020 5c 98 2a 3b c2 cb 32 3c d6 7d 18 3b bc 95 d7 bb
       0.0026030755 0.010912837 0.0023268363 -0.006579129
000030 af 5a 09 3c 20 64 8a 3a a8 f4 12 bc 23 1f 66 bb
       0.008383437 0.0010558404 -0.008969463 -0.0035113774
000040 cf 6f 57 bc c8 32 a6 b9 89 34 f8 3a e8 36 90 3b
       -0.013149216 -0.00031699822 0.0018936555 0.0044010766
000050 36 8a 1b 3b 0e c2 03 3a 18 54 9b 3c 32 49 9b 3c
       0.0023733503 0.000502617 0.018960997 0.0189558
000060 e8 96 bf 3b 99 7f 11 3b 74 e0 39 3b a2 9b a9 3b
       0.005846847 0.0022201298 0.0028362544 0.0051760236
000070 d4 db bd 3c 01 dd de b9 3b aa ba 3c c5 91 b5 3a
       0.023176111 -0.000425078 0.02278625 0.0013852647
000080 48 27 db 3a ca 88 a3 3c e9 e2 18 bc 3e 88 5c 3b
       0.0016720081 0.019962687 -0.009331443 0.0033650543
000090 36 1d 83 bc 49 d3 d0 bb e1 bf a9 3c c6 5f 87 bc
       -0.01600514 -0.0063728434 0.020721378 -0.01652516
0000a0 20 81 81 bd c4 5a d3 3d 74 76 b3 3c 6c a1 50 3c
       -0.06323457 0.103200465 0.021907069 0.0127337985
0000b0 a1 a7 f3 ba 2d f4 26 3d e8 b3 3c 3d 6e 4b 0e 3d
       -0.0018589386 0.040760208 0.04607001 0.034739904
0000c0 14 2c e9 3c f4 8c d7 bd ab bb cb bd fe fe be 3d
       0.0284634 -0.105249316 -0.09947904 0.0932598
0000d0 c0 bd 4b 3d 33 05 3e 3d f2 0b 6f 3d 2e cf b3 bd
       0.049741507 0.046391677 0.058361 -0.08779751
0000e0 f5 e3 99 bd ea be 81 3d 37 29 f3 3c e1 1a 6a bd
       -0.075141825 0.06335242 0.029682739 -0.05715454
0000f0 0d 15 9d bd 66 ac 4d 3d 73 d0 b8 bc 3a 4e d1 3d
       -0.07670031 0.05021324 -0.022560334 0.10219999
000100 fc ca 86 3d 00 4b 65 3c 30 da 02 bd df 25 82 3c
       0.06581685 0.013994932 -0.03194636 0.015887199
000110 bb 5c 80 bd 38 73 c6 3d df 87 4d 3d 25 e1 3a 3d
       -0.06267687 0.09689945 0.050178405 0.04562487
000120 d9 16 07 3d 3b 48 07 bd 60 0d 6f b8 c6 49 0a 3d
       0.032980774 -0.03302787 -5.6994497e-05 0.033761762
000130 8a 68 d4 bd 9c 53 61 3c 46 c6 d0 bd 1b 44 26 bd
       -0.10371502 0.013752844 -0.10194068 -0.040592294
000140 de b8 9b 3d c4 76 80 3d 6c c0 82 bc e2 5e b0 bc
       0.0760362 0.06272653 -0.015960895 -0.021529619
000150 e8 4a 24 bd e4 f7 ac bc f1 1c 96 bd ce 78 c1 37
       -0.0401105 -0.021114297 -0.07329739 2.3063647e-05
000160 35 53 1e bd 60 f2 a0 3d a0 bb 9a bd 34 65 38 bd
       -0.03865357 0.07858729 -0.07555318 -0.04501839
000170 4e f8 cf bd 66 e4 fb bb d2 8a b6 bb 8f 4f c5 bd
       -0.10154782 -0.0076871393 -0.005570748 -0.09634315
000180 6c 50 98 bd 8f a1 8c 3d d0 3f 96 3c 69 bc a9 3d
       -0.07437214 0.06866752 0.018340975 0.082878895
000190 47 da 5d 3d cb ef 88 bd b6 98 28 3d 4c c7 a5 3d
       0.054163244 -0.06686362 0.04116126 0.080946535
0001a0 50 19 86 3d 71 df ba bd 44 f7 8a 3d 85 8d bc 3d
       0.06547797 -0.09124649 0.067854434 0.0920668
0001b0 12 6b f7 bc 2a 9d dd bc a9 66 b7 3a ca 93 09 3b
       -0.030202422 -0.02705248 0.0013992387 0.002099263
0001c0 45 3f 64 3d ee 34 8d 3d 49 91 3d bd 96 cf f5 bc
       0.0557244 0.06894861 -0.046281133 -0.030006211
0001d0 4a 14 38 bd a7 30 45 bd 0d 1d 18 3d a8 cc 9b 3d
       -0.044941224 -0.0481421 0.03713708 0.076073945
0001e0 d9 04 20 3c de a0 0e 3b 64 9b 73 3a 84 72 2e 3b
       0.009766781 0.0021763365 0.00092928694 0.002661855
0001f0 29 7d 98 3b 3b 19 7a 3b 45 81 3b 3b ad a2 06 3c
       0.004653592 0.0038162011 0.0028610986 0.008217496
000200 ef f3 7d 3c fa 05 99 3b fc 16 66 3b 1c ec 3f 3b
       0.015500053 0.004669902 0.0035108915 0.002928502
000210 42 62 2c 3b e2 14 22 3b 78 5a 9f 3b ce a0 a7 39
       0.0026303683 0.0024731685 0.0048630796 0.0003197253
000220 6a b9 d1 3a c3 88 21 3c 3b 9b de 3b bf 09 cb 3b
       0.0016000692 0.009859267 0.0067934073 0.00619623
000230 fb d3 5f 3c f9 16 7c 3b 4f ff c8 3a 0c b4 c6 3b
       0.01366138 0.0038465841 0.0015334877 0.0060639437
000240 33 74 0b bb 0b 08 40 3a 51 34 26 3b b2 7c 85 3b
       -0.0021278977 0.0007325417 0.0025360773 0.0040737027
000250 b7 d8 6c 39 c0 de 24 3a 26 6d 23 3a 0d b0 05 3a
       0.00022587446 0.0006289296 0.0006234221 0.0005099781
000260 16 b7 59 3a a7 5b bb 39 af 8e 81 3a 5d 17 23 3c
       0.0008305175 0.00035735706 0.0009884442 0.009954301
000270 bf 65 e8 3b e2 9c 40 3b f4 c6 0e 3b 94 f6 99 3a
       0.007092207 0.0029390384 0.0021786066 0.001174646
000280 07 83 36 bd 6d 76 23 3c 1c 6f a1 3b 2d 69 6b bc
       -0.04455855 0.009976965 0.0049265753 -0.014368338
000290 b4 d1 5e 3d 77 78 83 3a 68 db 94 bc 66 ca 6e bc
       0.054399207 0.0010030408 -0.018171027 -0.014574623
0002a0 5f 89 0c 3d c0 db 95 ba 5f 98 a0 bb 06 a8 b8 ba
       0.034310695 -0.0011433288 -0.0049009765 -0.0014088161
0002b0 63 e1 c4 3c 85 c7 f7 bb 90 4e 73 bd 9b a9 3f bc
       0.024033254 -0.0075616264 -0.059401095 -0.011698152
0002c0 57 cb 59 bd 75 c7 b7 bb cb bd aa bb 1c f7 2b bd
       -0.053172436 -0.005608494 -0.0052106134 -0.04198371
0002d0 09 89 03 bc 3b 34 f5 bc ab 15 56 3d 95 76 2a bd
       -0.008028277 -0.029932132 0.052266758 -0.041616995
0002e0 a4 d4 42 3d 8d 70 cf 3c eb d4 ed bc 9f 49 18 bd
       0.04756607 0.025322223 -0.029032191 -0.037179586
0002f0 c7 3c 4a bc 58 6c e3 ba a4 79 64 ba 98 f9 9a ba
       -0.012343592 -0.0017351015 -0.00087156356 -0.0011823652
000300 05 8b dc b9 c2 cb 8d ba db 24 38 bd 17 6a f7 3c
       -0.00042065248 -0.0010818171 -0.044957023 0.030201955
000310 ee f7 6c 3d 87 ed aa 3c fb c1 44 bd c4 91 fa ba
       0.05785363 0.020865215 -0.048036557 -0.0019116928
000320 c3 e2 81 bd ea 8e 03 3d 7e 1d 6e bd 86 59 17 bd
       -0.063420795 0.032118715 -0.058133595 -0.03695061
000330 0d 55 c4 3d 96 42 1d bd 0e 05 ea bb b1 4c 56 bd
       0.09586535 -0.03839358 -0.007141716 -0.052319232
000340 a9 55 6b bc 3a 04 ab ba d2 0f 8c bd 56 a9 cc 3b
       -0.014363685 -0.0013047524 -0.06838955 0.0062457724
000350 31 8c bf 3d 0c 20 1f 3d 1f dd 51 bd cc 35 69 bd
       0.09352911 0.03884892 -0.051236268 -0.05693607
000360 62 e6 f3 3c be 6c 80 3a dd 89 08 bd b4 5d 7a 3d
       0.029772941 0.0009798033 -0.0333346 0.06112452
000370 48 44 bb 3d bc 11 65 3d 24 fe a2 bd 6d ca 25 bc
       0.09143883 0.055925116 -0.0795863 -0.010119063
000380 d3 ac 4e bd 22 9d 67 bd d1 74 05 3c cd 2d 09 bc
       -0.050457787 -0.056546338 0.008145527 -0.008372736
000390 77 e2 c1 bd 7a 00 83 3d cd 62 2b bc 47 1c dc 3d
       -0.09467023 0.06396575 -0.010460568 0.10747581
0003a0 7a 9c 22 bd 4b 8d 8d bc 3c 7e 03 bd 6f fb 9b 3c
       -0.03970001 -0.017279288 -0.03210281 0.019040791
0003b0 1d 03 cf 3c c1 79 df 3d 93 e8 15 3d 26 a6 e1 bc
       0.02527004 0.109118946 0.036598753 -0.027545046
0003c0 91 33 b6 bb 31 d6 83 3b 3a 53 1d bc a2 d9 a5 b9
       -0.0055603464 0.0040233363 -0.009602362 -0.00031633402
0003d0 0e 0d 0d 3c df eb 93 bc f3 75 69 3c de 3a b2 bb
       0.0086090695 -0.018056808 0.014249313 -0.0054391464
0003e0 5e 26 95 ba e5 1a b9 bb e6 e0 bb bb 93 c2 7c bc
       -0.0011379232 -0.005648958 -0.005733597 -0.0154272495
0003f0 41 30 2e 3c 89 64 01 bc 00 20 95 bb fd d2 04 bd
       0.010631622 -0.007897505 -0.004550934 -0.032427777

weight_hh_l0 f4 [256, 64]
000000 3c 43 1b ba 16 a4 b2 b9 c1 b1 dc 39 b1 b7 f7 39
       -0.00059227995 -0.0003407306 0.00042094107 0.00047248372
000010 08 57 df b9 2b 43 16 ba 7a b3 93 39 08 19 98 b9
       -0.00042598718 -0.00057320547 0.00028171745 -0.0002901035
000020 45 29 54 3a aa 50 75 ba 18 69 12 3a d6 f4 81 39
       0.0008093308 -0.0009358028 0.0005585118 0.00024787214
000030 3a 79 85 3a c7 41 65 ba a3 9c 5c ba d1 47 4b ba
       0.0010183223 -0.00087454583 -0.00084156747 -0.0007754537
000040 a2 31 50 39 db 6a 33 3a c3 5e a5 3a 9a 80 56 3a
       0.00019854915 0.0006844231 0.0012616742 0.0008182615
000050 93 02 b9 ba d9 9a a0 ba b9 03 d8 b9 9a 55 3c 3a
       -0.0014115147 -0.001225318 -0.00041201504 0.00071843865
000060 75 6e 95 ba 3c 59 3f 39 69 ce 0a b7 49 c2 bd 3a
       -0.0011400717 0.00018248422 -8.2735e-06 0.0014477457
000070 a8 0b 0c ba 44 0b bf ba f0 e4 6e 3a a3 76 7f 3a
       -0.0005342313 -0.0014575501 0.0009113094 0.0009745156
000080 9c de f3 b9 10 e1 f3 38 38 82 7b 3a 91 7a 96 3a
       -0.0004651443 0.00011629064 0.0009594294 0.001148062
000090 73 fe 88 ba 18 96 46 ba 5c 6f a9 ba 4a f3 06 b9
       -0.0010451808 -0.00075754663 -0.0012926864 -0.00012869868
0000a0 00 14 17 3a b8 64 5e 3a 7c 34 6e ba b5 37 1d ba
       0.0005763173 0.0008483636 -0.00090868 -0.00059973757
0000b0 a5 87 8b 3a cf 20 f9 39 c9 f8 5f ba 4d 3b 9e 39
       0.0010645284 0.00047517425 -0.0008543847 0.0003018029
0000c0 d3 e3 94 ba 41 7c 32 ba 2c 30 6d 3a 85 97 48 b7
       -0.0011359401 -0.00068086764 0.00090480107 -1.1956207e-05
0000d0 39 3c 57 3a df a4 85 ba 44 be c2 b9 77 12 90 39
       0.0008210573 -0.001019623 -0.00037144322 0.00027479578
0000e0 1c 93 86 3a a2 1f e6 b9 d1 e3 6f ba 16 96 40 ba
       0.0010267231 -0.00043892587 -0.0009151074 -0.00073465833
0000f0 f4 8f 98 ba ef e0 51 3a 68 38 da b9 c1 e1 58 ba
       -0.0011639581 0.0008006235 -0.00041622226 -0.0008273386
000100 49 70 82 39 34 17 00 bc c6 12 90 3b 9c 7c 64 b9
       0.0002487919 -0.007818032 0.004396769 -0.00021790195
000110 e6 92 88 3d 7f c3 5c 3d 9e 7d 67 bb 4b 53 32 3c
       0.06668644 0.053897377 -0.0035322676 0.010884116
000120 0d dc 5d 3d 4e 4b 94 bd f5 e0 1e 3d 85 ac 03 3c
       0.054164935 -0.07240926 0.038788754 0.008036737
000130 ec 9b 4e ba f6 b0 f0 3c 74 44 55 bd 7e bd 2e bc
       -0.00078815105 0.029381257 -0.052067235 -0.010665296
000140 b4 a6 3b 3d 21 57 45 3c 4a e5 8a 3d d6 35 95 3a
       0.045813277 0.012044699 0.06782015 0.0011383842
000150 54 96 bd 3c 5f 19 25 bc c5 69 8c 3b 85 bf 93 3b
       0.023142971 -0.01007685 0.0042850696 0.004508915
000160 40 e6 85 3a 85 7c 67 bb 26 b7 64 bb bc cb 7a 3c
       0.0010215715 -0.0035322022 -0.0034899204 0.015307363
000170 81 17 3e 3a 96 8f 53 bc ab 12 75 ba 87 2d 6b ba
       0.0007251427 -0.0129126515 -0.000934879 -0.00089713227
000180 d5 e8 8e ba 53 8c 8d bd 6d 4f 03 3d 23 5f 84 ba
       -0.001090313 -0.0691153 0.03205817 -0.0010099154
000190 f3 40 3c 3b 7d fd c6 3b bb 63 f0 bc bb a5 2d bd
       0.0028725236 0.0060726986 -0.02934443 -0.04239438
0001a0 b6 59 46 b9 68 d9 b3 bc f9 a9 01 bd ef 68 13 3c
       -0.00018916171 -0.021954253 -0.03165624 0.008997186
0001b0 e6 56 37 3c 50 97 a8 bb 9e b7 ef 39 19 b2 0d ba
       0.011190152 -0.005144991 0.00045722438 -0.0005405262
0001c0 fd d0 a3 bb cf 87 e2 39 e6 f0 89 3d ab 56 7a 3c
       -0.0049992786 0.00043207264 0.06735401 0.015279452
0001d0 1c 00 fa 3b b3 6a 64 3a 44 1d 5a 3c ff 08 9b bd
       0.0076294076 0.0008713409 0.0133126415 -0.07570075
0001e0 81 8b 4b 3d d0 4e 1a 3c 09 92 1a 3c 0f 27 99 ba
       0.04969359 0.009418204 0.009434232 -0.0011684614
0001f0 d0 4e 2b 3d fb 67 59 ba 58 c0 87 3c cf 4e 29 bc
       0.04182321 -0.00082933874 0.016571209 -0.010333731
000200 9d 77 9d 39 c5 65 87 3c 11 3b 1d bb 18 d2 87 b9
       0.00030034492 0.01652802 -0.0023991505 -0.0002590574
000210 92 7e 80 bc 11 a9 04 3b 0d 2a 43 39 15 19 46 bc
       -0.015685353 0.0020242373 0.00018612314 -0.012090941
000220 4e 0e 0d 3c 61 f5 b1 39 c1 ce e9 3b fe ff 06 3d
       0.008609368 0.00033942892 0.0071352427 0.032958977
000230 fc e9 1c 3a 6d 96 20 bc 71 29 c3 3c 06 36 a3 39
       0.0005985794 -0.009801489 0.023823472 0.00031130033
000240 98 f0 c1 3c 74 3c 6b bc 18 d3 41 3d 8f 43 c9 3a
       0.023674294 -0.014357675 0.047320455 0.0015355217
000250 2d a7 77 bc e9 ec c7 bb 73 d1 11 3b cc cf d7 39
       -0.015115541 -0.00610124 0.0022250086 0.00041162816
000260 cf 06 e7 b9 32 44 8a b9 48 30 ac bb 6a f6 aa 3b
       -0.00044064826 -0.0002637222 -0.005254779 0.005217363
000270 f4 85 1e ba a6 d5 52 ba f9 f3 97 39 8f 64 dc 39
       -0.0006047182 -0.00080427004 0.00028982738 0.00042036592
000280 3d 9a ab b7 bf ff 3c 3b 84 6c ab 3c 78 ee b6 39
       -2.0456611e-05 0.002883896 0.020925768 0.00034891418
000290 c0 15 09 b9 5a f1 d9 bb 57 bb 09 3d ac 27 1e bb
       -0.0001307344 -0.006651086 0.033625927 -0.0024132533
0002a0 1b 59 3e ba b9 dc 43 3b 01 90 08 3d b3 a3 2c bc
       -0.00072612026 0.00298862 0.033340458 -0.010537076
0002b0 fb 2a 80 3c 63 99 be ba c5 69 bd 39 df d3 cd 39
       0.015645495 -0.0014541562 0.00036127694 0.00039258503
0002c0 f1 1e 5a 3c 78 93 ad ba 21 16 a0 bc fa a0 3a 3c
       0.013313041 -0.0013242802 -0.019541802 0.011390919
0002d0 27 5b ba 3b 6c 47 a6 b9 4e 80 8e 3b 39 b4 1d 3c
       0.0056871357 -0.000317152 0.004348791 0.009625488
0002e0 90 f1 48 bc d1 e2 90 bb 17 d9 c3 3c 27 ae 1f bc
       -0.012264624 -0.00442157 0.023907227 -0.009746111
0002f0 54 26 9b bb 75 02 ad 38 96 8a 8f bb 86 b9 49 3b
       -0.0047347937 8.2497405e-05 -0.0043805344 0.0030780747
000300 86 21 22 ba 37 33 10 bb 2c 74 9c 3a fe 51 2c 3a
       -0.0006184805 -0.0022003183 0.0011936477 0.0006573497
000310 3c 96 df 3a d1 30 61 ba 5a c0 0e 3b c6 fd 35 ba
       0.0017058323 -0.0008590343 0.002178213 -0.0006942417
000320 c0 6d 47 3a 85 2a 2e bb 72 11 5b 3a 85 36 d5 3a
       0.00076076016 -0.0026575637 0.00083567866 0.0016266858
000330 d9 1b e6 3a 14 71 1b bb e9 7e a4 b9 0a 0f 00 bb
       0.0017555907 -0.0023718523 -0.00031375073 -0.0019540214
000340 32 8b 06 3a ff e4 8a 3a 85 85 13 3b b6 e3 f2 3a
       0.0005132436 0.0010596811 0.0022510004 0.0018530998
000350 be 0b 51 bb ec ed dd ba 92 92 8e ba 04 31 0d b8
       -0.0031897868 -0.0016931868 -0.0010877422 -3.366267e-05
000360 81 66 0a bb 7f c1 87 37 36 6b 8a ba 61 40 32 3b
       -0.0021118226 1.6183358e-05 -0.0010560516 0.0027199017
000370 c4 0a e4 ba b7 60 26 bb 9d 28 0f 3b 00 5c 07 3b
       -0.0017398228 -0.0025387236 0.0021844276 0.0020654202
000380 47 1b 28 ba c0 24 f1 ba 51 3e 94 3a f1 5c 0f 3b
       -0.0006412756 -0.0018397793 0.0011310076 0.0021875466
000390 8f c4 f6 ba 27 3c 25 bb 8d 84 42 bb 5e 9b a0 ba
       -0.001882689 -0.0025212856 -0.0029681057 -0.0012253334
0003a0 0f d8 e2 39 56 c6 32 3b 52 6b 0a bb be 2b 60 ba
       0.00043267055 0.0027278862 -0.0021121097 -0.000855144
0003b0 53 54 44 3b b3 22 c4 39 6b ad 88 ba 96 0a db 3a
       0.0029957488 0.00037409886 -0.0010427659 0.0016711529
0003c0 07 2f b7 ba 91 03 03 bb 84 29 38 3b d2 84 00 3a
       -0.0013975807 -0.001999114 0.0028100917 0.0004902604
0003d0 e8 2a 3b 3b cb f4 05 bb 78 7d 0d bb e6 e6 17 ba
       0.002855951 -0.0020440097 -0.0021589678 -0.00057945994
0003e0 dd 0f 5a 3a a7 c8 da ba 4d e3 03 bb bc 6f ba ba
       0.0008318404 -0.0016691879 -0.0020124495 -0.0014223973
0003f0 1e 70 3e bb f9 0d 15 3b b4 98 b1 ba 1f 0f 43 bb
       -0.0029058526 0.0022743924 -0.0013549537 -0.0029763652

bias_ih_l0 f4 [256]
000000 d7 c1 8c ba 59 47 f5 bc 6d 22 9f 3c 1f 8e b1 3a
       -0.0010738921 -0.029941248 0.019425595 0.0013546384
000010 9f af a6 3b fa d1 a9 3b e7 c6 cf 3a de 94 5d 39
       0.0050868536 0.005182502 0.0015852124 0.0002113166
000020 5a 0a 04 3d 85 50 3c 3d 83 7e 35 3d c8 97 70 bb
       0.032236435 0.045975227 0.044310104 -0.0036711562
000030 7f 82 90 3c bb fa c0 3b 41 d2 99 bd bf a1 f9 3c
       0.01764035 0.0058892644 -0.07510806 0.030472634
000040 56 dc 92 3d ff e9 14 bc c4 52 6c 3c 9e 77 0c 3b
       0.07170932 -0.009088992 0.01442403 0.0021433602
000050 25 17 68 3c 2c b6 12 3d 86 3c 4e 3b c7 ff a7 3c
       0.014165674 0.035818264 0.003146918 0.020507706
000060 66 38 7c 3c c8 d5 82 3c 75 ef 77 3b 2a ac ca 3c
       0.015394306 0.01597108 0.0037831936 0.024740297
000070 c4 91 75 3a 1f 50 29 3c dd 86 e8 3b 45 28 91 3b
       0.0009367729 0.010334044 0.007096155 0.0044298493
000080 e7 64 23 bb 91 d4 36 3c 28 4a f1 bc 02 8f 1d 3c
       -0.0024931969 0.011159078 -0.029454306 0.009616615
000090 eb 57 4f bb 07 5c 03 3b 59 e5 2d 3c 8f 8d 16 3b
       -0.0031638097 0.0020043866 0.010613763 0.002297256
0000a0 dd 27 66 3c e5 39 c2 3a fc b0 72 3c 16 a9 aa 3c
       0.01404759 0.0014818279 0.014812704 0.02083258
0000b0 7c 64 bb 3b 51 15 8b 3a 01 c6 d5 3b b8 8d 6b b9
       0.005718766 0.0010611211 0.006523848 -0.00022464141
0000c0 76 2a 0f 3d 3b 38 72 3b ee f1 68 3a b2 e4 86 bc
       0.034952603 0.0036959786 0.0008886148 -0.016466472
0000d0 4b 93 a7 3a 99 da 01 3c 83 30 fe 39 ee 45 67 3c
       0.0012784986 0.007925653 0.000484828 0.014115794
0000e0 98 56 69 3d 20 62 ea 3c 80 e3 51 bb f2 43 62 3c
       0.056967348 0.028611243 -0.003202647 0.013810145
0000f0 2c f4 0e 3c 60 02 bf 3b 13 b2 56 3b fc c5 87 3b
       0.008725207 0.0058291405 0.003275995 0.0041434746
000100 16 51 11 3c 8c ad 8e 3c c5 12 77 3c 78 43 b3 3b
       0.00886943 0.017416738 0.015080159 0.0054706894
000110 a3 77 57 3c f1 d5 0a bc 32 88 a5 3b a0 74 f1 3b
       0.013151082 -0.008473859 0.005051636 0.007368639
000120 ef 4d a0 3b 06 e7 54 ba 66 e4 dc 3b a8 44 31 3c
       0.004892103 -0.00081215834 0.0067410944 0.010819592
000130 43 9d 3a 3c 21 64 0c 3d 28 a1 b7 3c 18 fb 79 3c
       0.011390033 0.034275178 0.022415712 0.015257619
000140 7c f5 82 3c f6 8b 8b 3b 35 9a 5e 3c a8 5e 77 3c
       0.015986197 0.004258628 0.0135865705 0.015098251
000150 3a 70 46 3d 41 aa 14 3d b3 87 43 bb 27 9e a6 bb
       0.04844687 0.03629518 -0.0029835522 -0.005084771
000160 b3 a8 ce 3c 24 b5 e1 ba 4f a6 3f 3b 17 71 85 3d
       0.025226926 -0.0017220122 0.0029243415 0.06515711
000170 33 2d 6b 3c 71 7c d8 3c 0a 66 02 3d bd 75 c6 3c
       0.014354038 0.026426526 0.031835593 0.024226064
000180 92 a1 59 ba 55 b7 04 3d ee 81 e0 3c d3 15 ec 3c
       -0.0008301969 0.0324014 0.027405705 0.028819
000190 9c c5 8b 3c 93 da 9d 3c 73 e8 39 3d 6b 70 6f ba
       0.017062 0.019269263 0.045387696 -0.0009133878
0001a0 d3 07 49 3c 90 f3 8c 3d 3a aa 7c 3c eb 64 aa 3b
       0.012269932 0.06882393 0.015421445 0.0052000186
0001b0 ab 11 2f 3d c6 b9 ac 3b c8 6b 6a 3b 21 cf a1 3c
       0.04274146 0.0052711694 0.003576981 0.019752087
0001c0 d3 34 9d 3c 6a 20 d9 3c aa 1e f8 3c 9d 46 75 3c
       0.019190228 0.026504714 0.03028806 0.014970449
0001d0 aa 9d df 3c c7 5f f5 3c c8 2c 6d 3b 2c a4 ab ba
       0.02729686 0.029952897 0.0036190022 -0.0013095192
0001e0 10 ca 64 3d c4 a4 28 3d 7a 36 a0 3b f0 1c af 3b
       0.055856764 0.041172758 0.0048893066 0.005344026
0001f0 a8 23 0e 3d 0e 65 21 3d f3 88 fd 3a 81 3c af 3c
       0.034701973 0.039403014 0.0019343182 0.021391155
000200 c4 35 ce bd b0 f2 af bc 27 09 c8 bc ce 20 c4 3d
       -0.10068849 -0.021478027 -0.024418427 0.095765695
000210 42 aa dd bd 57 e1 f6 bb fa 9b 4d bd 4c e5 8d bd
       -0.1082349 -0.007534187 -0.05019758 -0.069285005
000220 b1 59 9a 3c dd a3 4f 3c 25 7e 1a bb a2 a5 8f bd
       0.018841596 0.012673345 -0.0023573723 -0.07014014
000230 8e ed d0 3d d2 74 28 3c 65 ef b4 bd e0 26 e7 bd
       0.1020156 0.010281758 -0.088347234 -0.11286712
000240 b8 4d 99 bd fe b0 dd 3c 45 84 e8 3d 66 0f 92 3d
       -0.07485527 0.027061936 0.113533534 0.07131843
000250 41 9c a5 bd f9 92 93 bd ff a1 83 bd 91 45 a4 3d
       -0.08086444 -0.07205767 -0.06427383 0.08021081
000260 a2 ad ad bd c5 45 ef bc f1 58 47 3d 50 f1 86 3d
       -0.084803835 -0.029208073 0.048668806 0.065889955
000270 7b 7b 62 bd 59 49 cb bd f5 26 51 3d c1 a9 35 3d
       -0.05529354 -0.09926099 0.051062543 0.044351343
000280 75 cb a8 bc cb 88 76 3d 91 f4 06 3c 67 c2 3f 3d
       -0.020604828 0.06018905 0.00823702 0.046816256
000290 46 6d 3d bd f7 39 a2 3c db da f0 bd 1c 83 90 3d
       -0.04624679 0.01980303 -0.11760493 0.07056257
0002a0 d6 5d 96 3d 49 1f 85 bd 7d 83 77 bd 80 8b ef bd
       0.073421165 -0.06500108 -0.06042813 -0.116965294
0002b0 a9 4d 33 bd df 52 cd 3d 72 08 aa bd 75 d4 84 bb
       -0.043775234 0.10025572 -0.08302392 -0.004053647
0002c0 0a d6 99 bd 0d 1e cf 3c 6c ba 74 3c 30 4b 09 bb
       -0.07511528 0.025282884 0.014937025 -0.0020949356
0002d0 48 e9 d7 3a 44 81 e3 bd 6c 5c 82 3d ee 11 b6 3d
       0.0016472721 -0.1110864 0.06365284 0.088901386
0002e0 21 e6 30 3d 44 c7 b0 bc e9 68 e4 bd b2 a9 ba bd
       0.043188218 -0.021579392 -0.111528225 -0.09114398
0002f0 20 2e b3 bd 56 a3 83 3c 65 61 d2 bd f4 20 5d bd
       -0.08749032 0.016069096 -0.10272483 -0.053986505
000300 89 90 90 3c c2 6f 13 3b cb 1b ff 3a 0b 7a 0a 3b
       0.017647045 0.0022497033 0.0019463239 0.0021129872
000310 fc 57 f2 ba c7 dc 08 3d a0 76 0c 3a cc 89 00 3d
       -0.0018489356 0.033413675 0.00053582527 0.031381413
000320 ec 44 d0 3b dc eb c9 3c 1c 6f 4f 3b 2f 7f 05 3b
       0.0063558724 0.0246486 0.003165192 0.0020369997
000330 e1 96 09 3c 0c 7d e1 3b 6a 29 51 3c ca e6 9d 3c
       0.008397789 0.006881362 0.012766222 0.019275088
000340 42 30 56 3c 90 cb 65 3b d5 92 4e 3c 77 c4 1d 3c
       0.013073029 0.003506396 0.01260825 0.00962936
000350 16 0c 10 3d 81 f9 57 3d d3 cc 7e 3c 4c 5e 50 bb
       0.035167776 0.05272818 0.015551764 -0.0031794487
000360 60 62 d2 3c ac 78 64 3c 4d a8 dd 3b b3 66 01 3c
       0.025681674 0.013944786 0.006764448 0.007898021
000370 75 64 75 3c ba 36 13 3d 1c 6f ee 3c a7 8e b0 3c
       0.014977564 0.035940863 0.029105715 0.021552397
000380 24 27 88 3b b6 cd c3 3c 30 87 80 3c 67 e0 02 3d
       0.0041550566 0.023901802 0.015689462 0.031952288
000390 86 dc 23 bd 0a 4a 6e 3c 3d 9b 04 3d 99 0b 16 3c
       -0.04000523 0.0145440195 0.03237461 0.0091580385
0003a0 46 d8 ef 38 f9 9f fe 3c 42 19 86 3c 61 c4 a6 bb
       0.00011436692 0.03108214 0.016369466 -0.005089328
0003b0 4b 15 af 3c ac 75 5d b9 95 0c 86 3c 1e c5 80 3c
       0.021372458 -0.00021120039 0.016363421 0.015718993
0003c0 3d 35 c8 3b 1a 71 9b 3c 43 61 9f 3c c7 4f 22 3b
       0.006109862 0.01897483 0.019455558 0.002476679
0003d0 ad 4b 92 3c 76 30 a1 3c c6 43 8b 3c 78 e3 9e 3b
       0.01785835 0.019676428 0.01700009 0.0048488937
0003e0 25 93 82 3c ea 70 c3 3c b1 3e 57 3c 6e b6 be 3c
       0.015939305 0.023857553 0.013137505 0.023280349
0003f0 fc b2 a0 3c 63 41 ff 3c aa 28 41 3c 00 0e 78 3c
       0.019616596 0.031159109 0.01178948 0.015140057

bias_hh_l0 f4 [256]
000000 f9 0a 65 3c 24 aa 98 3d d8 9a aa 3b bf 73 0f 3c
       0.013979667 0.07454327 0.005206447 0.008755623
000010 bb d1 ee bb 0b 89 35 bc 09 63 c7 3a 4c ba f3 3b
       -0.0072881854 -0.011080037 0.001521201 0.00743798
000020 ce f6 01 bd 0a f5 20 3d d9 d1 79 3d ea da 1c bc
       -0.031729512 0.039296187 0.060991142 -0.009573678
000030 18 5b 9c 3c c3 20 c1 3b 30 3d 78 bd b6 01 f3 3b
       0.019086406 0.005893798 -0.060605228 0.0074159754
000040 b8 b8 4a bc 14 f8 0d bc 34 36 6a 3c 0e 9a 73 3b
       -0.012373142 -0.008665103 0.01429515 0.0037170681
000050 10 72 65 3c d8 b1 32 3d 2b 81 f1 3a 7b 7a a5 3c
       0.014004245 0.043626636 0.0018425336 0.020200005
000060 ee af 54 3b b8 66 8a 3c d9 c7 ff 3a 50 96 63 3d
       0.0032453495 0.016894683 0.0019514515 0.05556327
000070 21 04 7a 3a 8f bf e0 3c f4 ad e3 3b fb 3d b0 3b
       0.00095373584 0.027435092 0.006948227 0.0053784824
000080 31 81 7c 3b 24 80 0a ba 6d 43 48 3b 4d 38 24 3c
       0.0038529153 -0.00052833767 0.0030557767 0.010023189
000090 4e b3 ac 3c 5d 42 a6 3b 06 6a 59 3c 3f 42 f2 3b
       0.021081593 0.005073829 0.013269907 0.007393151
0000a0 35 64 72 3c ff 2e c5 3a c4 cd 61 3c 62 0f 03 3d
       0.014794399 0.0015043913 0.0137819685 0.031997092
0000b0 bc 69 bb 3b 47 17 94 3b c0 80 9b 3c 46 52 20 ba
       0.0057193916 0.0045193764 0.018982291 -0.00061157753
0000c0 16 29 83 3d a4 d1 52 3b 51 2d c5 3a 83 38 99 bc
       0.06404321 0.0032168413 0.0015043413 -0.018703705
0000d0 59 e5 97 3a 72 55 e0 3b 4b cb fe 39 61 72 aa 3b
       0.0011588737 0.0068461234 0.0004859812 0.0052016233
0000e0 0c 95 55 3d 2e a9 3b 3d dd 20 8c 3c 34 7f 22 3c
       0.052144095 0.04581564 0.017105514 0.009918023
0000f0 52 b0 95 3b e5 f4 b6 3b 8f fd 63 3b 89 97 49 3b
       0.004568138 0.005583393 0.0034788584 0.0030760488
000100 f3 dd 1b bb 59 bc 15 3c ca 92 06 3c 2b 58 ac 3b
       -0.0023783415 0.009139144 0.008213708 0.005259534
000110 d2 db b8 3c f3 51 4c 3d e2 54 a4 3b 9f f0 99 ba
       0.022565756 0.04988284 0.0050150016 -0.0011744684
000120 3f 60 9f 3b f8 22 82 3c 57 a5 dc 3b 43 37 24 3c
       0.0048637684 0.015885815 0.006733577 0.010022941
000130 8d 9e 85 3c cc 43 c5 3c fc 76 97 3c 49 a8 1a 3c
       0.016310954 0.02408018 0.018489353 0.009439536
000140 0f 43 83 3c f1 cd af 3b 8f 2b 89 3c df 0d 6d 3c
       0.016023187 0.0053651263 0.016744403 0.014468639
000150 f1 a0 3a 3d d2 c4 8e 3d 3a 90 44 3b da e0 93 3c
       0.045563642 0.06971134 0.0029993192 0.018051554
000160 55 34 8c 3c 09 fb a5 bb 1e 84 5b 3b 65 31 09 3d
       0.017114798 -0.005065326 0.0033495496 0.033494372
000170 4a 90 4c 3c 32 e3 1a 3c 68 5c 02 3d af d9 aa 3c
       0.012485573 0.009453582 0.031826407 0.020855753
000180 96 0d 58 3b a0 2c 01 3d 6e 90 de 3c 37 fe f8 3c
       0.0032967082 0.0315367 0.027168479 0.030394657
000190 08 ed 91 3c 5b 63 9f 3c eb 65 10 3d 97 16 f1 3b
       0.01781322 0.019456556 0.035253447 0.0073574292
0001a0 42 1f 4e 3c 5e 61 f9 3c 29 5e 8c 3c 93 09 20 3c
       0.012580695 0.030441936 0.017134743 0.009767908
0001b0 7f 8b c7 3c 19 f6 43 bb a3 ab 80 3c 22 d4 98 3c
       0.02435851 -0.0029901324 0.015706843 0.01865584
0001c0 8a a0 4e 3d 3f d6 db 3c e0 33 f8 3c d5 e7 69 3c
       0.05044607 0.026835559 0.030298173 0.0142764645
0001d0 78 91 df 3c 78 d5 c6 3c 11 7b d4 3b eb 85 d8 3c
       0.027291045 0.024271712 0.006484397 0.026431045
0001e0 95 61 9f 3d 12 85 00 3d 03 fd d0 3c 52 89 cc 3c
       0.07782284 0.031376906 0.02551127 0.024967823
0001f0 c9 ff a6 3c 98 60 26 3d 00 4e d2 3b f7 78 ad 3c
       0.02038564 0.040619463 0.0064179897 0.021175845
000200 04 35 8a bd cd 9d 0c 3d 74 1c e8 ba bd 5b 4e 3c
       -0.06748393 0.034330178 -0.0017708675 0.012595114
000210 01 f0 58 3d cb 2b e7 bd 3f f7 0d 3c 8b 9f 83 bd
       0.05296326 -0.1128765 0.008664905 -0.06426915
000220 d1 77 76 3d 6f 28 9e bd f0 ff 11 3d 31 dc 89 3c
       0.06017286 -0.07722556 0.03564447 0.016828628
000230 19 c8 d8 3d f1 e2 d8 bd 72 9a 81 bc bd c6 1e bd
       0.105850406 -0.10590161 -0.015820716 -0.03876375
000240 c8 74 c0 3d 6d ff 2f 3c a4 31 d9 bc 71 87 65 3d
       0.09397274 0.010742051 -0.026512928 0.05603737
000250 53 fe 95 bb 5e ab 18 be 35 b9 b1 bd 9e 50 e5 3d
       -0.004577437 -0.14909121 -0.086779036 0.11197017
000260 05 56 9b bd a4 1f 91 3d 4b 2f 87 bb 93 1e 10 3e
       -0.07584766 0.07086113 -0.004125511 0.14074163
000270 8d 4c ea b9 dd a1 d2 bd c4 f0 5c 3c ef 8c 9a 3d
       -0.00044688993 -0.10284779 0.013485137 0.07546412
000280 c9 5d c2 bd 39 2a a6 3d 0d bd 56 bc 4d 97 c1 3d
       -0.09490544 0.08113522 -0.013106597 0.094526865
000290 28 c4 97 bd d6 ad 5a bc a5 a8 35 bd 62 2b 9d 3d
       -0.07410461 -0.01334711 -0.044350285 0.0767429
0002a0 6b cf a2 3d d8 fa e3 3d 00 9a 4d bd 3b cf d1 bc
       0.07949718 0.11131829 -0.050195694 -0.02561151
0002b0 90 7a 8f 3d 0c c7 df 3c e3 c3 f8 bd 14 85 72 bd
       0.07005799 0.027316593 -0.121467374 -0.059208944
0002c0 91 91 bf bd e8 03 42 bd f7 ee d7 bb 77 bc f0 bd
       -0.093539365 -0.047367007 -0.006589766 -0.11754697
0002d0 f1 c4 b8 3b 5d a9 a2 bc 24 f5 89 bd 43 8e 63 3c
       0.0056387116 -0.01985615 -0.0673621 0.013888898
0002e0 2b 2f 0c 3e 57 f9 3a bd e4 73 92 3c 55 76 bf bd
       0.13689868 -0.045647945 0.017877527 -0.09348742
0002f0 f4 a2 56 bd 1b 29 00 bd f8 a4 84 3d 39 a4 22 3d
       -0.052401498 -0.0312892 0.06476778 0.039707396
000300 f1 9a 18 3c 8b bb 15 3b 73 c4 f5 3a 45 8c 7e 3b
       0.009314285 0.002284738 0.0018750563 0.0038840931
000310 25 3e 2f bc 44 38 ca 3c 28 b0 06 3a 6f b2 1b bd
       -0.010695969 0.024685033 0.00051379437 -0.038011964
000320 31 65 73 bb cf 5a 49 3c 1c 32 85 3b 3b 4e 09 bd
       -0.0037139172 0.012289717 0.0040648114 -0.033521872
000330 d9 19 6e 3c 1a db 76 3c 7b 39 85 3c 16 e5 a1 3c
       0.01453253 0.015066886 0.01626276 0.019762557
000340 b5 dd 58 3c f8 47 3d 3b 94 b5 27 3d 21 ee f0 3b
       0.013236453 0.0028882008 0.04094465 0.007352606
000350 37 19 10 3d aa cd 1c bc 1e dd 73 3c cf 3b 92 3b
       0.035180297 -0.0095705185 0.014884261 0.004462696
000360 c5 bf a7 3c 4c f2 64 3c 22 f0 cb 3b d7 67 41 3d
       0.020477185 0.013973784 0.0062236944 0.04721817
000370 06 9a 7b 3c d8 33 1c 3d 0a 90 eb 3c bf 4d bc 3c
       0.015356546 0.03813538 0.028755207 0.022986291
000380 c3 0b 7c 3b 0b 38 44 3c 48 64 7e 3c 65 a6 0a 3d
       0.003845916 0.011976252 0.015526839 0.033850092
000390 f6 6f 47 bc fc 59 71 3c d1 f8 a7 3c c0 92 fd b9
       -0.01217269 0.014730927 0.020504387 -0.00048365258
0003a0 2f c0 aa 3c 60 b4 e5 3c a3 d2 86 3c 04 31 3c 3b
       0.020843593 0.028040111 0.016457861 0.002871574
0003b0 d9 8e 90 3c 27 9c 07 3c fb ef 99 3c 69 0f 90 3c
       0.01764624 0.008276976 0.01879119 0.017585473
0003c0 2b 2e d7 3c 3c 6d 9b 3c f4 1f 78 3c ab ca 57 3b
       0.026267132 0.018972985 0.015144337 0.0032927196
0003d0 40 df 8b 3c ef 68 a5 3c af 79 2f 3d bd 46 5e bc
       0.017074227 0.020191638 0.042840656 -0.01356667
0003e0 f9 43 82 3d 7f 1a 24 3c ab 4d 12 3d 99 21 a9 3c
       0.06360621 0.010016083 0.0357186 0.020645903
0003f0 57 6f 26 3c a5 3b ff 3c 7d fd 2a 3c 37 0a 83 3c
       0.010158381 0.03115637 0.010436413 0.015996082

weight_ih_l1 f4 [256, 64]
000000 c7 7a c7 ba 82 9d 25 3c 0b 76 ce 3b d9 cf d7 3a
       -0.0015219086 0.010108354 0.006300693 0.0016465142
000010 ac 98 59 bc 9d 3a db bc e6 a9 66 3c 2e 32 e0 3c
       -0.013281029 -0.026761347 0.014078593 0.027367678
000020 e9 c2 7d 3c c7 9a 74 bb 67 63 8e 3c 8e 39 b8 3c
       0.015488365 -0.00373237 0.017381383 0.022488382
000030 fe 4c 6a 3b 97 28 34 3b 18 a5 f2 bc e0 98 ec bb
       0.0035751457 0.0027490014 -0.029619738 -0.0072203726
000040 c4 db ec 3c 2f 88 05 3c 12 eb 2f 3d 7d 19 a5 3b
       0.028913386 0.0081501445 0.04294879 0.005038439
000050 c8 12 f0 bc bd 87 ea 3a 3d a8 d4 ba cd 04 1a 3a
       -0.02930583 0.0017893236 -0.0016224455 0.0005875349
000060 76 dc 80 bb f4 41 fe b9 3f b4 3b 3b 59 ec 9d 3c
       -0.003932531 -0.00048495794 0.002864137 0.019277738
000070 64 8c 11 bb df 55 01 bd 45 76 49 3b 82 09 85 3b
       -0.0022208923 -0.031576034 0.003074066 0.0040599713
000080 e9 19 b2 ba 6f a0 73 3c 49 c3 89 3c 95 e9 81 3b
       -0.0013588044 0.014869793 0.016816752 0.0039646127
000090 2a f7 f8 bc ef ea 97 39 db d0 83 bd ef 1b b0 bb
       -0.030391295 0.00028976004 -0.064363204 -0.0053744237
0000a0 2a 17 89 b8 e8 6b 19 3d 69 8f de bc a6 58 46 bb
       -6.536984e-05 0.037456423 -0.027167993 -0.003026524
0000b0 48 cc d0 bb 11 a0 ef 3a 8c 9b 85 ba 11 02 eb 3a
       -0.0063720085 0.0018281956 -0.0010193451 0.0017929693
0000c0 f7 d0 fd bb 8e 67 2b bb 39 af f6 3b 18 65 84 3c
       -0.007745858 -0.0026154253 0.0075282124 0.016161487
0000d0 3d ef 96 3b 38 50 71 bb a0 bd 32 bc a1 8d f2 bc
       0.004606156 -0.0036821496 -0.010909468 -0.02960855
0000e0 65 be 0f 3a 70 c8 9b bc b9 40 fb bb 65 94 f2 bb
       0.0005483388 -0.019016474 -0.0076676277 -0.007402944
0000f0 cd 16 ae bc 68 66 44 3b 3f 8e 1a 3c 30 66 de bb
       -0.021251107 0.0029968265 0.009433328 -0.006787084
000100 2c ac 94 bb c8 47 63 3c 15 11 9c 3a fd 5b 4e 3b
       -0.004537126 0.013872094 0.0011906946 0.0031487935
000110 92 f1 4e bc 57 78 40 bc f5 de 0e 3b cd e9 aa 3c
       -0.012630837 -0.011747441 0.0021800373 0.020863438
000120 5b 40 b3 3c 9d ca 00 bd e7 ca 85 bb 8b 20 55 3c
       0.021881273 -0.031443227 -0.0040830257 0.013008247
000130 a7 4b c9 3b b5 78 6b bd 42 0a 15 3d 21 74 99 bd
       0.0061430517 -0.057488162 0.036386736 -0.07492853
000140 c6 6e 2a 3c 54 84 5b 3b 57 63 d5 3c eb 91 7c 3b
       0.010402387 0.0033495622 0.026048345 0.0038539122
000150 c7 21 11 3c 1a e5 21 bc 38 cd 39 bb 1e 61 58 3b
       0.008858151 -0.009881282 -0.002835108 0.003301687
000160 82 aa dc bb 47 76 92 3a 63 73 0e bb a6 a3 8e 3c
       -0.0067341933 0.0011174165 -0.0021736256 0.017412018
000170 28 3e 02 bb 10 9a 4f bd 8e d7 86 3b 46 9a a8 3b
       -0.0019873474 -0.050684035 0.0041150516 0.005145344
000180 ee 48 2d bb 47 86 bf 3b 41 8b 56 3d 75 95 c4 3b
       -0.0026441175 0.0058448645 0.052378897 0.005999262
000190 47 ff 19 bc a1 36 51 bd 3f b6 30 bd a4 6e 34 bd
       -0.009399242 -0.05107749 -0.043142553 -0.044050828
0001a0 9e bc 8b 3b 02 4b 69 3c b2 fb fc bb 54 ca 9b bb
       0.0042644283 0.014239075 -0.007720434 -0.004754344
0001b0 80 99 3f 3d 1a 65 46 3b 03 cc b7 bb 6f 1b c9 38
       0.04677725 0.0030272664 -0.005609037 9.589537e-05
0001c0 17 dd 79 bd 27 cb 36 bb 80 5b c1 bc a9 e6 12 3b
       -0.061001863 -0.0027892084 -0.0236032 0.0022415316
0001d0 25 23 3b 3c 5e b4 ac bb 02 18 40 bc 92 1e 65 3b
       0.011421953 -0.005270525 -0.011724474 0.0034960848
0001e0 cd aa fe 3c 60 8d cb bc 35 cc c1 bc a2 1d 05 bc
       0.031087304 -0.024847686 -0.023656944 -0.008124741
0001f0 cc ae 96 ba 30 70 fb 3a 8d 33 e0 bc 6f 4c 99 bc
       -0.0011496185 0.0019183215 -0.027368331 -0.018713204
000200 6b 3e 3c ba 2e a4 83 bc 3a f4 4e 3b cc 34 16 3b
       -0.0007180932 -0.016069498 0.0031578676 0.0022919653
000210 ce 32 dd bc fe 56 85 bd 4d a3 cc 3b 2d 3e 2e 3d
       -0.027001765 -0.06510733 0.006245053 0.042539764
000220 ed d6 4e 3d 0e 98 7c bc 07 2f 86 bb b9 78 2a 3d
       0.050497938 -0.015417112 -0.0040949616 0.041619036
000230 2d da 13 3c 0b cf 80 3c 71 b6 2c 3d 70 7b 5c bd
       0.009024185 0.015723726 0.042166177 -0.053828657
000240 58 1b eb 3c e1 d2 14 3b fb b2 a3 ba 70 ea 96 3b
       0.028699562 0.0022708701 -0.0012489253 0.004605584
000250 c9 0a 37 3b 4e e3 49 bc 79 5e ca 3a ad db 1a 3c
       0.0027930012 -0.01232226 0.0015439532 0.009451789
000260 42 fe 9c bb 0c 5d 0e bb 4d 7d 23 39 23 3d 64 bc
       -0.004791052 -0.002172294 0.0001559157 -0.013930592
000270 87 b8 a2 bb a2 b9 73 bd f5 65 01 3c 8c ca db 3b
       -0.004965845 -0.059503205 0.007897844 0.006707495
000280 5d b0 0d bb 73 46 2d 3d 0a 78 f6 3c b3 78 65 3b
       -0.0021620013 0.042303514 0.030086536 0.003501457
000290 0b 30 37 bd bc 4c 68 3c 5d 10 2d bd 7e 49 6d bd
       -0.04472355 0.014178451 -0.042251933 -0.057931416
0002a0 b4 3c bb 3a cb 0a 89 3b d4 85 09 3c cc 71 8c ba
       0.0014285059 0.004182195 0.0083937235 -0.0010715066
0002b0 68 41 85 3d 75 70 02 3a 98 28 b4 ba 02 51 c9 3b
       0.06506616 0.0004975864 -0.0013745008 0.00614369
0002c0 e8 e3 f1 3c 31 67 d8 bb e2 35 8d 3c 6e 00 c0 3c
       0.02952762 -0.0066040982 0.017237607 0.023437705
0002d0 4d e3 9d 3b 64 ce b6 bb 0b 97 14 bc 7b 2b 05 3d
       0.004818356 -0.005578803 -0.009069215 0.03251217
0002e0 ee 10 6b 3c 81 67 d7 bc 62 25 89 bb cf f5 f2 3a
       0.014347298 -0.026294472 -0.0041853646 0.0018536391
0002f0 41 90 d6 bc be 96 12 3c 71 ac f1 3c fa ff 21 bc
       -0.026191832 0.008947073 0.029501172 -0.00988769
000300 97 f4 5f 3a 93 c7 cd 3b cb 80 74 3c aa a3 87 ba
       0.00085432216 0.0062798946 0.014923285 -0.0010348458
000310 85 af 48 bc c9 ca 07 bc 60 e5 01 3c 11 c0 5e b9
       -0.012248878 -0.008288094 0.007928222 -0.0002124312
000320 22 67 62 3b eb d8 7f bc 13 c1 64 3b fc f5 78 3c
       0.0034546335 -0.015615682 0.003490512 0.015195366
000330 bd d0 21 3a 73 f9 9b bc af e4 13 3c 46 53 25 bc
       0.0006172767 -0.019039845 0.00902669 -0.010090655
000340 ef 55 a4 38 5d 70 07 3b a9 67 e1 3b 0e 5b 2b 3a
       7.836136e-05 0.002066634 0.0068788123 0.00065367005
000350 25 87 26 bc 1c f8 c9 ba 98 eb 90 3a 77 e0 1d bb
       -0.010164057 -0.0015409025 0.001105654 -0.002409009
000360 df ad 57 b9 5e 45 30 bb 71 d5 97 ba 00 24 a3 3c
       -0.0002056877 -0.0026896815 -0.0011583996 0.019914627
000370 90 4f 20 ba 55 70 61 3b f1 ef 77 3a 27 78 cb 39
       -0.00061153714 0.003439923 0.00094580563 0.00038808698
000380 1d 7b 4b 3a fc 14 a4 bb 3a c9 0c 3c 04 ee 4a 3a
       0.0007762181 -0.0050073843 0.008592898 0.00077411556
000390 4c 63 c6 ba 97 93 9e bc 94 b8 9c bc f3 dc ff bb
       -0.0015135794 -0.019357486 -0.019130982 -0.0078083216
0003a0 7a bd 85 ba 9d 3b d0 3c 7a 08 91 bc b7 bc 57 3a
       -0.0010203563 0.02541905 -0.017704237 0.000822972
0003b0 d8 b8 f7 3b 58 62 29 ba 98 4b 82 3a c0 59 1e 3b
       0.007559877 -0.0006461493 0.0009940742 0.0024162382
0003c0 44 b1 3a bb 75 f1 b6 ba d6 52 3e 3c 2d 45 0f 3c
       -0.0028487006 -0.0013957458 0.011616429 0.00874452
0003d0 78 0b 75 3c c8 be 22 ba 55 2f 07 bc e4 8e 73 bb
       0.014956348 -0.0006208238 -0.008251031 -0.0037164027
0003e0 e7 a6 a4 3b 50 1e 53 bc d2 a2 3b bc 2d 7f 68 ba
       0.005024779 -0.012885645 -0.011452394 -0.00088690483
0003f0 57 c8 97 bc 95 78 fe 3a 89 f8 14 bc 4c 43 ac bb
       -0.018528147 0.0019414598 -0.0090924585 -0.005257046

weight_hh_l1 f4 [256, 64]
000000 18 a5 53 bb f7 e9 38 3c fd 64 ca 3b 53 4b d3 bb
       -0.0032294448 0.01128625 0.0061765895 -0.0064481883
000010 bf 06 08 3c 5f 2f 2d bb 88 fe 0e bd ba 5f d9 bc
       0.00830239 -0.002642594 -0.03491071 -0.026534904
000020 26 3a b3 ba 89 8e fd 3b f7 00 dd bb 34 c4 a2 bc
       -0.0013673946 0.007737939 -0.0067445 -0.019868948
000030 3c d7 93 3c af 29 b5 bc 81 a9 60 3d 02 90 dc bc
       0.018046968 -0.022114603 0.05484915 -0.026924137
000040 34 69 3c bd c3 a4 92 3c 74 39 e4 bb 1e 64 ce 3c
       -0.045998767 0.01790083 -0.0069648568 0.025194224
000050 0f 2b 58 3c d1 fd a2 bc 2a cd 9a 3c b0 dc 9d 3c
       0.01319386 -0.01989642 0.018896658 0.019270271
000060 73 de fa bb 80 da 36 3d 59 c4 f2 bc d0 fd c7 bb
       -0.0076559125 0.04464197 -0.029634641 -0.006103255
000070 64 c4 a0 3b 94 cc 87 3c 65 8b 7e 3c 67 4d 19 3c
       0.004906224 0.016577043 0.015536164 0.009356833
000080 90 aa fa bc bf 7e fd bc e8 7e 89 bc e3 a0 27 3c
       -0.030598909 -0.030944226 -0.016784146 0.0102312295
000090 6f 14 42 bc ce 77 65 bb 08 d0 21 bd e8 a2 01 3d
       -0.011845692 -0.0035014036 -0.039505035 0.0316495
0000a0 cb bc 21 bd 50 7f 13 bd 8e 8f 23 3d e4 04 ab 3c
       -0.039486688 -0.036010087 0.039931826 0.020876355
0000b0 9c 70 e0 3c 32 07 56 3c 6b 1f 49 bb 97 35 8d bc
       0.027397446 0.013063239 -0.0030688893 -0.017237468
0000c0 e1 be 12 bd 72 cf 1f bd b9 56 00 bc ef 9f 10 bd
       -0.035826568 -0.039016195 -0.007833176 -0.035308775
0000d0 99 07 23 3c 26 4f 78 bc 85 43 e0 3b 0c 10 c2 3b
       0.009950542 -0.015155589 0.0068439865 0.005922323
0000e0 70 e3 39 3c d4 84 c6 bc 4d 9a af bc 79 f3 15 bd
       0.011345729 -0.02423326 -0.021435881 -0.036609147
0000f0 01 ac 48 3c 4d aa 4a bc 67 7f 84 3c 31 74 d8 bb
       0.01224804 -0.012369704 0.016174031 -0.006605648
000100 bf 92 92 bb a6 bb 96 3b 4e 88 d5 3c b2 52 97 3c
       -0.00447306 0.004600006 0.026065972 0.01847205
000110 5a 46 82 bb 6f d5 a7 bc 6c 13 06 3d bc 21 05 bd
       -0.0039756717 -0.020487515 0.032733366 -0.032502875
000120 c5 2d 3e bc 38 49 33 3c 7f 24 9b 3c e7 8f 12 bd
       -0.011607592 0.01094275 0.018938301 -0.035781767
000130 ef cd 0e ba 58 1b 67 3b c3 ea 65 3d 48 01 b8 3c
       -0.00054475566 0.00352641 0.05613209 0.022461548
000140 0d 24 f1 bc 4f 68 9f 3c c6 a6 22 ba 6d d4 2c 3c
       -0.029436136 0.019458918 -0.0006204661 0.010548693
000150 77 19 72 3c 11 5a 93 bc b1 cb c5 3c 36 f0 10 3d
       0.014776579 -0.017987283 0.02414498 0.035385333
000160 2e ff d4 3c 5a 7e 45 3c 0b 79 2f bd 27 98 f5 bb
       0.026000585 0.01205405 -0.042840045 -0.0074949446
000170 7f ce 02 3d ba e6 ff b9 a0 35 c1 bb f4 dc 21 3d
       0.03193521 -0.00048809295 -0.005896285 0.039517358
000180 26 e6 3a bc a8 5e 2b bd 83 94 09 bd 8e a5 44 bc
       -0.011407411 -0.041838318 -0.033588897 -0.012002362
000190 6b c0 61 bd 9c e7 0f bd 9f 54 29 bd 49 21 0d 3d
       -0.055115145 -0.03513299 -0.041340467 0.03445557
0001a0 75 2a 07 bd 05 eb 29 bd de 3f 2a 3d 2b 43 f6 3c
       -0.032999475 -0.041483898 0.041564815 0.030061325
0001b0 f5 4b c0 3c 2b 50 e9 3b 4e 18 1f bc 6e 44 a5 bc
       0.02347372 0.0071201525 -0.0097103845 -0.020174231
0001c0 5f e1 4f bd e9 0e 63 bd 66 ac 00 bd 03 77 0b bd
       -0.05075204 -0.05543414 -0.031414412 -0.034049045
0001d0 ab b8 97 3c 92 5d 19 bd 12 d1 06 3d d3 c7 d7 3c
       0.018520674 -0.03744275 0.03291423 0.0263404
0001e0 b5 0d 26 3d f9 1d 0b 3c ed 9e 8c bc d2 c8 c2 bb
       0.040540416 0.008491033 -0.017165625 -0.00594435
0001f0 55 90 56 bc fa 95 cc bc f6 9f 67 bc 25 ce 19 3c
       -0.013095935 -0.024973858 -0.014137259 0.009387528
000200 be f3 3d bb 24 6f b6 3c 37 58 fb 3c 93 3f 22 3d
       -0.0028984393 0.022269793 0.030681713 0.03961141
000210 2b d4 07 bd 55 be b4 bc 2a 0a b9 bc 64 1a 56 bd
       -0.033161324 -0.022063414 -0.022587854 -0.05227126
000220 26 92 85 3c 74 2c 6b 3c a3 6e 66 3b 15 fe 7b bc
       0.01630504 0.01435386 0.003516116 -0.015380402
000230 8a 87 a1 3c 53 b8 e3 bc 53 5f 4e 3c 95 f3 9b bc
       0.01971795 -0.027797854 0.012595969 -0.019037047
000240 4a 55 71 bc 58 90 9b 3c cb 0f b6 bc ed b1 95 3c
       -0.014729807 0.018989727 -0.022224328 0.018273318
000250 50 2d 6c bc ed a0 8f bc 00 d2 ee 3c 26 2d 2f 3d
       -0.0144151 -0.01753279 0.02915287 0.042767666
000260 0e 5b 9a 3b a9 98 00 3d b2 5c 37 bd 06 09 d1 bc
       0.0047105616 0.031395588 -0.044766136 -0.025516998
000270 ad 12 36 3d 1b f2 36 3d d0 d1 de 3c 24 90 27 3d
       0.044451404 0.044664484 0.027199656 0.040908948
000280 a8 50 91 bc 4a e1 d3 bc 6c 37 a7 bc 42 0b e6 3b
       -0.017738655 -0.025864262 -0.02041217 0.007020385
000290 0e b9 39 bd e2 74 19 bb 05 ed fb bc 5e 3a d1 3c
       -0.045342498 -0.0023415615 -0.030752668 0.025540527
0002a0 ba d8 b3 bc 9e b3 f0 bc 36 62 37 3d 49 91 a9 3c
       -0.02195393 -0.029382523 0.044771396 0.02069916
0002b0 3c 81 28 3d 71 59 c1 3c e3 93 5e 3c d5 4e 8b bc
       0.041138873 0.02360222 0.013585064 -0.017005363
0002c0 70 c5 13 bd e5 92 15 bd 86 a8 94 bc 25 0c 5c 3c
       -0.036076963 -0.036517043 -0.018146764 0.01343063
0002d0 05 d8 3d bc 85 ef 30 3c 57 f7 ca 3c e3 ba ae 3c
       -0.011587148 0.010799293 0.024776144 0.021329349
0002e0 f4 be 06 3d 74 94 0f ba 05 37 a9 bc 0e 5c d2 bc
       0.03289695 -0.00054771383 -0.020656118 -0.02567866
0002f0 6d bc 27 bc a0 61 73 bc 27 41 d0 3b c8 02 67 3b
       -0.010237795 -0.014854819 0.006355423 0.003524946
000300 b7 c2 46 ba ec e9 eb 3b c9 a2 8f 3b 7b 68 05 3d
       -0.00075821154 0.0071995165 0.004383419 0.032570343
000310 3c 09 99 bb 86 a0 98 bc 1d 51 b0 bb 16 70 5c bc
       -0.0046702903 -0.018631231 -0.005380763 -0.013454458
000320 85 71 be b9 17 23 c6 3b 99 f4 da 3b 2d f3 83 bc
       -0.00036324203 0.0060466635 0.0066819903 -0.016107166
000330 0d 80 2a 3c a4 62 18 bc 70 d0 6a 3c fa 9e 22 bc
       0.010406506 -0.0093008615 0.014331922 -0.009925598
000340 4a fe 3c bc 71 a5 80 3b 2c d5 11 bc e8 53 6f 3c
       -0.011535237 0.003925972 -0.008900922 0.014607407
000350 d7 11 b8 3b ec 04 c8 bb b5 cf 4d 3b c4 6b 30 3c
       0.005617361 -0.0061041024 0.003140432 0.010767881
000360 e7 5b bb ba 36 30 6f 3c fb e6 98 bc c7 bf 40 3c
       -0.0014294357 0.014598897 -0.018664828 0.011764473
000370 2a 21 5a 3c d9 ec 59 3c 7d 57 73 3b 45 65 82 3c
       0.013313571 0.013301098 0.0037131005 0.01591743
000380 81 8e fa bb ef a0 ac bc 43 91 7d bc 4d 94 2f 3c
       -0.0076463823 -0.021072833 -0.015476528 0.01071651
000390 00 49 96 bc 38 ce 58 bc 73 b0 f9 ba a4 3a f7 3b
       -0.018345356 -0.01323276 -0.0019049778 0.0075448323
0003a0 55 b1 84 bc 42 aa 91 bc 2d 40 ac 3c 2f 3f e6 3b
       -0.01619784 -0.01778138 0.021026695 0.007026575
0003b0 6b 95 7c 3b ae 5b d6 3a 8e 3c 2c 3a ba 21 c6 bb
       0.0038541208 0.0016354227 0.00065703026 -0.006046501
0003c0 ad 5d c5 bc ea 62 04 bd 54 61 32 bc dc fd 8d bc
       -0.02409252 -0.032320894 -0.010887463 -0.017332964
0003d0 b5 d0 ba 3b 5f d2 ea 3a 75 b0 73 3b 9e b2 c6 3b
       0.0057011493 0.0017915479 0.0037184034 0.0060637733
0003e0 f7 4c d8 3b e3 f7 0e bb 61 d3 a0 bc dd 4f a0 bc
       0.006600972 -0.0021815232 -0.019632043 -0.019569332
0003f0 47 12 70 bb 0b 8e 57 bc b3 a1 85 bb 3f 65 64 3b
       -0.0036631988 -0.013156424 -0.004078114 0.0034850386
